models/Scenario3_12h/lstm.pth (torch, 260489 bytes, 11 tensors)

lstm.weight_ih_l0 f4 [256, 42]
0	0xbcbf6f27	-0.023368431
1	0x3d638fd9	0.055557106
2	0xbe0bbdf4	-0.1364668
3	0x3da12c66	0.078697965
4	0x3dbe232b	0.092840515
5	0xbde58d83	-0.11208632
6	0xb9bb8184	-0.00035763916
7	0x3e3ad96a	0.18247
8	0x3e05abd9	0.13053836
9	0x3abe2746	0.0014507554
10	0x3dbe61b8	0.09295982
11	0x3da8382b	0.08213838
12	0xbcb23c2b	-0.021757206
13	0x3d659a55	0.056055386
14	0x3d2f59bf	0.042810198
15	0x3d908269	0.07056124
16	0x3d095c7f	0.033535477
17	0x3d32d4a0	0.043659806
18	0xbe00b1a6	-0.12567768
19	0xbdf6c52f	-0.120493285
20	0x3bc73645	0.0060794675
21	0xbcddbc0c	-0.027067207
22	0xbd927694	-0.07151523
23	0x3d73ff04	0.059569374
24	0x3da773aa	0.08176358
25	0xbda597c6	-0.08085589
26	0xbe31fb70	-0.17381072
27	0x3d17e533	0.037083816
28	0xbd2b8109	-0.041871104
29	0xbbdbf5eb	-0.0067126653
30	0x3b366d40	0.0027836114
31	0xbd833099	-0.06405754
32	0x3d897e66	0.06713562
33	0x3d89dfdf	0.06732153
34	0x3d360d88	0.0444465
35	0x3e01b56e	0.12666866
36	0x3dbdaf56	0.09261958
37	0x3c2239cf	0.009901478
38	0xbc9246c0	-0.017856002
39	0x3d466e5a	0.048445083
40	0x3d7aa382	0.06119109
41	0xbd33fc75	-0.043941934
42	0xbd072537	-0.032994475
43	0xbdaee15b	-0.08539077
44	0x3dba0207	0.09082418
45	0x3d0fe653	0.035131764
46	0x3dd08e95	0.10183445
47	0x3d50a619	0.050939653
48	0x3e205576	0.15657601
49	0xbe01d7db	-0.12679999
50	0x3d2bba2e	0.0419256
51	0x3a91b6ae	0.0011117065
52	0xbdb2c0bf	-0.0872817
53	0xbdd7d552	-0.105387345
54	0xbddab74f	-0.106794946
55	0xbd9e9539	-0.07743306
56	0xbd11a166	-0.035554312
57	0x3d6ee94a	0.05832795
58	0xbe338a70	-0.17533278
59	0xbd20e436	-0.03928014
60	0xbd032ca4	-0.032024994
61	0xbd1c0869	-0.038093958
62	0x3d742f91	0.059615675
63	0xbd0aeee6	-0.033919238
64	0x3d222e94	0.0395952
65	0xbd7e336c	-0.06206076
66	0xbd80ce89	-0.062893935
67	0x3d4af140	0.04954648
68	0xbd979072	-0.07400598
69	0xbd34cd7b	-0.044141274
70	0x3d441f32	0.047881313
71	0x3c47e500	0.012200594
72	0x3d67531f	0.056475755
73	0xbdd6ecc5	-0.10494379
74	0xbbf64115	-0.0075150826
75	0xbddcfd3e	-0.107904896
76	0x3c443131	0.011974619
77	0xbdc57ca3	-0.09642913
78	0x3bb87743	0.0056294515
79	0x3de96ee0	0.11398101
80	0xbd7dfc25	-0.062008042
81	0x3e1537ff	0.14572142
82	0x3e036f0e	0.12835333
83	0x3de9ac44	0.1140981
84	0xbd3efd17	-0.046628084
85	0x3da4a3b8	0.080390394
86	0xbd7c129a	-0.061541177
87	0xbe006ba8	-0.12541068
88	0x3d8fc132	0.07019271
89	0x3d186e21	0.037214402
90	0x3d01ae79	0.03166053
91	0x3da30183	0.07959273
92	0x3e02fb36	0.12791142
93	0x3caa7e96	0.020812314
94	0xbcd03449	-0.025415557
95	0x3e2cec84	0.16887099
96	0xbdfa9b01	-0.12236596
97	0xbc73be3b	-0.014876897
98	0x3cf33750	0.029689461
99	0xbd465ff9	-0.04843137
100	0xbdf85d81	-0.121272095
101	0xbd2c9add	-0.042139877
102	0xbd909c8a	-0.070611075
103	0xbccfa67e	-0.025347944
104	0xbe07fbce	-0.1327965
105	0xbd2ac62f	-0.04169291
106	0x3e25ecee	0.16203663
107	0x3dc04f69	0.09390146
108	0xbe159c7a	-0.14610472
109	0x3e014e4f	0.12627529
110	0xbd064493	-0.03278024
111	0x3d042ad5	0.03226741
112	0xbddc7c8a	-0.107659414
113	0x3cd1c28e	0.025605466
114	0xbd989e07	-0.07452016
115	0xbc76d94b	-0.015066455
116	0x3c7c0895	0.0153829055
117	0x3dc512e9	0.096227475
118	0x3dc44ff9	0.09585566
119	0x3d20e9be	0.039285414
120	0x3db04ad6	0.08608024
121	0x3ce14356	0.027497929
122	0x3d81e847	0.063431315
123	0xbc880e4e	-0.016608384
124	0xbd6153e1	-0.055011634
125	0xbb8d92ed	-0.0043204934
126	0x3d4249a6	0.047433518
127	0xbe137602	-0.14400485
128	0xbe031917	-0.1280254
129	0xbd175f64	-0.036956206
130	0xbc238149	-0.009979554
131	0xbd1878ba	-0.03722451
132	0xbda1279d	-0.07868884
133	0xbe0b14fc	-0.13582224
134	0x3d56aa1e	0.05240833
135	0x3e015ef5	0.1263388
136	0x3dbb058c	0.09131917
137	0xbc99cf52	-0.018775616
138	0x3dcd69ed	0.10029969
139	0x3be671cc	0.0070326086
140	0x3d277ab4	0.040888503
141	0xbd89d07e	-0.0672922
142	0x3dcd491e	0.100237116
143	0xbd8c4669	-0.06849367
144	0xbd91d6a1	-0.07121015
145	0xbdb22c16	-0.08699815
146	0xbdc19214	-0.0945169
147	0x3c112fd7	0.008861504
148	0x3d0c788b	0.034294646
149	0x3d412662	0.047155745
150	0x3d668008	0.056274444
151	0xbe18f4dd	-0.14937158
152	0xbe128650	-0.14309049
153	0xbd6bd736	-0.057578288
154	0x3dd53e8e	0.10412322
155	0xbdf2f9cd	-0.11864052
156	0x3d2d6742	0.042334802
157	0x3cae03e8	0.021242097
158	0xbd933750	-0.071882844
159	0x3db99ad9	0.09062738
160	0x3cabd33d	0.02097475
161	0xbbe1ebb1	-0.0068945517
162	0x3d4b6dc4	0.049665228
163	0xbd412467	-0.047153857
164	0x3ba56832	0.0050478214
165	0xbd37f208	-0.044908553
166	0xbd8ed84b	-0.06974848
167	0x3d873830	0.06602514
168	0x3d68a129	0.05679432
169	0xbdf72dbf	-0.12069272
170	0x3dbcb2cc	0.0921379
171	0xbdc1a976	-0.0945615
172	0x3d5e0bb7	0.05421039
173	0x3e143457	0.14473091
174	0x3d6cce89	0.057814155
175	0xbdd58d76	-0.10427372
176	0x3e2970b8	0.16546905
177	0x3c31afb8	0.010845117
178	0x3de1cd92	0.110255376
179	0xbcb571e7	-0.02214904
180	0x3b9a303c	0.004705457
181	0xbd89d995	-0.067309536
182	0x3dd07c6b	0.10179981
183	0x3df1b01a	0.11801167
184	0x3d9ad5a4	0.0756028
185	0x3d278518	0.040898412
186	0x3dd7af21	0.1053145
187	0x3de870bf	0.113496296
188	0xbd2a9b01	-0.04165173
189	0xbd02edf5	-0.031965215
190	0xbe0d0b0f	-0.1377375
191	0x3def8ab1	0.11696375
192	0x3deba7d4	0.1150662
193	0xbd6462bf	-0.055758234
194	0x3e08f7aa	0.13375726
195	0x3de88bbd	0.11354778
196	0xbdaac782	-0.08338834
197	0xbd03e179	-0.03219745
198	0xbd80dfa0	-0.06292653
199	0xbd31f920	-0.043450475
200	0x3cc47cf5	0.023985365
201	0xbd368923	-0.044564378
202	0x3da8f12f	0.08249127
203	0x3decd8bb	0.115647756
204	0xbdd57830	-0.104233146
205	0xbd87d214	-0.06631866
206	0xbd2815f0	-0.041036546
207	0xbcd63064	-0.026146121
208	0xbdc262f1	-0.09491528
209	0x3d3e7edf	0.046507712
210	0xbe4e79ca	-0.20163646
211	0x3e09d989	0.1346189
212	0x3d440659	0.047857616
213	0x3e06c0b1	0.13159443
214	0x3d0749a0	0.0330292
215	0xbbb8341f	-0.0056214477
216	0xbd3bec26	-0.045879506
217	0xbddd2cec	-0.10799584
218	0xbdba5d56	-0.09099834
219	0x3d53e057	0.05172762
220	0xbdbe3ed5	-0.09289328
221	0xbd4acc21	-0.04951108
222	0xbc2b8187	-0.010467893
223	0x3cf6a89e	0.0301097
224	0xbd27db92	-0.040980883
225	0x3da23ced	0.07921777
226	0x3d2b32fe	0.041796677
227	0xbd82eea1	-0.06393171
228	0xbcff7fb3	-0.031188821
229	0x3d451fab	0.048125904
230	0xbd4fac32	-0.050701328
231	0x3c301c1d	0.01074889
232	0x3d2f4496	0.042790018
233	0x3dba6616	0.091015026
234	0x3c73bdb5	0.014876773
235	0xbdc05915	-0.09391991
236	0x3d8fc2d2	0.07019581
237	0xbdb18c3a	-0.08669324
238	0xbc2cd7b8	-0.010549478
239	0xbd15c364	-0.036563292
240	0x3d6f5a6e	0.05843585
241	0x3d06e767	0.032935526
242	0xbd93a109	-0.072084494
243	0xbde1f3bc	-0.11032817
244	0x3c7eac41	0.015543998
245	0xbaf0fa0a	-0.0018385064
246	0xbd1b584b	-0.037926
247	0x3d9a82d4	0.07544485
248	0x3db1b39e	0.086768374
249	0xbdf0a60a	-0.117504194
250	0xbde1f151	-0.110323556
251	0x3d7d027c	0.061769947
252	0x3d8b9e17	0.068172626
253	0x3c1fd5b4	0.009755541
254	0xbb24c0b5	-0.0025139276
255	0xbd00b9c5	-0.031427164

lstm.weight_hh_l0 f4 [256, 64]
0	0x3d977010	0.07394421
1	0x3b04782f	0.0020213237
2	0x3ceee0ca	0.029159922
3	0xbd44f625	-0.048086304
4	0x3da7976c	0.08183178
5	0xbdc93ddd	-0.098262526
6	0x3d3a8c05	0.04554369
7	0xbbaf8e24	-0.0053575207
8	0xbd4690ef	-0.048478063
9	0xbca4cd99	-0.020117568
10	0x3debfcd6	0.11522834
11	0xbdf1293b	-0.11775442
12	0xbcf832d6	-0.030297678
13	0xbc1933ff	-0.009350776
14	0xbd35761c	-0.04430209
15	0x3c9b3013	0.018943822
16	0xbd99a292	-0.07501711
17	0xbdd8e4d5	-0.10590521
18	0xbd80dc3f	-0.062920086
19	0xbd3652ad	-0.04451244
20	0xbc9fa7ec	-0.019489251
21	0x3d4094bf	0.047016855
22	0xbc77721a	-0.0151028875
23	0x3d36442f	0.04449862
24	0xbc997556	-0.018732708
25	0x3d98a062	0.074524656
26	0xbd0d3c90	-0.034481585
27	0x3d339d1a	0.043850996
28	0x3d704444	0.058658853
29	0x3e146522	0.14491704
30	0x3cc91be0	0.024549425
31	0x3d04bdb6	0.032407485
32	0xbdaa00c4	-0.08300927
33	0xbd042bcd	-0.032268334
34	0x3c993e06	0.018706333
35	0x3e206d5e	0.1566672
36	0x3b52fa8b	0.0032192792
37	0x3cd7a720	0.026324809
38	0x3cd0be97	0.025481505
39	0x3ca72f30	0.020408243
40	0x3dc5cffd	0.09658811
41	0xbd392a81	-0.04520655
42	0x3c8bca6d	0.017064298
43	0x3cdd3846	0.027004372
44	0x3d1a7a40	0.037714243
45	0xbcf64c23	-0.030065602
46	0xbd80b8a5	-0.06285218
47	0x3de57266	0.112034604
48	0xbd78d065	-0.060745616
49	0xbcbed076	-0.023292761
50	0x3de047ce	0.10951196
51	0xbc8fd2e4	-0.017556615
52	0xbcd7e98d	-0.026356483
53	0xbcd19570	-0.025583953
54	0xbbb3d551	-0.005488076
55	0xbccbc8cf	-0.024876026
56	0xbda2f6d7	-0.07957237
57	0x3d8ebcb3	0.06969585
58	0x3bf3d795	0.007441471
59	0x3c4b4605	0.012406831
60	0xbdce99f3	-0.10087957
61	0xbda706f5	-0.08155624
62	0xbddee6ff	-0.10883903
63	0x3b6a058e	0.0035708877
64	0x3daf8740	0.08570719
65	0x3d6959a2	0.056970246
66	0xbb89b651	-0.004202642
67	0x3d3d6d5c	0.04624687
68	0xbcb6394c	-0.022244118
69	0xbdf5357d	-0.11973093
70	0x3d2f0ea9	0.04273859
71	0xbe0ea02e	-0.13928291
72	0x3e0c7fa6	0.13720569
73	0xbdd8bd9a	-0.10583039
74	0x3d880014	0.0664064
75	0xbdc029dc	-0.09382984
76	0x3c961655	0.018321196
77	0xbd54daa4	-0.051966324
78	0x3d588760	0.05286348
79	0xbc8e928e	-0.017403867
80	0xbd8478f4	-0.064683825
81	0x3dd4d06a	0.10391314
82	0xbd140e9a	-0.036146738
83	0xbda58ed6	-0.080838844
84	0xbd51894c	-0.051156327
85	0x3dd0fdc1	0.1020465
86	0x3c4d3362	0.012524458
87	0xbe149182	-0.14508632
88	0xbd515182	-0.051103123
89	0xbcde02b5	-0.0271009
90	0xbe383bac	-0.17991513
91	0xbd5da821	-0.05411542
92	0xbe22f880	-0.15915108
93	0x3a8dbfdf	0.0010814628
94	0x3d5fd56f	0.054646906
95	0x3d53ae3c	0.051679835
96	0x3d90c4c8	0.07068783
97	0x3d55b387	0.052173164
98	0xbdf10abf	-0.11769628
99	0xbcf3c546	-0.029757153
100	0xbd54b8bf	-0.051934
101	0xbd67e68a	-0.056616344
102	0xbc882ebc	-0.016623847
103	0xbd875acd	-0.06609116
104	0x3c46f003	0.012142184
105	0xbc80b0c2	-0.015709285
106	0xbdf72314	-0.120672375
107	0xbdf5e26b	-0.120060764
108	0x3d53ff28	0.051757008
109	0x3d586454	0.052830055
110	0xba8f0f24	-0.0010914546
111	0x3d395833	0.04525013
112	0xbd3fd4d0	-0.046833813
113	0x3d6c1c17	0.057643976
114	0x3bcd568d	0.006266421
115	0x3d92bf51	0.07165397
116	0x3de75161	0.11294819
117	0xbcd7eead	-0.026358927
118	0xbdd97617	-0.10618227
119	0xbd62d0f9	-0.055375073
120	0xbdd502a9	-0.10400898
121	0x3c918d3d	0.017767543
122	0x3ddbcb2c	0.10732111
123	0xbe0e710f	-0.13910316
124	0x3de15a09	0.11003501
125	0xbde9eb19	-0.114217944
126	0xbd680a6f	-0.056650575
127	0x3db67a71	0.089100726
128	0x3e0fcb55	0.14042409
129	0x3dd8a58e	0.10578452
130	0xbd5c2195	-0.053742964
131	0x3da0c560	0.07850146
132	0xbddb915e	-0.10721086
133	0xbca1ffb0	-0.019775242
134	0x3cef8395	0.029237548
135	0xbc6d921a	-0.014500165
136	0x3db4dfb4	0.088317305
137	0xbd427b47	-0.047480848
138	0x3c97d314	0.018533267
139	0xbdce79df	-0.10081839
140	0xbdaba705	-0.08381466
141	0x3d4b65b5	0.049657542
142	0x3cfef8e5	0.031124542
143	0x3e03cc08	0.128708
144	0xbd88d334	-0.06680909
145	0x3e09860d	0.13430043
146	0xbe04c288	-0.12964833
147	0xbd7b095e	-0.06128823
148	0x3de4c9f8	0.11171335
149	0x3d1243fd	0.03570937
150	0x3b369fc6	0.0027866228
151	0x3d217b33	0.039424133
152	0x3d4d1340	0.050067186
153	0xbd696b49	-0.05698708
154	0xbd887edf	-0.06664824
155	0xbd776d0a	-0.060406722
156	0xbc4517c3	-0.012029591
157	0x3d29d496	0.041462503
158	0x3d90a213	0.07062163
159	0xbd1c7f53	-0.038207363
160	0x3d4de8b5	0.050270755
161	0x3bbb09e4	0.005707966
162	0xbd054254	-0.03253396
163	0xbc1311cb	-0.00897641
164	0x3c8b4ef7	0.017005427
165	0xbdab8b41	-0.0837617
166	0xbd01d2ef	-0.031695303
167	0xbd1e28bb	-0.038613062
168	0xbbb490d2	-0.005510428
169	0xbc9b8707	-0.018985284
170	0x3cd67c50	0.026182324
171	0x3d8524f5	0.065011896
172	0xbd2cbb54	-0.042170838
173	0xbb216a4c	-0.0024630008
174	0x3d616ae2	0.055033572
175	0x3d9f2eec	0.077726215
176	0x3d05b9e0	0.032647967
177	0xbd7898ea	-0.060692705
178	0x3deda1b3	0.11603107
179	0x3d199cbf	0.037503
180	0xbdbdd76e	-0.092696056
181	0x3d92c986	0.07167344
182	0x3ca552e0	0.02018112
183	0x3dd5ea8d	0.10445128
184	0x3d8efecc	0.069821924
185	0xbd403dbe	-0.046933882
186	0xbcea8b51	-0.028630884
187	0xbd826986	-0.06367783
188	0xbcbe4d5d	-0.023230249
189	0x3d8ed81d	0.06974814
190	0x3c3429c0	0.010996282
191	0xbd33ecee	-0.043927126
192	0x3d7fb909	0.062432323
193	0xbd65e409	-0.056125674
194	0x3db393e5	0.08768443
195	0x3b74f4ff	0.0037377474
196	0xbde948cb	-0.11390837
197	0xbca8c720	-0.020602763
198	0x3d593df0	0.053037584
199	0x3d7821e7	0.060579207
200	0xbdccd7f1	-0.10002125
201	0x3cce4961	0.025181474
202	0xbd80ae11	-0.062832005
203	0x3daaaf87	0.083342604
204	0x3dfe750c	0.12424669
205	0xbcc9dca4	-0.024641342
206	0xbb3de6bc	-0.002897664
207	0x3d331396	0.04371985
208	0x3d65ceed	0.056105543
209	0x3df4aac9	0.11946637
210	0x3d45e9bd	0.048318613
211	0xbd0baa36	-0.034097873
212	0xbd8539e3	-0.06505182
213	0x3d46102a	0.04835526
214	0x3cf20b8a	0.029546518
215	0x3c94fd42	0.018187169
216	0x3d811383	0.0630255
217	0x3d902bda	0.07039614
218	0xbd8715a5	-0.06595925
219	0x3d6df887	0.058098342
220	0x3ad30f35	0.0016102555
221	0x3d78f28b	0.060778182
222	0xbdb97efe	-0.09057425
223	0x3db3d5ef	0.08781039
224	0x3dc10639	0.09425015
225	0x3dcdd82f	0.100509994
226	0xbd163302	-0.03666974
227	0x3b871f70	0.0041236207
228	0x3d09c97d	0.03363942
229	0x3d6d942a	0.05800263
230	0x3deb3931	0.11485518
231	0xbcada181	-0.021195175
232	0xbdf5af27	-0.11996298
233	0x3d7ae978	0.06125781
234	0x3d055342	0.032550104
235	0xbd728153	-0.059205364
236	0xbdc3c996	-0.09559934
237	0x3d48bb5f	0.049006816
238	0xbd43f2fa	-0.047839142
239	0x3d4e0509	0.05029777
240	0x3da7f34c	0.08200702
241	0x3d0ee245	0.034883756
242	0xbd56e250	-0.052461922
243	0xbd75b4b4	-0.059986785
244	0xbc99a69b	-0.018756201
245	0xbd7abbc4	-0.061214224
246	0x3cf1bd15	0.029509107
247	0x3c8e1250	0.017342716
248	0xbd753b3f	-0.059870955
249	0x3ddf5105	0.10904125
250	0xbcecfc6e	-0.028928962
251	0x3d6a4bcb	0.057201188
252	0x3e0a2f07	0.13494502
253	0xbcd93fac	-0.026519619
254	0xbc3bf365	-0.011471604
255	0xbd95e16c	-0.073183864

lstm.bias_ih_l0 f4 [256]
0	0x3e05f7e0	0.13082838
1	0xbd90481f	-0.07045006
2	0xbded764d	-0.1159483
3	0xbd290a2d	-0.04126947
4	0x3d6b1e78	0.057402104
5	0x3da2a0b9	0.07940812
6	0xbb7a88c7	-0.0038228498
7	0x3dc54531	0.09632338
8	0xbd3abb94	-0.045589045
9	0xbd9c7af1	-0.07640637
10	0xbc13858a	-0.009004006
11	0x3cb64c78	0.02225326
12	0xbdd34376	-0.103156015
13	0x3de1f70c	0.110334486
14	0xbdc3484b	-0.09535273
15	0x3e0c57a4	0.13705307
16	0x3d0da28a	0.034578837
17	0xbd434210	-0.047670424
18	0x3e0b4ad7	0.13602768
19	0x3d926c91	0.07149614
20	0x3dab0186	0.083499
21	0x3d1afc1e	0.037838094
22	0xbda333f9	-0.07968897
23	0xbd90e7d6	-0.07075469
24	0x3cd18c92	0.025579724
25	0x3cd93d9c	0.026518635
26	0xbbad4bd9	-0.0052885828
27	0xbd3d9c27	-0.046291497
28	0xbd49ac16	-0.04923638
29	0x3cbefdfe	0.023314472
30	0xbca1e3eb	-0.019762
31	0x3e055949	0.13022341
32	0x3e1277a8	0.14303458
33	0xbd9b1345	-0.07572035
34	0xbdb1d07b	-0.086823426
35	0xbce364b6	-0.027757984
36	0xbb7cc791	-0.00385711
37	0x3e19a7d1	0.15005423
38	0xb95e430b	-0.00021196545
39	0xbdc0c3c7	-0.094123416
40	0x3d91f9f1	0.07127751
41	0xbdc11669	-0.094281025
42	0x3c3fbcba	0.011702711
43	0xbdd3a4d9	-0.103341766
44	0x3ccfd49a	0.025369931
45	0x3bbfb87b	0.005850849
46	0x3de48df2	0.111598864
47	0x3d776dcc	0.060407445
48	0xbdbfcd77	-0.09365361
49	0xbc852937	-0.016255004
50	0x3ddddbff	0.108329765
51	0x3dd8fb14	0.10594764
52	0xbdac717b	-0.08420082
53	0xbdcb7ecd	-0.09936295
54	0xbd553f1e	-0.052062146
55	0x3ad98a48	0.0016596997
56	0x3dc977a6	0.09837274
57	0xbd596573	-0.053075265
58	0x39115105	0.0001385846
59	0x3d60cf45	0.054885168
60	0x3dd0820a	0.10181053
61	0x3d95b9f4	0.07310858
62	0x3d0732fb	0.033007603
63	0x3dda43d0	0.106574655
64	0xbd903b2c	-0.07042536
65	0x3da9a6b9	0.08283753
66	0x3e15ff39	0.14648141
67	0x3dea0ead	0.114285804
68	0xbd8fd477	-0.07022946
69	0xbd2b4383	-0.04181243
70	0xbd88732b	-0.066625915
71	0x3d1c18d8	0.03810963
72	0x3e11ebd4	0.14250118
73	0xbd891c38	-0.066948354
74	0xbd01a381	-0.03165007
75	0xbd9b1c90	-0.07573807
76	0x3dcced67	0.100062184
77	0x3d177013	0.036972117
78	0xbdb84f0b	-0.08999451
79	0x3e1d5dc7	0.15367804
80	0x3e338afb	0.17533486
81	0x3d921a12	0.07133879
82	0x3e2d6397	0.16932522
83	0xbce53520	-0.027979434
84	0xbdd91049	-0.10598809
85	0xbc1296b1	-0.00894706
86	0x3e1644ff	0.14674757
87	0x3cb89ad3	0.022534763
88	0xbb2968b3	-0.002584976
89	0x3dc0f0f2	0.09420957
90	0xbb9ef4b0	-0.0048509464
91	0x3e0f0329	0.13966049
92	0x3dda6a4e	0.10664807
93	0x3e319cf5	0.1734503
94	0x3d9fd6e1	0.07804657
95	0xbdaaafee	-0.08334337
96	0x3dcfeaa9	0.1015218
97	0x3d87efd0	0.066375375
98	0xbd5876a8	-0.052847534
99	0x3bbf70cb	0.0058423034
100	0xbdd6b5b8	-0.10483879
101	0x3dc7604c	0.09735164
102	0x3dfd90bd	0.12381122
103	0xbd3a5e69	-0.045500193
104	0x3d183ba5	0.037166256
105	0xbd18429a	-0.03717289
106	0xbd869eab	-0.06573232
107	0xbd0b2831	-0.033973876
108	0x3b5d2181	0.0033741894
109	0xbd214a28	-0.03937736
110	0x3d77e1f1	0.06051821
111	0xbd9bede8	-0.076137364
112	0xbca5976e	-0.020213809
113	0x3e1fff6b	0.15624778
114	0x3d8fb494	0.070168644
115	0xbd11a9fe	-0.035562508
116	0x3d81947c	0.06327149
117	0x3dff5a08	0.12468344
118	0x3de9477e	0.11390589
119	0x3d069b56	0.032862984
120	0x3d4ba240	0.04971528
121	0xbd9b4b50	-0.07582724
122	0x3ca0f5fe	0.019648548
123	0xbd9ab27c	-0.075535744
124	0x3a66f8c6	0.0008810874
125	0xbdbb3402	-0.09140779
126	0x3d054dfb	0.03254507
127	0x3e04d627	0.12972318
128	0x3c7d22fa	0.015450234
129	0xbdf1e488	-0.11811167
130	0x3d6f7ced	0.058468748
131	0xbdcc9117	-0.09988611
132	0x3d9c2030	0.07623327
133	0xbd700f4a	-0.05860833
134	0xbc85bbc3	-0.016324883
135	0xbd090a32	-0.03345699
136	0xbd190a60	-0.03736341
137	0xbd8db107	-0.06918531
138	0x3dcb3e84	0.09924033
139	0x3d7a3535	0.0610859
140	0x3cded318	0.027200267
141	0x3d4c6fc9	0.049911294
142	0xbd81f0ef	-0.063447826
143	0xbc7eab08	-0.015543707
144	0xbbb298cd	-0.005450344
145	0xbd9f4e8d	-0.07778654
146	0xbdcba7bc	-0.09944102
147	0xbd0a5862	-0.033775695
148	0xbc54ccbd	-0.012988267
149	0x3db89abf	0.090138905
150	0x3d982441	0.0742879
151	0x3d809459	0.06278295
152	0xbd4fcb17	-0.05073079
153	0xbd78e424	-0.060764447
154	0xbda45658	-0.08024281
155	0xbd321b8d	-0.043483306
156	0x3b43a580	0.0029853284
157	0x3d56763c	0.05235885
158	0xbd0c8573	-0.034306955
159	0x3df8cb35	0.12148134
160	0x3b98fdc6	0.004668924
161	0x3d62d372	0.05537743
162	0x3d76cbe6	0.060253046
163	0x3db807ae	0.0898584
164	0xbdb0d38f	-0.086341016
165	0xbe0832ae	-0.13300583
166	0x3c308024	0.010772739
167	0xbd6d8e8f	-0.057997283
168	0x3dae7b94	0.085196644
169	0x3c8cca0f	0.017186193
170	0xbd530477	-0.05151793
171	0x3def2279	0.11676497
172	0xbda7cb88	-0.081931174
173	0xbd50f3e7	-0.051013853
174	0x3ddf31c0	0.10898161
175	0xbd97e59e	-0.07416843
176	0x3d5a7999	0.05333862
177	0x3d9623be	0.07331036
178	0xbca41ba0	-0.020032704
179	0xbd949c66	-0.07256393
180	0xbd800606	-0.06251149
181	0x3d43a3c7	0.047763612
182	0x3d594ecd	0.053053666
183	0xbd110cd4	-0.035412624
184	0xbb7ca060	-0.003854774
185	0x3d5a098d	0.053231765
186	0xbe035811	-0.12826563
187	0xbb537ba6	-0.0032269745
188	0x3d18b54d	0.037282277
189	0xbdad4974	-0.08461276
190	0xbd97a3ad	-0.074042656
191	0xbd46d6b1	-0.04854459
192	0x3da83dd5	0.082149185
193	0x3d7235f7	0.059133496
194	0x3d73cc82	0.059521206
195	0x3ddf89d7	0.10914963
196	0x3d487140	0.04893613
197	0x3d39ee86	0.04539349
198	0xbd7b1452	-0.061298676
199	0x3dddad82	0.108241096
200	0xbd41d176	-0.0473189
201	0x3d8e274a	0.069410875
202	0x3e187d53	0.14891557
203	0x3d6ec59b	0.05829392
204	0x3d959b78	0.07305044
205	0xbd974c8a	-0.073876455
206	0xbd8984f7	-0.06714814
207	0x3e0370d6	0.12836012
208	0x3c8f9156	0.017525356
209	0x3de13866	0.10997085
210	0x3e0b91ae	0.13629791
211	0x3db6fbe7	0.08934765
212	0x3dede44d	0.116158105
213	0x3c4f3677	0.012647263
214	0x3da9e75d	0.08296082
215	0xbd3e9502	-0.046528824
216	0xbd9ef035	-0.077606596
217	0x3c04d53d	0.008107481
218	0xbdc97251	-0.09836257
219	0xbbe1efae	-0.006895027
220	0x3d11c94a	0.035592355
221	0x3def45c7	0.11683231
222	0x3dbeb1aa	0.093112305
223	0xbd7a131b	-0.061053377
224	0xbb8bfc44	-0.0042720158
225	0xbc8300df	-0.015991626
226	0xbdb3a075	-0.08770839
227	0x3df7ce2a	0.120998695
228	0xbd90aa6d	-0.07063756
229	0xbd88fc18	-0.06688708
230	0x3e13a8f3	0.14419918
231	0x3ddd4338	0.108038366
232	0x3d547a5e	0.05187451
233	0x3d8a98ed	0.067674495
234	0xbd9e849d	-0.07740138
235	0x3e049491	0.12947299
236	0x3cf34cc4	0.02969969
237	0xbc8d30ae	-0.017235126
238	0xbd801a2b	-0.06254991
239	0x3b16911d	0.0022974678
240	0x3d850f55	0.06497065
241	0xbd352164	-0.044221297
242	0x3c327170	0.010891303
243	0x3de1a576	0.11017887
244	0xbd807a3b	-0.062733136
245	0xbd035359	-0.03206191
246	0xbc7787f9	-0.015108102
247	0xbd36f304	-0.04466535
248	0x3d865797	0.06559675
249	0xbc851859	-0.016246961
250	0x3e14c4f0	0.1452825
251	0xbd2c0110	-0.0419932
252	0x3de088c1	0.10963584
253	0x3dd3482c	0.103165
254	0x3d93957e	0.07206248
255	0x3da8b67d	0.08237932

lstm.bias_hh_l0 f4 [256]
0	0x3dc92199	0.09820861
1	0xbd548bda	-0.051891185
2	0xbdeeede8	-0.11666471
3	0xbd5230ba	-0.051316
4	0x3af6143d	0.0018774342
5	0x3c6ea06e	0.014564617
6	0xbcce3f1b	-0.025176575
7	0xbd2001ef	-0.039064344
8	0x3d832231	0.06403006
9	0x3e0c9b50	0.13731122
10	0xbdabc78d	-0.08387671
11	0x3de15061	0.11001659
12	0x3df7355e	0.12070726
13	0x3c9daf58	0.01924865
14	0x3cb45bf6	0.022016507
15	0x3d60b09b	0.054855924
16	0x3d939949	0.07206971
17	0xbccd20fd	-0.025040144
18	0xbd480322	-0.048831113
19	0xbd9cf321	-0.07663561
20	0xbc9ab06e	-0.018882956
21	0xbbdd82c0	-0.0067599714
22	0x3c964af9	0.018346297
23	0x3d57bae0	0.052668452
24	0x3d89e6fc	0.0673351
25	0xbc721689	-0.014775881
26	0x3dd590f8	0.10428041
27	0x3db9fd75	0.09081546
28	0xbd8ca9a3	-0.06868293
29	0x3dc55fe8	0.09637433
30	0x3db38705	0.08765987
31	0x3d1fc738	0.03900835
32	0x3e02b884	0.127657
33	0x3da850e1	0.082185514
34	0x3d49a97c	0.0492339
35	0x3deda81b	0.11604329
36	0x3d722e77	0.059126344
37	0x3df98b05	0.12184719
38	0xbd6225a6	-0.055211686
39	0xbccb1e43	-0.024794703
40	0x3dacd2c9	0.084386416
41	0xbd26d450	-0.04072982
42	0xbd8d7573	-0.06907167
43	0xbcaa8b0f	-0.020818261
44	0x3d2c9561	0.042134646
45	0xbd9855e4	-0.07438257
46	0xbc04831a	-0.008087898
47	0xbc0fe30f	-0.008782162
48	0x3d000872	0.031258054
49	0xbd029008	-0.03187564
50	0xbb85b013	-0.0040798276
51	0xbc818237	-0.015809162
52	0xbdb5e6dc	-0.088819236
53	0x3d508dc1	0.050916437
54	0xbcfd9418	-0.030954406
55	0xba0f2cbe	-0.0005461684
56	0x3da74b36	0.08168642
57	0xbdd118fd	-0.10209844
58	0x3ce05af2	0.027387116
59	0xbccc1d51	-0.024916323
60	0xbcc9da81	-0.024640324
61	0x3d933bf9	0.07189173
62	0xbda30650	-0.079601884
63	0x3e191d41	0.14952566
64	0x3a28a2aa	0.000643293
65	0x3c077458	0.008267485
66	0xbd233c85	-0.039852638
67	0x3b3be245	0.0028668803
68	0x3db44762	0.08802678
69	0x3da8067d	0.082043625
70	0xbd4ff47a	-0.05077026
71	0x3e28267e	0.16420934
72	0x3dc041cb	0.09387549
73	0x3d704d6b	0.05866758
74	0x3dc4d748	0.09611374
75	0xbcae519d	-0.02127915
76	0x3de042f4	0.1095027
77	0x3e05b041	0.13055517
78	0xbd95d925	-0.07316808
79	0x3d2411f3	0.04005618
80	0x3e1e8354	0.15479785
81	0x3e2f8512	0.17140606
82	0xbc573242	-0.013134541
83	0xbd10ef7d	-0.035384644
84	0xbd12a45f	-0.035801288
85	0xbdabba9f	-0.083852045
86	0xbc4b6670	-0.01241456
87	0xbc80e7e3	-0.015735572
88	0x3dba6ab7	0.091023855
89	0x3d5a285d	0.05326115
90	0x3ddf64b9	0.10907883
91	0x3e07fe70	0.13280654
92	0x3de28482	0.1106043
93	0x3dd203de	0.10254644
94	0x3d77137c	0.060321316
95	0xbb0337f8	-0.0020022374
96	0xbd1b1b58	-0.037867874
97	0x3dd52aff	0.104085915
98	0x3d8b08d9	0.06788797
99	0xbd801b87	-0.062552504
100	0xbddce77f	-0.10786342
101	0x3e04cd4d	0.12968941
102	0x3e1672ec	0.14692277
103	0xbdabe332	-0.083929434
104	0xbd3c05d8	-0.04590401
105	0xbd4617ad	-0.048362423
106	0x3cb57c56	0.022154015
107	0x3dbb977f	0.09159755
108	0x3e0293d8	0.1275171
109	0x3dfb96b7	0.12284606
110	0x3d491f9d	0.049102414
111	0x3bfb15a4	0.007662492
112	0xbda06642	-0.07832004
113	0x3a621478	0.0008624266
114	0xbd0fdac0	-0.035120726
115	0x3d90c6e2	0.07069184
116	0x3d940d63	0.07229116
117	0x3e0f0497	0.13966595
118	0xbbeb9a2a	-0.0071900086
119	0xbd541a71	-0.05178303
120	0x3e055a50	0.13022733
121	0xbd9fe6ef	-0.07807719
122	0x3db41472	0.08792962
123	0x3df357e4	0.11881998
124	0x3d197439	0.037464354
125	0xbdba5acb	-0.09099349
126	0x3de5157c	0.111857384
127	0x3d4acbd5	0.049510796
128	0x3de40bca	0.11135061
129	0x3ddd5901	0.10807992
130	0xbdf767d3	-0.1208035
131	0x3d4d6d13	0.05015285
132	0xbd394689	-0.045233283
133	0xbdc1444c	-0.09436855
134	0xbdeed857	-0.11662357
135	0x3d2175cf	0.03941899
136	0xbd045f37	-0.032317366
137	0xbd9c9c94	-0.076470524
138	0xbd55a133	-0.052155685
139	0xbc1ae127	-0.009453095
140	0x3d2f3424	0.042774335
141	0x3c41e773	0.011834967
142	0xbdcad0b4	-0.09903088
143	0x3dcc6862	0.09980847
144	0x3e02b4d9	0.127643
145	0xbd232711	-0.03983218
146	0xbdcfb428	-0.10141784
147	0xbdc51995	-0.0962402
148	0x3d8f9cd8	0.070123374
149	0x3d9fcdde	0.07802938
150	0xbd4ac8e9	-0.04950801
151	0xbd4c687d	-0.049904335
152	0x3d68960e	0.05678373
153	0x3d4f10ac	0.05055301
154	0x3d411441	0.047138456
155	0x3d87e74b	0.066359125
156	0x3d8ad896	0.06779592
157	0xbd8ce441	-0.068794735
158	0xbddc7aa8	-0.10765582
159	0xbdd9d35d	-0.106360175
160	0xbd824e24	-0.063625604
161	0xbda670b9	-0.08126969
162	0x3c126c4f	0.008936956
163	0x3c510132	0.012756633
164	0xbdb23550	-0.08701575
165	0x3c1003a8	0.008789934
166	0xbd565bbf	-0.05233359
167	0x3dd8978b	0.105757795
168	0x3d038a62	0.032114394
169	0x3e0c74f4	0.13716489
170	0x3dd469ba	0.10371728
171	0xbd965d78	-0.073420465
172	0x3d1f0fb1	0.038833324
173	0x3dc64a42	0.09682132
174	0xbd6d12a4	-0.057879105
175	0x3df92e83	0.121670745
176	0x3c3c2116	0.011482498
177	0x3d7cf0ba	0.061753012
178	0x3c19c5ac	0.009385508
179	0x3df9f621	0.122051485
180	0x3dacde5c	0.08440849
181	0xbdcd069b	-0.100110255
182	0xbdcf92d0	-0.10135424
183	0x3c790035	0.015197803
184	0xbc3c0b25	-0.011477266
185	0x3d7bdd09	0.061490092
186	0x3d803343	0.062597774
187	0xbd62817b	-0.055299263
188	0xbc9eccc2	-0.019384746
189	0xbdd72407	-0.105049185
190	0xbda4e2cf	-0.08051073
191	0xbdbd4a68	-0.092427075
192	0x3e026ac0	0.12736034
193	0x3d899cc4	0.06719354
194	0x3da93e07	0.08263784
195	0xbce14c09	-0.027502077
196	0x3c8b9280	0.01703763
197	0x3e0258de	0.12729213
198	0xbd852330	-0.06500852
199	0x3e08c574	0.13356572
200	0xbd8068fb	-0.062700234
201	0x3e124cfd	0.14287181
202	0xbd86616c	-0.065615505
203	0x3c9e4297	0.019318862
204	0xbd04b07c	-0.03239487
205	0x3c85bb63	0.016324705
206	0xbc3510e9	-0.011051395
207	0xbdafe701	-0.085889824
208	0x3dd357a9	0.10319454
209	0x3d088de6	0.03333845
210	0x3da9c82c	0.08290133
211	0x3d7564bc	0.05991052
212	0x3d5fce42	0.054640062
213	0x3db4fd26	0.08837347
214	0x3ddd2f7e	0.10800074
215	0x3cb97be6	0.022642087
216	0x3ccfd914	0.025372066
217	0xbdd40dc2	-0.103541866
218	0x3dafbec7	0.0858131
219	0xbd42a03a	-0.047516085
220	0xbc33250b	-0.010934125
221	0x3cf4e93d	0.029896373
222	0x3db2f893	0.08738818
223	0x3dafbb4e	0.085806474
224	0xbd986d07	-0.0744267
225	0x3da6c293	0.08142581
226	0x3dd77759	0.10520811
227	0xbd346d66	-0.044049643
228	0x3dc2811e	0.094972834
229	0x3d45b1c2	0.048265226
230	0x3bb84828	0.005623836
231	0x3c454aaa	0.012041727
232	0xbd8f214a	-0.06988771
233	0xbd35aac0	-0.044352293
234	0xbd45d0fc	-0.048295006
235	0x3d954b15	0.072897114
236	0x3d2212ce	0.039568715
237	0x3d434b52	0.047679253
238	0x39fdcfbb	0.00048410692
239	0x3e0148eb	0.12625472
240	0xbc5b6c4f	-0.013392522
241	0x3e026912	0.12735394
242	0x3e02da40	0.12778568
243	0xbc8b4b1a	-0.017003585
244	0x3d35a18f	0.044343527
245	0xbd46837a	-0.04846523
246	0xbdb59cf2	-0.088678256
247	0xbd69d834	-0.057090953
248	0xbd9ef928	-0.077623665
249	0x3d9f19dc	0.07768604
250	0x3df0777c	0.1174154
251	0x3da32fa6	0.079680726
252	0xbd03df6a	-0.032195486
253	0xbdd2773b	-0.10276648
254	0x3d921a20	0.07133889
255	0x3d32fd32	0.043698497

lstm.weight_ih_l1 f4 [256, 64]
0	0xbd2208ed	-0.039559294
1	0xbd941fcb	-0.072326265
2	0xbc94bf36	-0.018157583
3	0x3cc880b1	0.024475427
4	0xbce405d5	-0.027834812
5	0xbc8a92d5	-0.016915718
6	0xbd228f5d	-0.039687503
7	0x3d008400	0.031375885
8	0x3d14e70f	0.036353167
9	0xbdb0d281	-0.086339004
10	0x3d502e49	0.05082539
11	0x3d9e756e	0.07737242
12	0x3dbc202a	0.09185822
13	0xbddbafbb	-0.10726877
14	0x3c97fce9	0.018553214
15	0xbd9a3bdb	-0.07530948
16	0x3d9050df	0.07046675
17	0x3c9ba5ad	0.018999899
18	0x3d399fdd	0.045318473
19	0xbccf1e9c	-0.02528315
20	0xbda1c3e8	-0.07898694
21	0x3d16c8cf	0.0368126
22	0xbd58ad0f	-0.052899417
23	0xbcbaea05	-0.022816667
24	0x3e09c338	0.13453376
25	0xbc8219f4	-0.015881516
26	0xbd4b014d	-0.049561787
27	0x3c800bbc	0.015630595
28	0x3d84a527	0.06476813
29	0xbd86fa44	-0.06590703
30	0xbc91cda1	-0.017798247
31	0xbdab2ab9	-0.08357758
32	0xbdd241cb	-0.10266455
33	0xbdcb2225	-0.09918622
34	0xbd2acd54	-0.041699722
35	0xbb1fefb8	-0.0024404358
36	0xbd89d3bb	-0.067298375
37	0x3ddb3723	0.10703876
38	0x3be78da1	0.007066444
39	0xbd9d4d69	-0.076807804
40	0x3df3aaf6	0.118978426
41	0xbdee1dff	-0.11626815
42	0xbdf0efe4	-0.117645055
43	0xbce5a93f	-0.028034804
44	0x3bff1824	0.00778486
45	0xbd8e52e3	-0.06949403
46	0x3c8188a8	0.015812233
47	0xbcdedfeb	-0.027206382
48	0x3d89f891	0.067368634
49	0xbd8e687a	-0.06953521
50	0x3d163289	0.036669288
51	0x3da34b97	0.07973402
52	0xbcf2bdf3	-0.02963159
53	0x3d68ca14	0.05683334
54	0x3bc913a4	0.0061363745
55	0x3d946d28	0.072473824
56	0xbd3222bf	-0.043490168
57	0xbcb09d6e	-0.021559443
58	0x3d71efec	0.059066698
59	0xbe05e22e	-0.13074562
60	0xbdb3e479	-0.08783812
61	0x3d9bbe60	0.076046705
62	0xbcbd820e	-0.023133304
63	0xbd572b5c	-0.052531585
64	0x3d978bf4	0.07399741
65	0x3d8c433c	0.068487614
66	0xbd75e508	-0.060032874
67	0xbdaef50e	-0.08542834
68	0xbdeb5c95	-0.11492268
69	0xbdc27087	-0.09494119
70	0xbd8fc849	-0.07020623
71	0x3d43c1ab	0.047792118
72	0xbc17b6d2	-0.009259896
73	0xbdd51882	-0.10405065
74	0xbd2816b2	-0.04103727
75	0x3d9758e2	0.0739
76	0xbc736469	-0.014855483
77	0x3d55586a	0.05208627
78	0x3d61e286	0.05514767
79	0xbd5c79d5	-0.053827126
80	0xbbe0a40d	-0.006855494
81	0x3d01b51f	0.03166687
82	0xbde80424	-0.11328915
83	0x3d2b4a25	0.041818757
84	0xbd53fb8f	-0.051753577
85	0xbdbe1ecf	-0.0928322
86	0xbdb62d0f	-0.08895313
87	0xbce03e96	-0.027373593
88	0xbd76d4de	-0.0602616
89	0x3c483c38	0.0122213885
90	0x3dad7550	0.08469641
91	0x3cb65b66	0.022260379
92	0xbd35da22	-0.04439748
93	0x3da22ff4	0.079193026
94	0x3dade0d7	0.084901504
95	0x3dc19706	0.094526336
96	0xbd34408f	-0.04400688
97	0xbde2d20b	-0.11075219
98	0xbde82a71	-0.1133622
99	0xbda68a40	-0.08131838
100	0xbd588d0f	-0.0528689
101	0xbd610a5a	-0.054941513
102	0xbdae5dbc	-0.08513972
103	0x3c89f48e	0.016840246
104	0xbcd15029	-0.025550919
105	0xbda538dd	-0.080674864
106	0xbc91ad92	-0.01778296
107	0xbd31600a	-0.04330448
108	0xbd666d31	-0.056256477
109	0x3d220be0	0.039562106
110	0x3d805dde	0.06267904
111	0x3dcf0468	0.10108262
112	0xbd8d7252	-0.069065705
113	0x3daaace2	0.08333756
114	0x3d0d29b2	0.034463592
115	0x3d38005f	0.04492223
116	0x3d43c837	0.04779836
117	0x3d95c035	0.07312051
118	0xbd116011	-0.035492007
119	0xbc056859	-0.008142554
120	0xbd58d189	-0.052934203
121	0xbdbede37	-0.09319728
122	0xbd369d08	-0.04458335
123	0xbc8b5258	-0.017007038
124	0x3d9f284d	0.07771359
125	0xbda30d02	-0.079614654
126	0xbd73d15c	-0.059525833
127	0xbd3738b0	-0.044731796
128	0xbde48c62	-0.111595884
129	0x3d8400dd	0.06445477
130	0x3d223a75	0.03960653
131	0x3c50526e	0.012714965
132	0x3d31d990	0.043420374
133	0x3d9f701d	0.07785056
134	0x3dda59d6	0.10661666
135	0x3cb34c3f	0.021886943
136	0xbcda1534	-0.026621439
137	0xbd9506d7	-0.07276695
138	0xbdae1b0d	-0.08501253
139	0xbc93c8e4	-0.018040128
140	0xbd34867d	-0.04407357
141	0xbdb50ac0	-0.08839941
142	0x3d51ea32	0.051248737
143	0xbd424f98	-0.047439188
144	0xbd49f3c0	-0.049304724
145	0x3d94c704	0.07264522
146	0xbc646dc3	-0.013942185
147	0xbb8137b3	-0.0039434074
148	0x3daa41ca	0.083133295
149	0x3d943e4d	0.072384454
150	0x3d93bfee	0.07214342
151	0x3c43059f	0.011903196
152	0x3dac5bac	0.084159225
153	0x3de5e834	0.1122593
154	0xbd67888e	-0.056526713
155	0x3cfad8c0	0.030620933
156	0xbc8a1296	-0.016854566
157	0x3c036e79	0.008021944
158	0x3c5d6a33	0.013514089
159	0x3c802537	0.015642745
160	0x3c403906	0.011732345
161	0xbd262228	-0.040559918
162	0xbcd4f76a	-0.025996882
163	0xbd8a5013	-0.06753554
164	0xbd43439d	-0.047671903
165	0xbd04ddab	-0.03243796
166	0x3d78cb13	0.06074054
167	0x3ce342e0	0.02774185
168	0x3d81c182	0.06335737
169	0xbdb216cc	-0.086957544
170	0xbd68e775	-0.05686136
171	0x3d63fc65	0.055660624
172	0xbc4b7f6b	-0.0124205155
173	0xbdee81eb	-0.11645874
174	0x3d2c9748	0.04213646
175	0xbd11b118	-0.03556928
176	0xbdad4655	-0.084606804
177	0xbe09bd50	-0.13451123
178	0xbb9c1716	-0.0047634942
179	0x3d362829	0.044471893
180	0xbd2bbe1a	-0.04192934
181	0x3dadd084	0.08487037
182	0xbd276a1c	-0.04087268
183	0xb87e9a1a	-6.0701837e-05
184	0xbd8958df	-0.06706404
185	0x3c49ec1a	0.012324357
186	0x3d80e736	0.062941
187	0xbd656a83	-0.05600978
188	0xbd3e380b	-0.046440165
189	0x3d9f684d	0.07783566
190	0xbb803eb1	-0.0039137234
191	0xbdeed770	-0.11662185
192	0x3a949b69	0.001133782
193	0xbd2c38f8	-0.042046517
194	0xbda72d53	-0.08162942
195	0xbde37ca6	-0.11107759
196	0x3c6cf442	0.0144625325
197	0xbcc50dc8	-0.024054423
198	0xbd074692	-0.033026285
199	0x3dae6752	0.085158005
200	0x3db25da5	0.087092675
201	0xbd55dffd	-0.052215565
202	0x3d4fce50	0.050733864
203	0x3d6fb99c	0.05852662
204	0xbccb64b1	-0.024828287
205	0x3dbf8c1f	0.09352898
206	0x3cd353bf	0.02579677
207	0xbdcacc15	-0.09902207
208	0x3de56a43	0.112019084
209	0x3da6b62f	0.081402175
210	0x3d3cc02d	0.04608171
211	0x3dc31680	0.09525776
212	0xbc0f036c	-0.008728843
213	0x3dcc02b3	0.09961452
214	0x3d5675f1	0.05235857
215	0xbd45cb43	-0.04828955
216	0x3cc12b3b	0.023580184
217	0x3ded321d	0.11581824
218	0x3d4868d9	0.048928116
219	0xbd16906e	-0.036758833
220	0x3d02f245	0.031969327
221	0xbad95d33	-0.0016583562
222	0x3d80c492	0.06287493
223	0x3c046616	0.00808098
224	0x3d1e71f5	0.038682897
225	0xbd613a7c	-0.054987416
226	0x3c318a00	0.010836124
227	0x3d06e596	0.032933794
228	0x3c3a3870	0.011365995
229	0x3d06fb91	0.032954756
230	0x3d851999	0.06499023
231	0x3dbae477	0.091256075
232	0x3d7400af	0.059570964
233	0x3d732302	0.059359558
234	0xbda0d179	-0.07852454
235	0xbdb7740b	-0.0895768
236	0x3d84737f	0.06467342
237	0xbd1bb91d	-0.038018335
238	0xbd5b7bf9	-0.053585026
239	0xbd94b3b6	-0.0726084
240	0x3d56a4ea	0.052403368
241	0x3c80873f	0.01568949
242	0xbd3a57cd	-0.04549389
243	0xbdaae259	-0.08343954
244	0xbbdd7ead	-0.0067594857
245	0x3d831027	0.06399565
246	0x3ca29f97	0.019851489
247	0xbc841b7b	-0.016126385
248	0xbd83c609	-0.064342566
249	0xbd07a723	-0.03311838
250	0x3d0ef8cc	0.03490524
251	0x3c1b3ecc	0.009475421
252	0x3d35d17b	0.04438923
253	0x3d189dd3	0.037259888
254	0xbd4248b2	-0.04743261
255	0x3bfac04c	0.007652318

lstm.weight_hh_l1 f4 [256, 64]
0	0xbcef32d9	-0.02919905
1	0x3d83884f	0.06422483
2	0x3c22eb38	0.009943776
3	0xbdb074b4	-0.08616009
4	0x3dc60a21	0.09669901
5	0xbc650faa	-0.013980785
6	0x3c737db5	0.014861514
7	0x3dd48a7e	0.10377978
8	0x3c93b355	0.018029848
9	0x3bbc947a	0.0057550045
10	0x3dc14c69	0.09438402
11	0x3d77dced	0.060513426
12	0x3d16559c	0.036702737
13	0xbc7c1dd9	-0.015387976
14	0x3dcd72fb	0.100316964
15	0xbcddd1b1	-0.027077528
16	0xbd9573dd	-0.0729749
17	0x3d398dce	0.04530125
18	0xbd27d8c1	-0.040978197
19	0xbcd78bdb	-0.026311805
20	0x3ddb0b40	0.10695505
21	0x3dceea4d	0.10103283
22	0xbe027fb3	-0.12744026
23	0xbceec722	-0.029147688
24	0xbdc7863c	-0.097424
25	0x3a602107	0.00085498433
26	0x3d4fa7aa	0.050697006
27	0xbd54b319	-0.051928613
28	0x3d69437c	0.056949124
29	0xbd54e2a7	-0.051973965
30	0xbd83b199	-0.064303584
31	0xbd3998ae	-0.045311622
32	0xbd890b63	-0.06691625
33	0xbd43cb52	-0.047801323
34	0x3daae0c5	0.08343653
35	0x3d4b20f6	0.04959198
36	0xbd32a850	-0.043617547
37	0x3df2f871	0.11863793
38	0x3df156aa	0.11784108
39	0x3b28f328	0.0025779698
40	0x3cdd2191	0.026993545
41	0x3d8c7ca8	0.06859714
42	0x3d4edf4e	0.05050593
43	0xbd31fc42	-0.043453462
44	0xbe0d4519	-0.1379589
45	0x39aa899e	0.0003252746
46	0x3d220d00	0.03956318
47	0xbdc7dd87	-0.0975905
48	0xbcda0849	-0.026615279
49	0xbd64a605	-0.05582239
50	0x3d8cb680	0.068707466
51	0x3cb36ade	0.021901544
52	0x3c918f4a	0.01776852
53	0xbba85b2e	-0.0051378226
54	0x3db9668d	0.09052763
55	0xbda36e5d	-0.079800345
56	0xbca82ce3	-0.020529216
57	0xbd1cf9f8	-0.038324326
58	0x3d901626	0.070354745
59	0x3d003680	0.031301975
60	0xbcd575f9	-0.02605723
61	0x3d045a86	0.032312892
62	0x3d4e001e	0.05029308
63	0xbd33cde9	-0.043897543
64	0x3decabb8	0.1155619
65	0xbce00672	-0.027346823
66	0x3b9df1ba	0.004820076
67	0xbc6e80c6	-0.014557069
68	0xbd31ad43	-0.043378126
69	0xbcdb51f6	-0.02677248
70	0xbcac355b	-0.021021536
71	0xbc4b7f0f	-0.01242043
72	0x3bfc30aa	0.007696231
73	0xbda6e875	-0.081498064
74	0x3d39d544	0.0453694
75	0xbb92ea11	-0.0044834693
76	0x3cb6c324	0.022309847
77	0x3d811723	0.06303241
78	0xbc98711f	-0.018608628
79	0x3d5a997c	0.05336903
80	0x3dc2ff78	0.09521383
81	0x3d822b2b	0.0635589
82	0x3d26e549	0.040746007
83	0x3d96a255	0.07355181
84	0x3db85402	0.09000398
85	0xbbc518d4	-0.0060149226
86	0xbcfa0b55	-0.030522982
87	0xbd29bd56	-0.04144033
88	0xbd9c69b9	-0.076373525
89	0x3cc1c35f	0.02365273
90	0x3dd21ea4	0.102597505
91	0x3d27355f	0.040822383
92	0xbd0b1532	-0.03395576
93	0x3d8837ba	0.06651254
94	0x3d93e0fb	0.07220646
95	0xbda10a46	-0.07863288
96	0xbdbd2881	-0.09236241
97	0xbbd4b67c	-0.0064914804
98	0x3cc1c6af	0.02365431
99	0xbdb5dd13	-0.08880057
100	0xbd06bbfd	-0.032894123
101	0x3dac7d5e	0.084223494
102	0xbbfe4313	-0.0077594607
103	0xbc1a3040	-0.009410918
104	0xbd30bc09	-0.043148074
105	0xbd45fb04	-0.04833509
106	0xbd955786	-0.072920844
107	0x3d4707e1	0.0485915
108	0xbdc71f55	-0.09722773
109	0x3ca3e181	0.02000499
110	0xbdaf7fe2	-0.085693136
111	0x3d85178e	0.06498633
112	0xbd1135f8	-0.03545186
113	0xbd6a442c	-0.05719392
114	0x3dc5e5df	0.09662985
115	0x3d69fd03	0.057126056
116	0xbcd0de47	-0.025496615
117	0x3d868e20	0.06570077
118	0xbd22a060	-0.039703727
119	0xbd9d84bc	-0.07691333
120	0x3d9cd975	0.07658664
121	0xbd9d0df8	-0.0766868
122	0x3d30faa7	0.04320779
123	0x3b017701	0.001975477
124	0x3becd248	0.007227216
125	0x3ce9631d	0.028489644
126	0xbda0f7c5	-0.07859758
127	0x3a9ca229	0.0011950183
128	0x3e31323d	0.1730432
129	0x3d17340a	0.036914863
130	0x3c770c5b	0.015078629
131	0x3da0fbc6	0.07860522
132	0xbcd44f08	-0.025916591
133	0x3d32ab27	0.043620255
134	0x3dbed23e	0.09317444
135	0xbc82d9ab	-0.015972933
136	0x3d868765	0.06568793
137	0xbdd4c33a	-0.10388799
138	0x3b134bf6	0.0022475696
139	0x3d14c8fe	0.036324494
140	0xbd90f6f4	-0.070783526
141	0xbd96ce9d	-0.07363627
142	0x3dd8e9a8	0.105914414
143	0x3d41bd39	0.047299597
144	0xbd330f15	-0.043715555
145	0x3d2ad7bd	0.04170965
146	0x3c977736	0.018489461
147	0xbd1a1bf3	-0.03762431
148	0x3e44d16f	0.19220518
149	0xbd94f5c0	-0.072734356
150	0xbe071ec8	-0.13195336
151	0x3d9c04a9	0.07618076
152	0xbc00cb0a	-0.007860908
153	0x3dd0482f	0.10170018
154	0x3df188ce	0.117936715
155	0xbdd21299	-0.102574535
156	0x3c8fcd0b	0.017553827
157	0x3da92c0e	0.08260356
158	0x3dc79203	0.097446464
159	0xbdcea4d6	-0.10090034
160	0xbdb61ec3	-0.08892586
161	0x3d3a6e9a	0.045515634
162	0x3d937480	0.07199955
163	0xbda25692	-0.07926668
164	0x3dde2445	0.108467616
165	0x3dbaf4b1	0.091287024
166	0x3daf7c15	0.08568589
167	0xbc89b9eb	-0.016812285
168	0x3e030995	0.12796624
169	0xbbbb8122	-0.005722181
170	0xbda90c19	-0.082542606
171	0xbdc2a7a1	-0.09504629
172	0xbe0e1bc2	-0.13877776
173	0xbaa907ff	-0.001289606
174	0x3c42ba4b	0.011885236
175	0xbcb9d48b	-0.022684356
176	0x3d807a90	0.06273377
177	0xbe022bd5	-0.12712033
178	0xbcc3bb6e	-0.023893084
179	0xbcfc412d	-0.030792797
180	0xbd18b0e7	-0.037278082
181	0xbc66ed8b	-0.014094721
182	0x3d03ac22	0.03214658
183	0xbdca04c4	-0.0986419
184	0x3b0e8860	0.0021748766
185	0x3dde7b1d	0.10863326
186	0xbce9b9ab	-0.028530916
187	0xbdac2e66	-0.08407287
188	0x3d2e18ff	0.042504307
189	0xbd9f3a15	-0.0777475
190	0x3d05eadc	0.032694682
191	0x3c93c961	0.01804036
192	0x3d05b753	0.032645535
193	0xbd6a7ce5	-0.057248015
194	0x3c943c01	0.018095018
195	0xbdbf542a	-0.09342225
196	0xbd82bd74	-0.063837916
197	0xbc3d15c8	-0.011540838
198	0x3dc3fc59	0.09569616
199	0xbd6aa701	-0.057288174
200	0x3d489e76	0.048979245
201	0x3d0b6f92	0.03404195
202	0xbc12a696	-0.00895085
203	0xbd886882	-0.06660558
204	0xbd9e1301	-0.077184685
205	0xbd36db0b	-0.04464249
206	0xbd3b1665	-0.045675654
207	0xbd577fe9	-0.05261222
208	0xbdbfa357	-0.093573265
209	0x3ca1ad9b	0.019736102
210	0xbd88eae6	-0.06685428
211	0x3d904a56	0.070454285
212	0xbd2d06b4	-0.04224272
213	0x3d9a8e3e	0.07546662
214	0xbd8ae951	-0.06782783
215	0xbd3a6bd1	-0.045512978
216	0xbd882721	-0.06648088
217	0x3dfbae21	0.12289072
218	0xbca74e3d	-0.02042305
219	0x3dcbd958	0.099535644
220	0xbd469ede	-0.04849135
221	0x3c566db8	0.013087682
222	0x3d6a6e0f	0.057233866
223	0xbc1ca33d	-0.009560403
224	0xbdbc2066	-0.09185867
225	0x3d525869	0.051353846
226	0xbd953a75	-0.072865404
227	0xbcb28233	-0.0217906
228	0x3cb8db92	0.022565637
229	0x3d6a83a6	0.057254456
230	0xbd5349f0	-0.051584184
231	0x3ce00230	0.027344793
232	0x3dd97ef5	0.10619918
233	0xbb8666e0	-0.004101619
234	0x3dc14b6b	0.09438213
235	0xbd8a2123	-0.067446016
236	0xbd826a1b	-0.06367894
237	0xbc5b891f	-0.013399391
238	0xbde9e564	-0.11420706
239	0x3d12d2cf	0.035845574
240	0x3daf06f1	0.08546246
241	0xbe00f6b4	-0.1259411
242	0xbb97f762	-0.0046376446
243	0xbccdf15c	-0.025139503
244	0x3da27980	0.079333305
245	0x3d05f557	0.032704677
246	0x3df8d094	0.12149158
247	0xbc00a7da	-0.007852519
248	0xbd372413	-0.044712137
249	0x3d9be91e	0.07612823
250	0xbcfddf0c	-0.030990146
251	0xbcf501cf	-0.029908089
252	0xbd180ad9	-0.03711972
253	0xbd95efea	-0.073211506
254	0xbd4a6a5b	-0.049417835
255	0xbca9946f	-0.020700661

lstm.bias_ih_l1 f4 [256]
0	0xbd02bcb8	-0.031918257
1	0xbd8f48aa	-0.069962814
2	0xbde5ac61	-0.11214519
3	0x3d746bc0	0.05967307
4	0x3cbdba27	0.023160053
5	0xbdb3d327	-0.087805085
6	0xbdb2c4b1	-0.08728922
7	0x3d274523	0.04083742
8	0xbd980305	-0.07422451
9	0xbd9af001	-0.07565308
10	0x3ddc6e86	0.10763268
11	0x3c83d4d2	0.016092692
12	0xbd9265d8	-0.071483314
13	0xbd720a89	-0.05909208
14	0xbd9a46db	-0.07533046
15	0x3db23656	0.0870177
16	0x3dcef458	0.101051986
17	0xbd4c8c11	-0.049938265
18	0x3dc35ac9	0.095388
19	0x3cb5b10f	0.022179155
20	0x3dc15668	0.09440309
21	0xbdb3b3ca	-0.087745264
22	0x3bfc4317	0.0076984274
23	0x3dd0475c	0.10169861
24	0x3c4ec4d8	0.012620173
25	0x3d8346ba	0.064099744
26	0x3deb0c74	0.114769846
27	0xbd95f997	-0.07322996
28	0xbd35a384	-0.044345394
29	0x3cac5d4c	0.021040581
30	0xbc72cfb6	-0.01482003
31	0xbc8c015a	-0.017090488
32	0xbdea60d6	-0.11444251
33	0xbd00bb33	-0.031428527
34	0xbcf26950	-0.029591233
35	0xbca435ed	-0.020045245
36	0x3b403368	0.0029327516
37	0x3e064fc0	0.1311636
38	0x3b09fbc3	0.0021054603
39	0xbdd51e0c	-0.104061216
40	0x3db74b1b	0.08949872
41	0xbd9ef434	-0.07761422
42	0x3ddc73af	0.107642524
43	0x3d8c21f0	0.068424106
44	0x3c4dadb5	0.012553622
45	0x3c287ca0	0.010283619
46	0xbd494655	-0.04913934
47	0xbbf35ca4	-0.007426815
48	0xbd09fa57	-0.03368601
49	0xbde84f49	-0.113432474
50	0xbce79a4c	-0.028271817
51	0x3df5df8a	0.12005527
52	0x3b018e59	0.0019768684
53	0xbd9db88d	-0.07701216
54	0xbd75cd52	-0.06001026
55	0xbd037492	-0.032093592
56	0x3ba1b62a	0.0049350457
57	0x3dc9c404	0.0985184
58	0x3dafb7b5	0.08579961
59	0xbd532354	-0.051547363
60	0x3d8dad4d	0.0691782
61	0x3dd125b7	0.10212272
62	0x3ddd245e	0.10797952
63	0x3dfe248a	0.12409313
64	0x3df44417	0.119270496
65	0x3d6c42b8	0.057680815
66	0x3c9569f1	0.018238993
67	0x3e1a3b63	0.15061717
68	0x3d5a0bfb	0.05323408
69	0xbbdcdd69	-0.0067402613
70	0x3c48666c	0.0122314505
71	0xbd4c2e00	-0.049848557
72	0xbca8f014	-0.02062229
73	0x3d71cdf3	0.0590343
74	0xbd5ac192	-0.05340726
75	0x3c6f301f	0.014598875
76	0xbddbd8f7	-0.10734742
77	0x3d03831c	0.032107458
78	0x3df3378b	0.11875828
79	0xbd2db687	-0.0424104
80	0xbd671690	-0.056418
81	0xbcbe0c52	-0.023199234
82	0xbdd3185f	-0.10307383
83	0xbca650a2	-0.02030212
84	0xbcbabfc5	-0.022796521
85	0x3d0f10e9	0.034928236
86	0xbc2f970c	-0.010717165
87	0x3d2d477f	0.042304512
88	0x3c12f96b	0.008970599
89	0xbd06f3e5	-0.03294744
90	0x3db11c5d	0.08647988
91	0x3e0f2eb3	0.13982658
92	0xbd3ab080	-0.04557848
93	0xbdac243b	-0.08405348
94	0xbd849994	-0.06474605
95	0x3dfbad25	0.12288884
96	0x3c9195f0	0.017771691
97	0xbd8fef2f	-0.070280425
98	0xbb3cbcf3	-0.0028799146
99	0x3dce5a83	0.100758575
100	0x3ce38e48	0.027777806
101	0xbcfbafd8	-0.030723497
102	0x3be32ba5	0.006932693
103	0x3ded32ed	0.11581979
104	0x3d9b81c7	0.075931124
105	0x3c43de57	0.011954865
106	0x3d907561	0.07053638
107	0xbc555929	-0.013021746
108	0x3c36f5ab	0.01116697
109	0x3df443d3	0.11926999
110	0xbbc5ae63	-0.0060327514
111	0x3d13821f	0.036012765
112	0x3da00b58	0.07814664
113	0x3d50f536	0.0510151
114	0xbce99073	-0.028511262
115	0xbdb9194c	-0.09038028
116	0xbb064f87	-0.002049418
117	0x3d0143f4	0.031558946
118	0x3de154e8	0.11002523
119	0xbd4e4387	-0.050357368
120	0x3d9c63d9	0.07636232
121	0x3dbc80fe	0.09204291
122	0x3d1293e5	0.035785574
123	0xbd4c585d	-0.049888957
124	0xbddb97ce	-0.10722314
125	0x3d87df01	0.066343315
126	0xbd9d17c3	-0.07670548
127	0xbd04bac0	-0.03240466
128	0xbdc4df0c	-0.09612855
129	0x3dbeafba	0.09310861
130	0x3de86b0c	0.113485426
131	0xbdc49cf1	-0.09600247
132	0xbd06f784	-0.032950893
133	0xbcdf93a6	-0.027292084
134	0x3d4d3cef	0.05010694
135	0x3defe67b	0.117138825
136	0xbd90884c	-0.070572466
137	0x3cc0d983	0.023541218
138	0x3d276813	0.040870737
139	0xbc18085b	-0.009279336
140	0xbdcfbe8d	-0.101437666
141	0xbd39c42a	-0.045353092
142	0xbd00a718	-0.031409353
143	0x3bc598ff	0.0060302014
144	0x3dd3e891	0.10347093
145	0x3d071835	0.03298207
146	0xbc69c1cd	-0.014267397
147	0x3dd6a51a	0.104807094
148	0xbb8e3674	-0.0043399874
149	0xbd1f29b9	-0.03885815
150	0x3dca4136	0.09875719
151	0xbdd95c2c	-0.106132835
152	0xbda01718	-0.07816905
153	0x3dcd83d4	0.1003491
154	0x3d62a50f	0.055333193
155	0x3d79cbec	0.06098549
156	0xbdf408a7	-0.11915713
157	0x3dbfbf8a	0.09362705
158	0xbd7d3948	-0.061822206
159	0x3d958478	0.07300657
160	0x3dbc957f	0.092082016
161	0x3da5e65c	0.08100578
162	0x3dd8e158	0.10589856
163	0xbd41a354	-0.047274902
164	0x3daa7d13	0.08324637
165	0x3ceb1ed9	0.028701233
166	0xbdd7408b	-0.105103575
167	0x3d8dfb0e	0.069326505
168	0x3de6d91f	0.11271881
169	0xbd00185b	-0.031273227
170	0x3db5adb5	0.088710226
171	0x3de53176	0.111910746
172	0x3cc3b4f7	0.023890002
173	0xbc148297	-0.009064338
174	0xbdcccf9e	-0.10000537
175	0xbde15995	-0.110034145
176	0xbbbf07c5	-0.0058297836
177	0xbddc0e8c	-0.10744962
178	0x3d9085c9	0.070567675
179	0x3dc220c6	0.09478907
180	0xbda261da	-0.0792882
181	0x3c9e8762	0.019351665
182	0xbb557af2	-0.0032574502
183	0x3c94eeb5	0.01818023
184	0x3d5d8631	0.054083053
185	0xbce9c589	-0.028536575
186	0x3cf84c43	0.030309802
187	0xbdd5343e	-0.10410355
188	0x3db1c72e	0.08680569
189	0x3b8c9016	0.0042896373
190	0x3d1db3ee	0.038501672
191	0x3d09ef4a	0.03367547
192	0xbdcd2639	-0.10017056
193	0xbc76599f	-0.015036016
194	0xbdda08dc	-0.10646221
195	0xbd98ccfa	-0.07460971
196	0x3e018326	0.12647685
197	0xbd1a4686	-0.037664913
198	0xbdb34159	-0.087526985
199	0x3de763b7	0.11298316
200	0x3dcf3dba	0.10119195
201	0xbdb99cc7	-0.09063106
202	0xbd6a1a2c	-0.057153866
203	0x3d39d0bb	0.045365077
204	0xbd0d387c	-0.034477696
205	0x3dbae534	0.09125748
206	0x3c61acdf	0.013774126
207	0x3dfb481e	0.12269615
208	0x3ca820a0	0.02052337
209	0x3df3f5a8	0.119120896
210	0x3d406491	0.046970908
211	0xbbd502ab	-0.006500562
212	0x3d194283	0.037416946
213	0x3df8b98c	0.12144765
214	0xbc3186ab	-0.01083533
215	0x3e191547	0.14949523
216	0x3dcaec0b	0.09908303
217	0xbd8bd711	-0.0682813
218	0xbd844cf3	-0.064599894
219	0x3ceb3055	0.02870957
220	0xbadd5605	-0.0016886598
221	0x3d56463c	0.052313074
222	0xbc8ffc5f	-0.017576395
223	0xbcac6230	-0.021042913
224	0xbb0a0a25	-0.0021063176
225	0x3db27bff	0.08715057
226	0x3cf765ea	0.030199964
227	0x3d2f459e	0.042791
228	0x3dde0781	0.10841275
229	0xbdb11da9	-0.08648235
230	0x3e0c6468	0.13710177
231	0xbc868fb5	-0.016425947
232	0x3dd92200	0.10602188
233	0xbdd9709c	-0.10617182
234	0x3dd0e09e	0.10199092
235	0x3d5180e4	0.05114831
236	0x3af301a7	0.0018539921
237	0xbda6c6cf	-0.081433885
238	0x3d131c16	0.035915457
239	0xbc06397c	-0.008192416
240	0x3d98538d	0.07437811
241	0xbd04c065	-0.032410044
242	0xbc76cdc2	-0.015063705
243	0x3aa048e3	0.0012228753
244	0x3dbccd6e	0.0921887
245	0x3d950cd2	0.07277836
246	0xbd89d5e5	-0.0673025
247	0xbcb4db14	-0.02207712
248	0xbd67e00e	-0.05661016
249	0xbb9e9bfb	-0.0048403717
250	0xbd0fe090	-0.03512627
251	0xbdab7e98	-0.08373755
252	0xbd8abf04	-0.067747146
253	0x3deded51	0.1161753
254	0xbc8f8a13	-0.017521894
255	0x3d670332	0.05639953
