Analyses/models/Scenario2_6h/gnn_fixed.pth (torch, 406175 bytes, 15 tensors)

gat1.att_src f4 [1, 4, 64]
-0.147408 -0.13655034 0.24940553 -0.07574945 -0.17367905 0.24105085 0.07576295 0.102065295
0.24332559 0.20701502 0.28423613 -0.066865996 0.09624502 0.16720462 -0.19207665 0.15545727
-0.22900626 0.12398675 0.17468423 -0.16954179 -0.14513831 -0.08464524 0.08754265 0.042557575
0.10370438 0.23894508 -0.02691761 0.037308324 0.0064616934 -0.1698513 0.11714341 0.021664077
0.0004474801 0.20815305 -0.16065788 -0.10385189 0.0031267717 -0.18463543 -0.1750765 -0.20979811
-0.13663226 0.2512427 0.08917344 -0.09915306 -0.07870438 -0.23273683 0.27805555 0.15558413
-0.110390194 0.09516496 -0.095873624 -0.02352947 -0.0059105298 0.23504572 0.21880837 0.1274992
0.24033888 0.0721156 -0.030844418 -0.24029624 0.15476143 0.06331012 -0.0006637436 -0.17683615
-0.09067761 -0.20352569 0.14189412 0.1360514 0.09767959 0.012227539 -0.30255908 0.02523038
0.29822645 -0.04140137 0.08291043 -0.11274926 0.05130798 0.14998798 -0.2370008 -0.29516718
0.20381127 0.15937015 0.13417934 0.19046533 0.022743132 0.24950469 0.14409818 -0.16728888
-0.20575634 0.16435035 -0.014767874 -0.07610666 -0.17871572 -0.012585863 -0.11871889 0.19448563
0.056143012 0.2514233 0.28722867 -0.12497024 -0.19974148 -0.019920249 0.2418113 0.020853788
-0.07136381 0.01734223 0.025367647 -0.3070129 0.16370417 0.2359435 0.18540841 -0.11188467
0.08023196 0.10681362 0.12609702 -0.10899044 -0.16931474 -0.1883392 0.085130416 -0.18515083
0.19104405 -0.03430209 0.07382142 -0.12149973 -0.10605116 -0.19640519 -0.16192372 0.08359088
-0.2257729 0.10475338 0.098435864 -0.038437236 0.07855269 -0.0952134 0.2092986 0.1713335
-0.15006122 -0.2777454 0.26884553 -0.010310615 0.19979517 -0.0163367 -0.03343021 -0.03859754
0.0064509893 0.22618239 0.048734814 -0.20052515 0.23662537 0.01505246 -0.23233645 0.04518807
-0.22348388 0.14302135 0.06406863 0.25720772 -0.01142603 0.08416698 -0.034276973 0.20117329
-0.032933883 0.20481038 -0.0758475 -0.21350868 0.16333841 0.061451375 -0.15156375 0.09177543
-0.102412835 0.12244657 0.062079985 0.25631636 0.041029267 -0.1972677 0.10723556 0.13047615
-0.11007244 -0.065115444 0.21440172 -0.059947494 -0.18653715 0.14948834 -0.17808478 0.098027706
0.09343028 0.19489852 0.18595903 -0.16047795 0.069809385 -0.08999056 -0.17869283 -0.093183696
0.1711486 -0.13971376 -0.28197673 0.20477085 -0.17241837 -0.067891814 0.1599091 -0.18096074
0.11545648 -0.117854856 -0.061276883 0.063803464 -0.21811064 0.061508168 0.26968616 -0.062048685
0.046335086 0.14134265 0.17160499 0.25254965 -0.1737496 0.23340255 0.20368871 -0.128539
-0.065807596 -0.14311652 -0.18402693 0.18228579 -0.16860041 0.23047605 0.26742578 0.03601838
0.22594793 0.07400448 0.12000117 0.28462014 -0.049429964 0.16841948 -0.19123882 0.13714156
0.069622904 0.019835237 0.12606257 -0.31037718 -0.1360597 0.17676651 0.00015456362 -0.089199424
0.004278911 0.0020012367 0.15289442 -0.16218385 -0.012962436 0.048479166 0.031083994 -0.10754316
-0.03221388 0.24615623 -0.028888471 0.23448925 0.2724512 -0.18607529 0.23100565 -0.12827416
00000000: 1ff2 16be dad3 0bbe 2a64 7f3e 8722 9bbd
00000010: ecd8 31be 09d6 763e 9b29 9b3d 9c07 d13d
00000020: 582a 793e bffb 533e 6687 913e 0af1 88bd
00000030: 1c1c c53d b037 2b3e beaf 44be 3130 1f3e
00000040: 9e80 6abe c4ec fd3d 6ce0 323e 5d9c 2dbe
00000050: 239f 14be 7c5a adbd 9049 b33d da50 2e3d
00000060: f662 d43d 05ae 743e 5282 dcbc 9dd0 183d
00000070: 9dbc d33b 80ed 2dbe e2e8 ef3d dd78 b13c
00000080: c39b ea39 1326 553e 8083 24be 4db0 d4bd
00000090: 86ea 4c3b 1211 3dbe 4147 33be 51d5 56be
000000a0: 54e9 0bbe e2a2 803e 91a0 b63d c210 cbbd
000000b0: c32f a1bd 9052 6ebe 4c5d 8e3e 7251 1f3e
000000c0: 4114 e2bd d9e5 c23d 6459 c4bd e0c0 c0bc
000000d0: 1ead c1bb d3af 703e 4d0f 603e 268f 023e
000000e0: 651b 763e 58b1 933d 6fad fcbc 3810 76be
000000f0: c879 1e3e bca8 813d 14ff 2dba 8914 35be
00000100: 2fb5 b9bd 0a69 50be b14c 113e 0f51 0b3e
00000110: 3d0c c83d 0456 483c 06e9 9abe f1af ce3c
00000120: 23b1 983e 7c94 29bd f2cc a93d 16e9 e6bd
00000130: 5128 523d 7396 193e 56b0 72be 2720 97be
00000140: e7b3 503e ee31 233e 4f66 093e 5809 433e
00000150: ce4f ba3c 287e 7f3e 798e 133e c74d 2bbe
00000160: cab1 52be 754b 283e f4f4 71bc cfdd 9bbd
00000170: 4101 37be ef34 4ebc e422 f3bd 3e27 473e
00000180: 37f6 653d 8eba 803e a30f 933e 66f0 ffbd
00000190: 0889 4cbe ca2f a3bc 629d 773e 90d5 aa3c
000001a0: 3027 92bd 4b11 8e3c d0cf cf3c cb30 9dbe
000001b0: 11a2 273e 2c9b 713e b4db 3d3e ca23 e5bd
000001c0: a750 a43d 19c1 da3d 941f 013e 6136 dfbd
000001d0: d860 2dbe fedb 40be db58 ae3d 2e98 3dbe
000001e0: 0da1 433e 5980 0cbd af2f 973d dad4 f8bd
000001f0: 5a31 d9bd 711e 49be 55cf 25be b231 ab3d
00000200: 0331 67be f188 d63d be98 c93d 5d70 1dbd
00000210: 3ce0 a03d 3eff c2bd 5f52 563e 0d72 2f3e
00000220: a6a9 19be a534 8ebe 1fa6 893e dbed 28bc
00000230: 1b97 4c3e 8bd4 85bc 1eee 08bd 7418 1ebd
00000240: d262 d33b 5b9c 673e 289e 473d 7756 4dbe
00000250: ec4d 723e 989e 763c 9be9 6dbe 2017 393d
00000260: f5d8 64be 3074 123e 6a36 833d bbb0 833e
00000270: 3e34 3bbc bd5f ac3d 0366 0cbd 5f00 4e3e
00000280: aee5 06bd d0b9 513e ef55 9bbd 05a2 5abe
00000290: 2f42 273e 70b4 7b3d 8733 1bbe c2f4 bb3d
000002a0: d2bd d1bd 44c5 fa3d 9547 7e3d e63b 833e
000002b0: 4e0e 283d 8b00 4abe 519e db3d 8a9b 053e
000002c0: a96d e1bd 3f5b 85bd 208c 5b3e 818b 75bd
000002d0: 9803 3fbe 7913 193e db5b 36be c0c2 c83d
000002e0: 6058 bf3d 7a93 473e 0b6c 3e3e 5554 24be
000002f0: 39f8 8e3d f94c b8bd 41fb 36be 18d7 bebd
00000300: 9441 2f3e 2011 0fbe 415f 90be 73af 513e
00000310: 718e 30be dd0a 8bbd 36bf 233e c64d 39be
00000320: 7274 ec3d e35d f1bd 78fd 7abd 64ab 823d
00000330: 6558 5fbe fdef 7b3d 4e14 8a3e c326 7ebd
00000340: dcc9 3d3d 21bc 103e 38b9 2f3e 304e 813e
00000350: 6aeb 31be 1401 6f3e c693 503e ba9f 03be
00000360: 22c6 86bd 238d 12be 8e71 3cbe 20a9 3a3e
00000370: 96a5 2cbe ea01 6c3e 08ec 883e 0288 133d
00000380: e55e 673e a98f 973d 2cc3 f53d bbb9 913e
00000390: 1377 4abd 2876 2c3e 1cd4 43be d66e 0c3e
000003a0: 7496 8e3d 827d a23c 8c16 013e c2e9 9ebe
000003b0: 3c53 0bbe 4802 353e 5b12 2239 30ae b6bd
000003c0: 1b36 8c3b 2e27 033b 5b90 1c3e 8613 26be
000003d0: 6660 54bc 1792 463d dca3 fe3c 973f dcbd
000003e0: b4f2 03bd 6110 7c3e 84a7 ecbc f31d 703e
000003f0: b97e 8b3e 858a 3ebe bf8c 6c3e 4d5a 03be

gat1.att_dst f4 [1, 4, 64]
0.23290312 -0.105566144 0.09844586 0.13015944 0.24418522 0.046935525 0.0063908156 0.24842072
-0.11429654 -0.24223782 0.12106572 0.19690554 0.18820713 0.014194872 -0.013664202 0.03136471
0.007220351 0.22043607 0.04734056 -0.024558794 0.12976022 -0.07797861 0.19257483 0.07277923
0.040630538 0.11736342 -0.15369633 0.025405752 0.16775301 0.09537401 0.09428216 0.21447167
-0.1904678 -0.13510767 0.06325281 0.047309943 0.123154335 -0.051303573 -0.06618381 -0.010070864
-0.21674682 0.044532478 -0.17847058 -0.05996052 0.01158178 -0.059471328 0.143803 -0.07604807
0.029918127 0.034936298 -0.12580916 0.056171734 -0.21839486 -0.020501034 -0.122286625 -0.18373658
-0.11221975 0.24447477 0.14016758 0.2010798 -0.16602397 0.21090172 -0.1776257 -0.21124199
-0.18738325 -0.11412818 -0.11476081 -0.13807523 0.055017307 -0.19210415 -0.042322215 -0.1405882
-0.05985298 -0.08448349 0.06896738 -0.0555421 -0.09501188 -0.19528894 -0.14581487 -0.13064256
0.120297365 0.014749042 -0.18774727 0.10060766 -0.17786992 -0.14706597 0.047510855 0.19476865
0.06630021 0.22176948 -0.060290948 0.01241735 -0.11373998 0.09731795 -0.07848715 -0.09388277
-0.002387628 0.07052027 0.20355509 0.14616656 -0.1072462 -0.14082776 -0.012172607 0.17480825
-0.07384383 0.21870144 -0.16138054 0.18602315 0.07098867 -0.1611843 0.102556504 0.10156607
-0.2225027 0.09190102 -0.25109372 -0.07914605 -0.042407945 0.06494928 -0.085025966 -0.039433446
0.1891759 -0.2186776 -0.22301665 0.110080555 -0.12294443 -0.034224916 0.00886921 -0.059349302
-0.034229334 0.009495965 0.15877518 -0.028058331 0.15633462 0.22458823 -0.0018160573 0.10633528
0.12638311 -0.16743694 0.054520678 0.058414403 -0.19445872 -0.1514131 0.039004542 -0.018620394
0.06506788 -0.2042 0.11632857 0.19369903 -0.09381418 0.07497885 0.13311294 0.020531047
0.20289908 -0.0104172155 -0.20034881 -0.14389315 -0.101473354 0.16471697 0.23027794 0.095478654
-0.03138584 -0.19767006 0.20379654 -0.12624629 -0.18296123 0.12742253 -0.0050437436 0.084726155
-0.075837135 0.13570258 -0.20669861 0.0016175236 -0.029632341 0.20589937 -0.20774499 0.12937674
0.014102395 0.14083806 0.03994758 0.22303838 0.06715181 0.08847435 0.13803108 0.107586615
-0.17418344 0.13989998 -0.17517328 -0.15513475 0.14073895 0.15413389 0.053465784 -0.08900593
-0.16788355 0.007755987 0.10540173 0.063507065 -0.027054101 -0.17290235 0.21639995 -0.04279631
0.027515644 -0.02277699 -0.22966607 0.10470819 0.06064614 -0.023343872 -0.06776997 0.2172924
0.18315166 0.061798997 0.19040452 -0.052557133 -0.099065065 -0.016503947 0.22883454 -0.22304903
-0.035250314 0.051629007 0.1896225 -0.0049763927 0.0008200369 -0.035800893 0.012152035 0.04791787
0.15017466 -0.067616835 -0.2222783 0.00018176006 0.14934893 -0.11118823 0.06460513 -0.21096382
0.24774276 0.08059788 0.24897419 -0.0703363 -0.04419949 -0.13267188 -0.08645335 0.17470628
0.21300541 -0.0035509665 0.14745136 0.01865834 0.1577467 0.16992198 0.0812746 -0.047156274
0.20354594 0.104305 0.04023875 -0.25178832 -0.12303763 0.088660784 -0.2276731 0.14428918
00000000: 287e 6e3e 1033 d8bd fc9d c93d 8448 053e
00000010: b10b 7a3e 773f 403d 0c6a d13b 0062 7e3e
00000020: 4e14 eabd 310d 78be 4ef1 f73d 9ba1 493e
00000030: 5fb9 403e 9c91 683c d1df 5fbc 4878 003d
00000040: b298 ec3b feb9 613e 2de8 413d 862f c9bc
00000050: dddf 043e 40b3 9fbd 5632 453e 470d 953d
00000060: 356c 263d 3c5c f03d 9262 1dbe b91f d03c
00000070: 72c7 2b3e 7353 c33d 0117 c13d 769e 5b3e
00000080: fe09 43be aa59 0abe b08a 813d 12c8 413d
00000090: 5738 fc3d b223 52bd 618b 87bd 4400 25bc
000000a0: e1f2 5dbe b067 363d fec0 36be 2a99 75bd
000000b0: 82c1 3d3c 3598 73bd 1841 133e 17bf 9bbd
000000c0: dc16 f53c 5d19 0f3d 1ed4 00be 5514 663d
000000d0: e7a2 5fbe c9f1 a7bc 6971 fabd 7125 3cbe
000000e0: 78d3 e5bd 9857 7a3e 1788 0f3e dde7 4d3e
000000f0: 3002 2abe 9ff6 573e 83e3 35be d24f 58be
00000100: 65e1 3fbe 09bc e9bd b707 ebbd 9863 0dbe
00000110: d459 613d f3b6 44be 0f5a 2dbd 5af6 0fbe
00000120: 6628 75bd ae05 adbd c53e 8d3d 1d80 63bd
00000130: 9795 c2bd d3f9 47be 7e50 15be 2ac7 05be
00000140: 775e f63d f7a5 713c d240 40be 640b ce3d
00000150: 8823 36be 7698 16be be9a 423d 6f71 473e
00000160: 68c8 873d 8a17 633e a4f3 76bd 2472 4b3c
00000170: 82f0 e8bd a24e c73d dfbd a0bd 9c45 c0bd
00000180: c079 1cbb ee6c 903d bf70 503e b0ac 153e
00000190: e5a3 dbbd 2735 10be 9d6f 47bc ef00 333e
000001a0: 6f3b 97bd 45f3 5f3e f140 25be da7c 3e3e
000001b0: 8262 913d 7f0d 25be 2509 d23d df01 d03d
000001c0: bfd7 63be 9a36 bc3d 5b8f 80be 5317 a2bd
000001d0: f4b3 2dbd 2104 853d 1822 aebd f784 21bd
000001e0: 54b7 413e 05ed 5fbe 7a5e 64be ea71 e13d
000001f0: 4aca fbbd 6d2f 0cbd 2a50 113c 4118 73bd
00000200: 0f34 0cbd f794 1b3c f695 223e 96da e5bc
00000210: 2f16 203e 75fa 653e c508 eeba 50c6 d93d
00000220: 936a 013e 9774 2bbe 1351 5f3d f143 6f3d
00000230: 3020 47be 090c 1bbe 3ac3 1f3d cc89 98bc
00000240: 4f42 853d ce19 51be ac3d ee3d 0a59 463e
00000250: a621 c0bd 838e 993d c24e 083e ba30 a83c
00000260: c7c4 4f3e f8ac 2abc 3d28 4dbe ba58 13be
00000270: 43d1 cfbd 91ab 283e fbcd 6b3e 508a c33d
00000280: 708e 00bd 056a 4abe 0ab0 503e b546 01be
00000290: 305a 3bbe 0d7b 023e fd45 a5bb e884 ad3d
000002a0: 8050 9bbd 9ef5 0a3e cda8 53be 1603 d43a
000002b0: 86bf f2bc 49d7 523e 1abb 54be 567b 043e
000002c0: bb0d 673c da37 103e 13a0 233d 2c64 643e
000002d0: e386 893d 0a32 b53d 0558 0d3e 5f56 dc3d
000002e0: 255d 32be f141 0f3e a060 33be a5db 1ebe
000002f0: df1d 103e 46d5 1d3e f0fe 5a3d be48 b6bd
00000300: aae9 2bbe ef25 fe3b dddc d73d fe0f 823d
00000310: 90a0 ddbc 500d 31be f397 5d3e 2f4b 2fbd
00000320: 7d68 e13c cf96 babc 952d 6bbe 3f71 d63d
00000330: 1668 783d a63b bfbc fbca 8abd e681 5e3e
00000340: 1c8c 3b3e f220 7d3d 67f9 423e 2646 57bd
00000350: a0e2 cabd 4933 87bc 9a53 6a3e f766 64be
00000360: a262 10bd f078 533d 672c 423e 0211 a3bb
00000370: bff7 563a f5a3 12bd 5419 473c 8745 443d
00000380: 63c7 193e b27a 8abd ec9c 63be d896 3e39
00000390: edee 183e a8b6 e3bd b24f 843d e606 58be
000003a0: 47b0 7d3e 8010 a53d 17f3 7e3e 7a0c 90bd
000003b0: 860a 35bd 23db 07be 740e b1bd 34e6 323e
000003c0: 171e 5a3e 55b7 68bb 7dfd 163e 60d9 983c
000003d0: 5a88 213e 0700 2e3e 4c73 a63d f026 41bd
000003e0: 596e 503e dc9d d53d 63d1 243d 66ea 80be
000003f0: 27fb fbbd c993 b53d 2323 69be 8bc0 133e

gat1.bias f4 [256]
0.015232149 -0.028396891 0.0133831 -0.013527724 -0.00044545007 0.035956234 0.019385869 -0.07126098
-0.009016163 -0.04110899 0.04086063 0.02661141 0.011864826 0.011088798 -0.014531728 0.03434272
0.014261997 0.038709875 -0.024514385 -0.032570846 0.037191827 0.032878842 -0.048950896 -0.0065583047
-0.0076915 -0.002106565 0.016129646 0.030606648 0.0059573175 0.0014438281 0.0017170641 0.03376943
0.00627025 0.03703565 0.011699903 -0.002277115 0.02914183 0.01631352 0.0042133117 -0.061006352
0.044550613 -0.01129311 -0.028574564 -0.02206308 -0.014786067 -0.022832936 0.011544937 -0.0036520835
-0.008678421 -0.007096768 0.059739534 0.03706995 0.010901235 0.017998716 0.049943045 -0.022160541
0.02000113 -0.017726792 0.032127976 -0.013542312 0.0077669704 -0.03763474 -0.012168106 -0.019695831
0.028019426 0.0047542127 -0.030250054 0.012597241 -0.07996292 -0.012364344 0.0068723867 -0.062423885
0.033064146 0.038151078 -0.022716932 0.03868115 0.005283818 0.044899 -0.013470574 0.02340264
0.032861583 0.03447117 -0.009257476 -0.037700005 -0.026167277 0.025008012 0.0178932 0.035908792
-0.014775516 0.024302607 -0.016670795 -0.0010107281 0.034884274 -0.024806617 0.05248524 0.0006859854
-0.015799034 0.019367274 0.044345293 -0.0059693307 0.026594302 0.005064768 -0.048895203 -0.06900151
-0.0037743566 0.011640304 0.0274554 -0.0009950813 0.011035206 0.0056070066 0.0012404982 -0.009505982
-0.029874738 0.037543755 0.030889638 0.032202844 0.01656922 0.005997527 0.03209893 -0.04883691
0.012852835 0.037007947 -0.027974434 0.03477678 0.03220406 0.00017335199 -0.002291781 0.022900453
0.034407396 -0.01978889 -0.02761062 0.041765586 0.030588152 0.022183418 0.011680944 -0.006955258
0.02362046 0.014509805 0.034061015 -0.018491767 0.03538765 0.034040272 0.030928494 0.041863143
-0.0005538506 -0.0045908005 0.027635483 0.010010393 0.013029287 0.04726462 0.0060971165 0.0015724865
0.006719909 0.029333357 0.034428656 -0.02966235 0.016095748 -0.04379882 0.019688746 0.041045237
0.024320569 -0.004276643 0.031451657 0.025945652 0.013485207 -0.005647374 0.044107705 0.00628002
-0.021293957 0.026813636 0.021085218 0.018851534 0.022694113 0.040390506 -0.025256291 0.040734645
0.023828018 -0.0012564298 0.015333399 0.010505453 0.016040131 -0.042327702 0.009041439 -0.0048267026
0.019070543 -0.023508495 0.0019184571 0.02029289 -0.030803869 -0.0031505702 0.041379586 -0.00028726243
-0.018554583 0.0068656523 -0.004861896 -0.012072549 -0.029908324 -0.013039683 -0.02754295 0.04216109
0.036858376 -0.008592053 -0.019477958 -0.0032539216 -0.002018965 0.028945977 0.011690165 0.019550877
-0.021510405 -0.0077097425 0.006192385 0.030626105 -0.022772104 0.011181478 -0.0018363531 0.0033400957
0.058995694 0.0014558121 0.015184165 -0.0124300225 0.049772136 0.04431747 0.043207347 0.046496965
0.0059793983 0.04988163 0.009832382 0.04165041 -0.0027450323 0.020677548 -0.026578441 -0.04031701
0.0021948887 0.0058588013 -0.014603911 -0.025839351 -0.025421543 -0.01072081 -0.01107416 0.034597363
0.056086216 -0.0073457123 -0.02791 0.05002628 0.031242298 -0.015057072 0.06463502 0.019778615
-0.026224267 -0.014598695 -0.014226263 0.025902243 -0.036773153 0.005634871 -0.020698288 -0.012739534
00000000: 4390 793c 99a0 e8bc ca44 5b3c 63a3 5dbc
00000010: 4c8b e9b9 d846 133d 1dcf 9e3c 47f1 91bd
00000020: 87b8 13bc e661 28bd 7a5d 273d 2c00 da3c
00000030: b064 423c caad 353c 7c16 6ebc f4aa 0c3d
00000040: 27ab 693c 3f8e 1e3d 64d2 c8bc 0269 05bd
00000050: 7556 183d f7ab 063d bc80 48bd 0ce7 d6bb
00000060: fa08 fcbb 4c0e 0abb 5222 843c cbba fa3c
00000070: 9a35 c33b d53e bd3a 1c0f e13a d051 0a3d
00000080: ab76 cd3b b2b2 173d f3b0 3f3c a63b 15bb
00000090: d9ba ee3c eea3 853c d20f 8a3b cce1 79bd
000000a0: b47a 363d bd06 39bc 3415 eabc a2bd b4bc
000000b0: 4341 72bc 230c bbbc fa26 3d3c cb57 6fbb
000000c0: f02f 0ebc 018c e8bb 71b1 743d a9d6 173d
000000d0: 189b 323c 0b72 933c 1491 4c3d 068a b5bc
000000e0: 69d9 a33c c737 91bc a098 033d 93e0 5dbc
000000f0: 1282 fe3b e326 1abd bc5c 47bc 2759 a1bc
00000100: ff88 e53c 3ac9 9b3b f6ce f7bc a964 4e3c
00000110: 99c3 a3bd d193 4abc c231 e13b 30b0 7fbd
00000120: 456e 073d 4e44 1c3d dc18 babc 2070 1e3d
00000130: e123 ad3b 04e8 373d afb3 5cbc e5b6 bf3c
00000140: de99 063d a431 0d3d abac 17bc 526b 1abd
00000150: c25c d6bc 9add cc3c c394 923c 1915 133d
00000160: 0215 72bc 4316 c73c 3191 88bc 687a 84ba
00000170: d0e2 0e3d 3f37 cbbc c3fa 563d b3d3 333a
00000180: fa6c 81bc 1ea8 9e3c 69a3 353d 609a c3bb
00000190: 4bdc d93c 5af6 a53b 5646 48bd aa50 8dbd
000001a0: 325b 77bb f9b6 3e3c 26ea e03c 636d 82ba
000001b0: 02cd 343c fbba b73b 3698 a23a fabe 1bbc
000001c0: debb f4bc 7bc7 193d 440c fd3c 21e7 033d
000001d0: 2cbc 873c e786 c43b 2b7a 033d 3609 48bd
000001e0: b294 523c a595 173d a42a e5bc 1972 0e3d
000001f0: 68e8 033d d2c5 3539 b431 16bb bb99 bb3c
00000200: c5ee 0c3d 4f1c a2bc ab2f e2bc 6412 2b3d
00000210: 0194 fa3c 00ba b53c 6e61 3f3c efe8 e3bb
00000220: b27f c13c 88ba 6d3c 9083 0b3d 0c7c 97bc
00000230: a4f2 103d d06d 0b3d c15d fd3c b078 2b3d
00000240: 4930 11ba 6d6e 96bb cf63 e23c a202 243c
00000250: ca78 553c 8c98 413d 52ca c73b e41b ce3a
00000260: af32 dc3b 824c f03c 1005 0d3d 75fe f2bc
00000270: 3bdb 833c 6466 33bd 4b4a a13c 0d1f 283d
00000280: ee3b c73c 1523 8cbb 74d3 003d fa8b d43c
00000290: 0ff1 5c3c 9b0d b9bb 48aa 343d a0c8 cd3b
000002a0: aa70 aebc 45a8 db3c e8ba ac3c 886e 9a3c
000002b0: 01e9 b93c 8470 253d 48e6 cebc 5fd9 263d
000002c0: fa32 c33c caae a4ba f038 7b3c 101f 2c3c
000002d0: 9866 833c d05f 2dbd 8b22 143c 5129 9ebb
000002e0: d439 9c3c e394 c0bc bd74 fb3a 463d a63c
000002f0: 6558 fcbc cc79 4ebb a47d 293d b69b 96b9
00000300: c8ff 97bc 44f9 e03b 8a50 9fbb f1cb 45bc
00000310: 4d02 f5bc 65a4 55bc c1a1 e1bc 1bb1 2c3d
00000320: cff8 163d afc5 0cbc 3d90 9fbc bf3f 55bb
00000330: 9d50 04bb 1d20 ed3c 1b88 3f3c 2929 a03c
00000340: 9736 b0bc 02a2 fcbb 7ee9 ca3b 99e3 fa3c
00000350: 908c babc 8532 373c c9b1 f0ba 82e5 5a3b
00000360: 78a5 713d f3d0 be3a 01c7 783c 4ba7 4bbc
00000370: dedd 4b3d 3c86 353d 30fa 303d 9a73 3e3d
00000380: d4ee c33b ae50 4c3d 0018 213c 9f99 2a3d
00000390: 00e6 33bb f663 a93c 08bb d9bc 7323 25bd
000003a0: 1fd8 0f3b 30fb bf3b 3e45 6fbc 0cad d3bc
000003b0: d740 d0bc 56a6 2fbc 6570 35bc f7b5 0d3d
000003c0: a9ba 653d 4db4 f0bb 83a3 e4bc 5be8 4c3d
000003d0: d9ef ff3c f0b1 76bc 5e5f 843d c306 a23c
000003e0: 46d4 d6bc 5d2f 6fbc 4615 69bc f130 d43c
000003f0: 729f 16bd b9a4 b83b 758f a9bc 7ab9 50bc

gat1.lin.weight f4 [256, 52]
-0.01628234 0.013282116 0.01567175 0.057576697 -0.099028654 0.12827578 -0.042019688 -0.018546099
-0.07255971 0.07521341 0.0119872345 -0.037519343 -0.07549511 -0.11895336 0.09953125 0.08674602
0.09774551 -0.08349095 0.034853373 0.12061206 -0.016097639 0.0026606019 0.041560337 0.04320723
0.08552785 0.033822235 -0.10214857 0.034454364 -0.09323455 0.043619577 -0.06625087 0.0069374554
-0.04487591 -0.08533053 -0.094071545 -0.005958302 0.030279784 0.13729881 -0.062782645 0.06599581
0.16412568 0.08136892 0.09007955 -0.05586325 0.11030154 0.028595613 0.06978836 0.018649485
0.080354765 -0.068903744 0.13189253 0.006772429 -0.020906523 -0.010395241 -0.010552275 0.09183056
-0.02654677 -0.027743142 0.11783499 0.07597024 0.022463195 0.05594551 -0.091570035 0.02792118
0.031325135 0.024418864 -0.036983676 0.00023751623 0.054779645 -0.036028154 0.073146634 -0.06379005
0.030967427 -0.12436647 -0.05134117 0.050645366 -0.012034755 0.072392166 -1.7475551e-05 0.012269499
-0.062853485 0.03201152 -0.098307 -0.04668585 0.115284264 0.06326031 -0.13691938 -0.025897251
-0.099519335 0.107494265 -0.05620765 0.113378935 -0.1203499 -0.012327616 0.020463945 -0.07456878
0.09547791 -0.12550747 0.075812444 0.11037512 -0.08955791 -0.002339702 -0.08585179 -0.07817062
-0.07864537 -0.092015915 0.032195948 -0.074394666 0.0036409101 -0.044287086 -0.09431869 0.00476708
0.049384236 0.042862 0.0060136365 0.06421326 0.058408603 -0.10827359 -0.12296981 -0.0035271551
0.10859346 -0.014524475 0.03928796 0.019730374 -0.06713222 -0.032092743 0.009422521 -0.11910585
-0.11173528 0.028486513 0.0052654827 0.060434572 0.027544286 -0.09663654 0.102274716 -0.048740994
-0.069428936 -0.062122814 -0.061625514 0.0876048 0.039459396 0.03502397 -0.13366146 0.09267512
0.13889883 0.062188152 -0.11490379 -0.10092283 0.09558218 0.0893992 0.005365699 -0.026965339
0.02033944 0.05309046 0.037582878 0.001980603 -0.018753376 0.13735251 0.040465157 0.095936306
0.04117501 -0.0745807 -0.043102775 -0.09227907 0.11213 0.021058073 -0.07769424 0.02853983
-0.035972316 -0.10540123 0.020468062 -0.01719403 -0.047542457 -0.0086554745 0.04821812 -0.0048663104
0.035040867 -0.022036305 -0.03398374 -0.12129747 -0.004956714 0.069712296 0.07052411 -0.048915725
-0.036451172 -0.088253364 0.056605566 -0.029368047 -0.062323526 -0.12477852 -0.01259529 -0.10839472
-0.08525888 -0.049008835 0.08794711 0.041350417 -0.13600762 -0.10881308 0.11600583 0.11642779
-0.13421904 -0.15208736 0.029478235 -0.14035915 0.09465049 -0.07544797 0.0051613827 0.08915537
-0.056699947 -0.004633961 0.11189717 0.015616185 -0.08876826 -0.047120668 0.10779483 -0.014968134
0.052392375 0.102534674 -0.094143316 -0.029946318 -0.0009580715 -0.016048886 -0.099305905 -0.05213957
-0.0032912062 -0.06632163 -0.011643507 0.12174592 0.118559316 -0.12591581 -0.023252869 -0.0090417415
0.023360593 0.10037707 -0.006400759 0.043960825 0.0478713 -0.104231805 -0.12098188 0.05836718
0.06891469 0.01123017 0.11698502 0.082351536 0.079233736 -0.07272384 0.070070826 -0.13841198
-0.14225812 0.06377798 -0.090998344 -0.15658988 -0.008996307 -0.11040271 -0.060437106 0.061361786
00000000: 8b62 85bc 3b9d 593c 0b62 803c 8bd5 6b3d
00000010: 89cf cabd ba5a 033e d61c 2cbd fded 97bc
00000020: 2f9a 94bd 7d09 9a3d 1b66 443c e2ad 19bd
00000030: 2e9d 9abd d29d f3bd 0ad7 cb3d e6a7 b13d
00000040: cc2e c83d 4efd aabd 69c2 0e3d 7503 f73d
00000050: 32df 83bc 7e5d 2e3b 2c3b 2a3d 10fa 303d
00000060: 3a29 af3d 2f89 0a3d 4533 d1bd 0520 0d3d
00000070: c1f1 bebd 71aa 323d 89ae 87bd 9853 e33b
00000080: cdcf 37bd c6c1 aebd 95a8 c0bd dc3d c3bb
00000090: 4f0d f83c 0f98 0c3e 3094 80bd d028 873d
000000a0: 9010 283e c0a4 a63d a17b b83d ddd0 64bd
000000b0: c6e5 e13d 5941 ea3c 33ed 8e3d cec6 983c
000000c0: 0a91 a43d 681d 8dbd d60e 073e 41eb dd3b
000000d0: 2844 abbc cd50 2abc 73e3 2cbc a911 bc3d
000000e0: 9d78 d9bc 9645 e3bc 7953 f13d 4996 9b3d
000000f0: bc04 b83c 1e27 653d 1289 bbbd f5ba e43c
00000100: c94e 003d 120a c83c 327c 17bd c70d 7939
00000110: 9f60 603d 4292 13bd e7cd 953d 5ca4 82bd
00000120: 67af fd3c d9b3 febd 1e4b 52bd 8471 4f3d
00000130: 6c2d 45bc 5842 943d 7698 92b7 0206 493c
00000140: 54b9 80bd 831e 033d 2e55 c9bd a939 3fbd
00000150: 281a ec3d 9f8e 813d 9834 0cbe 7926 d4bc
00000160: cbd0 cbbd f425 dc3d fe39 66bd 3733 e83d
00000170: 027a f6bd c5f9 49bc 01a4 a73c 84b7 98bd
00000180: ec89 c33d 0885 00be 8e43 9b3d 5a0c e23d
00000190: 236a b7bd b055 19bb 10d3 afbd eb17 a0bd
000001a0: d310 a1bd d772 bcbd e6df 033d 3b5c 98bd
000001b0: 569c 6e3b 6066 35bd 282a c1bd 2a35 9c3b
000001c0: 2047 4a3d 1190 2f3d 0a0e c53b 3e82 833d
000001d0: dc3d 6f3d 8bbe ddbd 99d7 fbbd d827 67bb
000001e0: 3f66 de3d 10f8 6dbc 69ec 203d 98a1 a13c
000001f0: 9e7c 89bd ae73 03bd eb60 1a3c c5ed f3bd
00000200: 77d5 e4bd 8c5c e93c 128a ac3b 3e8a 773d
00000210: 8ea4 e13c 61e9 c5bd 6875 d13d a3a4 47bd
00000220: c230 8ebd 7e74 7ebd 096b 7cbd 256a b33d
00000230: 2da0 213d 4b75 0f3d 8dde 08be 74cc bd3d
00000240: 7f3b 0e3e 01b9 7e3d ae52 ebbd a1b0 cebd
00000250: 97c0 c33d ee16 b73d bfd2 af3b 6ae6 dcbc
00000260: e69e a63c 6275 593d 81f0 193d 01cd 013b
00000270: aea0 99bc 23a6 0c3e cbbe 253d 417a c43d
00000280: 21a7 283d c4bd 98bd 898c 30bd cffc bcbd
00000290: 6aa4 e53d fb81 ac3c 281e 9fbd 5dcc e93c
000002a0: b557 13bd 9adc d7bd a3ac a73c 7fda 8cbc
000002b0: e1bb 42bd b1cf 0dbc 5d80 453d 9275 9fbb
000002c0: 0387 0f3d 7b85 b4bc 8932 0bbd cf6a f8bd
000002d0: ee6b a2bb 52c5 8e3d f26e 903d db5b 48bd
000002e0: d34d 15bd 2ebe b4bd 3ddb 673d 4295 f0bc
000002f0: f446 7fbd e18b ffbd 7a5c 4ebc 0dfe ddbd
00000300: 359c aebd 7dbd 48bd 9d1d b43d 0e5f 293d
00000310: 9545 0bbe 64d9 debd 7794 ed3d b171 ee3d
00000320: b770 09be cabc 1bbe 577c f13c 4fba 0fbe
00000330: 1ed8 c13d 7784 9abd d120 a93b 1797 b63d
00000340: 343e 68bd 7bd8 97bb 582a e53d 07db 7f3c
00000350: 22cc b5bd 9a01 41bd 89c3 dc3d e83c 75bc
00000360: 6399 563d b3fd d13d 36ce c0bd fb51 f5bc
00000370: 1727 7bba f478 83bc e560 cbbd 4d90 55bd
00000380: 47b1 57bb a2d3 87bd 68c4 3ebc ed55 f93d
00000390: 3acf f23d 13f0 00be cd7c bebc d023 14bc
000003a0: b75e bf3c 7e92 cd3d 75bd d1bb 4410 343d
000003b0: b214 443d 7c77 d5bd 59c5 f7bd 6d12 6f3d
000003c0: 2523 8d3d bffe 373c d895 ef3d eca7 a83d
000003d0: 4c45 a23d 3df0 94bd 4b81 8f3d dfbb 0dbe
000003e0: 1dac 11be 089e 823d 575d babd 1959 20be
000003f0: 3f65 13bc d11a e2bd e68c 77bd 7f56 7b3d

gat2.att_src f4 [1, 4, 64]
-0.21209605 -0.076692924 -0.10175991 0.2572253 -0.1187999 -0.10581516 0.07854191 0.16240498
-0.13637523 -0.22873995 0.09373016 -0.22770707 0.1528177 -0.10625793 0.012603197 0.21494043
-0.23875612 0.15350814 0.15249732 -0.19263054 -0.0005619628 0.15096988 -0.11465405 -0.24047166
-0.11102503 -0.06462518 0.081512086 0.21726318 0.093836635 0.2226658 0.053146195 -0.2205424
0.007147833 0.17331138 -0.23934151 0.07637115 -0.2678472 0.23015402 0.117894135 -0.056013316
0.026729709 -0.2549099 0.040554974 0.026822338 -0.09608524 -0.17542753 -0.09423899 -0.19875705
0.10707328 0.18606392 -0.20165087 -0.19292833 -0.2190343 -0.034355212 -0.1536592 -0.09745649
-0.0976945 0.06627508 0.047161248 -0.23852147 0.1444297 -0.20515248 -0.045247726 0.23370364
0.0025882518 0.04308471 -0.16057831 -0.22084206 -0.26545203 -0.108097255 -0.22855198 -0.22565447
0.056031805 0.13506004 0.052676827 0.16540204 -0.18169938 -0.078763455 0.20011729 -0.09012211
-0.16129053 0.13357322 0.15477212 0.02554679 0.1278637 -0.16790657 -0.13290627 0.21322154
-0.0023136388 -0.081039734 0.07382981 0.12602533 0.11494189 0.084858194 -0.20264855 0.14917655
-0.0752668 0.10306977 0.007670899 0.11111694 0.07932504 0.093674935 -0.13009131 0.19401075
-0.055242218 0.25619748 0.013667258 0.13673007 -0.21171457 -0.22752266 -0.14343011 0.2489654
-0.10170962 0.119294435 0.16033368 0.25683704 -0.1959143 -0.07528852 -0.22728574 0.07450021
0.22169954 -0.20348819 -0.1253137 0.1662599 -0.1854094 -0.19729933 -0.041032717 -0.2364264
-0.0560604 -0.20887198 -0.25397673 0.21955454 -0.06884769 0.1341925 0.14047812 -0.17717206
0.1458056 0.07823568 0.0652489 -0.04371416 0.21001549 0.056984942 0.09467124 0.25567728
-0.11707182 0.24934849 0.13069066 0.14154696 0.09441641 0.14741692 -0.00040206822 -0.19650103
-0.07323671 -0.1733013 -0.23320848 -0.22304669 -0.0019681158 0.19586316 0.033868868 -0.105031595
0.066127725 0.14909345 -0.07316985 0.08343957 0.23284262 -0.040618267 -0.052612748 -0.21259183
0.07572697 -0.049856737 -0.22259451 -0.14476007 0.053277817 -0.0434661 -0.09277029 -0.026600663
-0.16965982 -0.116578974 0.009144712 -0.0015249623 0.12798594 -0.17599371 0.15655886 0.23445244
-0.06312094 -0.19628431 0.2685578 -0.18940316 0.1725235 0.26236033 -0.25825867 0.044333737
0.052081585 -0.118799515 0.20013227 -0.08401374 -0.24130242 0.01261593 -0.24507481 -0.128803
0.1121628 0.1129609 0.2541572 -0.10071893 -0.20577319 0.06141185 -0.074452534 -0.18235981
-0.22772841 -0.0831885 0.18859966 -0.23968147 -0.18676156 -0.24415903 -0.20737551 -0.24103753
0.15808669 0.22156072 -0.23911339 0.12223965 -0.059103116 -0.21232882 0.16355261 -0.2117189
-0.10000808 -0.201307 -0.22661619 -0.10683218 -0.20571467 -0.040573932 0.042521626 -0.106827885
-0.15735635 -0.09105709 0.16734594 0.14371008 0.07642988 0.23705849 -0.065756924 0.16734588
0.24870339 -0.033878565 -0.08183859 -0.034127455 0.044747163 -0.0829597 0.10558637 -0.113492504
0.15408139 -0.026249446 -0.1435592 -0.01912404 0.09161506 0.03691563 0.22347343 0.108600155
00000000: b52f 59be 2e11 9dbd 8067 d0bd 09b3 833e
00000010: 5d4d f3bd 9eb5 d8bd 95da a03d 7e4d 263e
00000020: f3a5 0bbe ce3a 6abe 99f5 bf3d 0b2c 69be
00000030: 3e7c 1c3e c29d d9bd a47d 4e3c 5819 5c3e
00000040: 7c7c 74be 3d31 1d3e 4228 1c3e f140 45be
00000050: af50 13ba d997 1a3e becf eabd 343e 76be
00000060: 1761 e3bd 355a 84bd cfef a63d 3d7a 5e3e
00000070: 6c2d c03d 8102 643e d3af 593d ded5 61be
00000080: 5e38 ea3b 8a78 313e f115 75be 7a68 9c3d
00000090: 4523 89be 7fad 6b3e 7b72 f13d 386e 65bd
000000a0: 43f8 da3c 8d83 82be f91c 263d 85ba db3c
000000b0: 57c8 c4bd 46a3 33be 5f00 c1bd f886 4bbe
000000c0: 3c49 db3d 8a87 3e3e 917d 4ebe 018f 45be
000000d0: 874a 60be 0db8 0cbd d658 1dbe 4597 c7bd
000000e0: 0e14 c8bd 3bbb 873d 272c 413d f93e 74be
000000f0: 61e5 133e 7e13 52be ae55 39bd 0250 6f3e
00000100: a99f 293b 9879 303d a46e 24be 6c24 62be
00000110: 54e9 87be 1862 ddbd 8809 6abe f711 67be
00000120: 9b81 653d 2e4d 0a3e a8c3 573d 275f 293e
00000130: 670f 3abe bc4e a1bd 8ceb 4c3e f191 b8bd
00000140: 5829 25be 6bc7 083e 957c 1e3e 8047 d13c
00000150: b4ee 023e b3ef 2bbe 9518 08be bf56 5a3e
00000160: 6ba0 17bb 29f8 a5bd 1534 973d c90c 013e
00000170: a766 eb3d 22ca ad3d 1a83 4fbe bdc1 183e
00000180: 7b25 9abd 3e16 d33d 2a5c fb3b 4791 e33d
00000190: 2b75 a23d a5d8 bf3d a836 05be c1aa 463e
000001a0: aa45 62bd 512c 833e a3ec 5f3c f802 0c3e
000001b0: b4cb 58be b3fb 68be 58df 12be c9f0 7e3e
000001c0: 224d d0bd a450 f43d 832e 243e 2580 833e
000001d0: c29d 48be de30 9abd 98bd 68be 9193 983d
000001e0: 3405 633e 355f 50be 3c52 00be 0940 2a3e
000001f0: f6db 3dbe d608 4abe ec11 28bd c319 72be
00000200: 979f 65bd 89e2 55be 3d09 82be e8d2 603e
00000210: 0500 8dbd c269 093e 7fd9 0f3e 986c 35be
00000220: 104e 153e 073a a03d 37a1 853d 9e0d 33bd
00000230: 4d0e 573e 0b69 693d ffe2 c13d 22e8 823e
00000240: 5ac3 efbd 3655 7f3e c6d3 053e b0f1 103e
00000250: 645d c13d 76f4 163e afcc d2b9 9137 49be
00000260: 21fd 95bd e575 31be 34ce 6ebe 5a66 64be
00000270: 81fb 00bb 5a90 483e 15ba 0a3d ce1a d7bd
00000280: f96d 873d f4ab 183e 13da 95bd 5ee2 aa3d
00000290: 4c6e 6e3e 575f 26bd 7780 57bd acb1 59be
000002a0: be16 9b3d 9436 4cbd d1ef 63be fc3b 14be
000002b0: d739 5a3d 8209 32bd 5afe bdbd a2e9 d9bc
000002c0: 4ebb 2dbe f5c0 eebd b4d3 153c 3ee1 c7ba
000002d0: bf0e 033e b237 34be f750 203e 4d14 703e
000002e0: 8d45 81bd c1fe 48be 6880 893e e7f2 41be
000002f0: 00aa 303e 1854 863e 7b3a 84be 4b97 353d
00000300: 8053 553d 294d f3bd 79ef 4c3e 650f acbd
00000310: fb17 77be 0cb3 4e3c e4f4 7abe efe4 03be
00000320: 9cb5 e53d 0b58 e73d e420 823e ba45 cebd
00000330: 35b6 52be fe8a 7b3d 927a 98bd 88bc 3abe
00000340: a331 69be bb5e aabd 4520 413e 0f6f 75be
00000350: 6c3e 3fbe d304 7abe 3f5a 54be 8bd2 76be
00000360: 7ae1 213e d0e0 623e 24da 74be c858 fa3d
00000370: 1c16 72bd ba6c 59be 567a 273e d7cc 58be
00000380: 09d1 ccbd 6c23 4ebe 130e 68be d4ca dabd
00000390: dea6 52be da30 26bd 282b 2e3d 94c8 dabd
000003a0: 0622 21be 247c babd bc5c 2b3e bc28 133e
000003b0: 4587 9c3d 76bf 723e 91ab 86bd b85c 2b3e
000003c0: 1aac 7e3e 40c4 0abd fe9a a7bd 3bc9 0bbd
000003d0: cd48 373d c6e6 a9bd ab3d d83d c26e e8bd
000003e0: 83c7 1d3e 1409 d7bc 2f01 13be 05aa 9cbc
000003f0: ada0 bb3d d834 173d 38d6 643e c269 de3d

gat2.att_dst f4 [1, 4, 64]
0.21102409 -0.20013352 0.06981362 0.092118114 -0.11672303 -0.12773356 0.056618214 -0.060322527
0.07545772 0.07738071 0.16087987 -0.18956439 -0.12645644 -0.19677745 0.044164646 -0.11702179
0.15958405 0.14042631 0.0031511951 0.24386978 0.1732672 -0.18899836 0.044520803 0.24570031
0.06820348 -0.0738433 0.16845298 0.23334783 0.08285109 0.29053652 0.042908315 0.1488276
-0.20615754 0.061485756 0.24822477 0.013377242 -0.18116069 0.025301239 -0.065117545 -0.19817516
-0.21610764 -0.15034166 0.22669193 0.16491519 -0.023796057 0.030731754 -0.22564863 0.2101845
0.09043046 -0.06503257 0.2476063 0.06958826 -0.18444526 -0.16604841 -0.0004425549 -0.033369552
0.20491087 -0.22808656 -0.20144016 0.29307082 -0.027685793 0.04460503 0.110560015 0.25062332
0.2035264 -0.20856938 0.037981924 0.24684612 -0.12302961 -0.014833517 0.001042546 0.08231637
0.16952805 -0.038794383 0.106745414 0.22376214 -0.071985126 0.1315885 -0.22618847 -0.071362756
-0.058114193 -0.10286186 -0.0707464 -0.015419712 -0.22069554 0.13877118 -0.22511837 -0.05961226
0.037777856 -0.12706415 0.17091335 0.2426893 0.15877062 0.17304905 -0.06312509 -0.042115733
-0.16029999 0.028753446 0.027808568 0.13895838 0.17200442 0.08696552 -0.17534588 -0.17050788
-0.16902247 0.036921967 0.12588115 -0.026095461 -0.21049896 0.022903094 -0.19428909 0.036591806
-0.15635945 0.078582644 0.22894856 0.17835517 0.19556189 0.11692689 -0.20709844 0.24146968
0.17866816 -0.21829967 -0.02224664 0.15541376 -0.1244785 0.00953244 0.07968676 -0.21936853
-0.06966708 -0.18887411 0.12307683 -0.036173716 -0.039235026 0.18598871 0.1881497 0.1273471
-0.021864736 -0.20901215 0.040874217 0.107010014 -0.08977881 0.22224213 0.22988175 0.17249191
0.24477427 0.28400537 -0.16314434 0.2266059 0.14113101 -0.07296432 0.0847942 -0.26895812
-0.054101616 -0.28593436 -0.19788566 -0.009422339 -0.0013194387 -0.18838279 0.19491617 0.17312993
-0.18522732 0.25578263 0.1829223 -0.29358947 0.18400627 -0.15992442 0.22582807 0.15697685
-0.18281922 -0.22981763 -0.21595219 -0.04275127 0.24980679 0.12299019 0.19942486 -0.15230447
0.2526582 0.025241021 0.00775274 0.23435 -0.19095545 -0.24448031 0.1340067 0.13558711
0.18166083 -0.06332014 -0.24009928 -0.24511082 0.2439623 -0.23336741 -0.026625838 -0.119764775
-0.16250506 -0.15297961 0.14082158 0.11921971 -0.105861545 0.005356153 -0.08208922 0.030639645
-0.10190775 0.11218189 -0.22759585 -0.1996016 -0.15780929 -0.021566782 0.06294183 0.10317566
0.21516012 -0.24436772 0.216689 0.08529133 0.0791387 0.10592982 -0.19225942 0.07436705
0.19613375 0.07592183 -0.0055118245 0.08859229 0.19640149 -0.118482515 0.0907982 -0.21371965
-0.10208242 0.09235962 -0.1756786 0.17721644 -0.105427556 0.15724394 -0.080285974 -0.17722405
0.100645304 -0.20420925 0.061007634 -0.22636174 -0.21707948 -0.2478809 0.21688604 0.16457735
-0.0319852 -0.2485964 0.095185086 -0.0808564 0.06572679 -0.07656236 0.10791499 -0.24008496
0.18248856 -0.0018979614 -0.1678943 0.13816957 0.08071343 -0.07192597 0.25717148 0.17888494
00000000: b316 583e cdef 4cbe 71fa 8e3d 6ca8 bc3d
00000010: 7c0c efbd 96cc 02be 80e8 673d c114 77bd
00000020: 9489 9a3d c779 9e3d b1bd 243e 2b1d 42be
00000030: cc7d 01be 0780 49be fde5 343d 1fa9 efbd
00000040: 006a 233e eacb 0f3e 4884 4e3b 00b9 793e
00000050: f56c 313e c988 41be 725b 363d dd98 7b3e
00000060: 44ae 8b3d 283b 97bd f07e 2c3e bcf2 6e3e
00000070: d5ad a93d 34c1 943e a1c0 2f3d 4366 183e
00000080: f61a 53be 7dd8 7b3d a22e 7e3e 382c 5b3c
00000090: 3082 39be 8b44 cf3c 595c 85bd 6eee 4abe
000000a0: 524b 5dbe 2af3 19be ee21 683e 87df 283e
000000b0: f3ef c2bc 29c1 fb3c 6f10 67be 9b3a 573e
000000c0: 9b33 b93d cc2f 85bd 828c 7d3e 4a84 8e3d
000000d0: 38df 3cbe 9808 2abe b706 e8b9 83ae 08bd
000000e0: 28d4 513e 868f 69be 5446 4ebe 610d 963e
000000f0: 51cd e2bc c4b3 363d 4a6d e23d b351 803e
00000100: 3969 503e 3693 55be ef92 1b3d 3bc5 7c3e
00000110: f3f6 fbbd 4808 73bc 0aa6 883a 7c95 a83d
00000120: c398 2d3e dce6 1ebd 579d da3d e721 653e
00000130: f06c 93bd 23bf 063e f39d 67be a326 92bd
00000140: 2609 6ebd 3da9 d2bd 7de3 90bd f6a2 7cbc
00000150: 03fe 61be 081a 0e3e 6e85 66be fc2b 74bd
00000160: f4bc 1a3d 1b1d 02be e903 2f3e 8b83 783e
00000170: c494 223e c533 313e ba47 81bd 8c81 2cbd
00000180: ae25 24be 598c eb3c cbce e33c 1b4b 0e3e
00000190: ed21 303e fb1a b23d df8d 33be 9e99 2ebe
000001a0: 3a14 2dbe 7d3b 173d fde6 003e 26c6 d5bc
000001b0: 0a8d 57be 459f bb3c b8f3 46be 4ae1 153d
000001c0: b11c 20be f0ef a03d 7e71 6a3e bda2 363e
000001d0: 6041 483e 5e77 ef3d 9d11 54be d443 773e
000001e0: c9f4 363e f389 5fbe 963e b6bc c924 1f3e
000001f0: 95ee febd f42d 1c3c d032 a33d 25a2 60be
00000200: 9dad 8ebd 3768 41be b40f fc3d e42a 14bd
00000210: e8b4 20bd d373 3e3e 51aa 403e 4767 023e
00000220: ad1d b3bc 4807 56be b96b 273d 1128 db3d
00000230: f4dd b7bd 7193 633e 1f66 6b3e b8a1 303e
00000240: 1ba6 7a3e 2769 913e 4f0f 27be 610b 683e
00000250: a684 103e 516e 95bd 95a8 ad3d e1b4 89be
00000260: a899 5dbd fd65 92be 8aa2 4abe 2760 1abc
00000270: 04f1 acba 6be7 40be 1b98 473e f948 313e
00000280: 3bac 3dbe f1f5 823e fc4f 3b3e 5c51 96be
00000290: 246c 3c3e 3ac3 23be 793f 673e 8abe 203e
000002a0: f634 3bbe 5055 6bbe 9222 5dbe f51b 2fbd
000002b0: 5acd 7f3e 48e2 fb3d 0836 4c3e b4f5 1bbe
000002c0: 6a5c 813e 42c6 ce3c b20a fe3b 72f9 6f3e
000002d0: d389 43be 0c59 7abe 0d39 093e 59d7 0a3e
000002e0: 4c05 3a3e fdad 81bd 96dc 75be 55fe 7abe
000002f0: 41d1 793e def7 6ebe 6e1e dabc 3c47 f5bd
00000300: ba67 26be b0a6 1cbe 8833 103e 7729 f43d
00000310: f0cd d8bd ab82 af3b 651e a8bd feff fa3c
00000320: 03b5 d0bd 9ebf e53d e30e 69be 5d64 4cbe
00000330: c298 21be d2ac b0bc a5e7 803d c34d d33d
00000340: ef52 5c3e 883b 7abe b9e3 5d3e 39ad ae3d
00000350: 7913 a23d bcf1 d83d a7df 44be c04d 983d
00000360: 49d7 483e e87c 9b3d 899c b4bb e06f b53d
00000370: 791d 493e f6a6 f2bd 68f4 b93d 53d9 5abe
00000380: 9610 d1bd 0a27 bd3d 17e5 33be 3a78 353e
00000390: 67ea d7bd 8e04 213e f96c a4bd 397a 35be
000003a0: 201f ce3d 3b1c 51be 24e3 793d 5fcb 67be
000003b0: 154a 5ebe 7ed4 7dbe 6017 5e3e f786 283e
000003c0: ea02 03bd 0e90 7ebe 66f0 c23d 0a98 a5bd
000003d0: c49b 863d bacc 9cbd 8902 dd3d d5d8 75be
000003e0: 48de 3a3e 04c5 f8ba 7cec 2bbe 537c 0d3e
000003f0: 154d a53d ec4d 93bd fbab 833e 9d2d 373e

gat2.bias f4 [256]
-0.0047674356 -0.018856904 -0.031797033 0.03526112 0.016936902 -0.013532778 0.016506668 0.009034444
-0.042825982 0.0267113 0.023440968 0.0132123055 -0.0034837055 -0.0335915 0.023235949 -0.020008234
-0.025084347 0.029669162 -0.0066358945 -0.03615707 0.0013693856 0.01538877 0.026683902 0.025924118
0.025470829 0.016185654 0.019333985 0.032041263 -0.0064989887 0.010313 -0.014174046 -0.016592229
0.006126127 -0.02602275 -0.05755728 0.04221121 -0.00869661 -0.0082134 0.04078501 -0.0062996484
-0.017378822 -0.02066756 -0.034566365 0.01497048 0.012829642 -0.028202498 0.016738601 0.0034716881
-0.034255505 0.021145444 0.012145963 -0.01785618 0.010692332 0.024928913 -0.029954338 -0.021253984
0.0034055968 0.030055761 0.005453962 -0.017075527 0.015491953 0.016079202 -0.028635263 0.013190184
0.010037842 0.030513022 -0.010762457 -0.005921504 0.0025642954 0.01303596 -0.047734253 0.024451895
0.008690161 0.010847945 -0.016719455 -0.021369642 -0.040923037 0.020397622 0.014912723 -0.020054068
-0.03358652 -0.005304405 0.0069310726 -0.033518605 -0.017136296 -0.047860976 0.027233547 0.015452615
0.053136885 0.03335884 -0.022515291 0.01674516 0.0029523734 0.02492531 0.02779384 0.023011183
0.02025399 -0.04245775 -0.03452227 0.007934303 -0.007508536 -0.037918422 0.008011059 0.030365488
-0.019411651 0.049038406 -0.02255267 0.035903852 -0.026728844 0.036633503 -0.0076693045 0.031446993
-0.04627313 -0.045943975 0.024869217 0.009869446 -0.055264466 0.002923633 -0.04100485 -0.03144435
0.014380972 -0.048787188 0.04982189 0.008958547 -0.0040981215 0.023838898 0.005533212 0.007909544
-0.032585505 0.013911136 0.018103896 0.04664174 -0.035094485 0.02990851 0.020226892 0.033863243
-0.011046736 0.007897355 -0.028530715 0.020537736 0.01859653 -0.023694849 -0.028742582 -0.033487454
-0.017302882 -0.025711989 -0.01679111 -0.005359644 0.03138549 -0.03900705 -0.014605786 0.021231258
0.02543416 -0.027615469 -0.037555933 0.023965752 0.03277266 0.03719086 0.014576164 0.021621618
0.01543084 0.0023118516 -0.00203949 -0.008394981 0.012922687 -0.01430781 -0.012469222 0.022616431
0.012911422 -0.013156118 0.0028491428 -0.005443827 -0.031319406 0.027372347 0.019904118 -0.014504417
0.006254382 0.027026331 0.03330906 0.0116225835 0.008407141 0.036336344 -0.04592575 0.0041291974
0.031097278 -0.017204665 0.03155848 0.039551824 0.0053198608 -0.007167906 -0.023512546 0.018124077
0.007233812 0.0126761515 -0.0077199447 -0.014642031 -0.00018327805 -0.03255536 0.014441296 0.0059247287
0.00775738 0.05385481 0.023102343 0.0064945836 0.014065119 -0.03488732 0.021496102 0.0078060757
0.027869027 0.030053716 0.0030216703 -0.0269615 0.04926691 0.041889597 -0.007221434 -0.0125358375
-0.024934297 0.010693232 0.049333323 -0.02855037 -0.020312754 -0.022413211 0.021256039 0.008941235
0.010711203 -0.0054427283 0.0029347022 0.018102504 -0.05154007 0.00036071974 -0.044320147 0.026889041
-0.03364707 0.017715024 0.021959845 -0.02624307 -0.005043991 -0.0176495 0.009878077 0.020907935
0.015465924 0.012400041 0.018497702 0.0038865479 0.0114383595 0.018210443 0.018726416 0.023294253
0.016390413 -0.03172705 -0.034829125 0.008425052 0.0025200855 -0.006434846 -0.0066268034 0.03015644
00000000: 2638 9cbb cb79 9abc 9b3d 02bd f76d 103d
00000010: 42bf 8a3c 96b8 5dbc fe38 873c 3405 143c
00000020: 4c6a 2fbd a8d1 da3c 4607 c03c 6d78 583c
00000030: e14e 64bb 3e97 09bd 5159 be3c 4fe8 a3bc
00000040: b07d cdbc be0c f33c eb71 d9bb 7019 14bd
00000050: f57c b33a 2e21 7c3c 3398 da3c d15e d43c
00000060: 33a8 d03c c797 843c 4e62 9e3c b33d 033d
00000070: 78f5 d4bb dbf7 283c 423a 68bc 6dec 87bc
00000080: aebd c83b aa2d d5bc 2fc1 6bbd a9e5 2c3d
00000090: 3a7c 0ebc 7f91 06bc 2f0e 273d 486d cebb
000000a0: 085e 8ebc 044f a9bc 7695 0dbd bf46 753c
000000b0: 6b33 523c ed08 e7bc 641f 893c 4385 633b
000000c0: 804f 0cbd 3639 ad3c dcff 463c 2047 92bc
000000d0: e42e 2f3c b837 cc3c cd62 f5bc d61c aebc
000000e0: 6f30 5f3b 8037 f63c 26b7 b23b fae1 8bbc
000000f0: f6d1 7d3c 88b8 833c 8094 eabc a41b 583c
00000100: c375 243c 72f6 f93c 0455 30bc 2d09 c2bb
00000110: bd0d 283b c794 553c fe84 43bd 574f c83c
00000120: 2d61 0e3c 94bb 313c 3df7 88bc 630f afbc
00000130: ea9e 27bd ea18 a73c 7e54 743c 6e48 a4bc
00000140: 0592 09bd 93d0 adbb 0d1e e33b ce4a 09bd
00000150: 6b61 8cbc df09 44bd e318 df3c f72c 7d3c
00000160: 10a6 593d 47a3 083d fd71 b8bc 252d 893c
00000170: 9b7c 413b 2a30 cc3c e8af e33c f381 bc3c
00000180: b2eb a53c 2de8 2dbd 3967 0dbd e1fe 013c
00000190: 2a0a f6bb 5950 1bbd d140 033c 0bc1 f83c
000001a0: 2f05 9fbc 7fdc 483d 61c0 b8bc eb0f 133d
000001b0: 73f6 dabc 030d 163d ca4e fbbb 90ce 003d
000001c0: e588 3dbd c02f 3cbd 87ba cb3c 75b3 213c
000001d0: fe5c 62bd 6c9a 3f3b b4f4 27bd cacb 00bd
000001e0: 2b9e 6b3c 13d5 47bd 0a12 4c3d dfc6 123c
000001f0: 8949 86bb cb49 c33c f24f b53b 0897 013c
00000200: 6178 05bd 89eb 633c 9f4e 943c 690b 3f3d
00000210: 3cbf 0fbd b102 f53c deb2 a53c 2fb4 0a3d
00000220: 5efd 34bc e863 013c 3fb9 e9bc c13e a83c
00000230: c057 983c b31b c2bc 9075 ebbc 242a 09bd
00000240: c6be 8dbc f3a1 d2bc 838d 89bc f49f afbb
00000250: 128e 003d dbc5 1fbd 1b4d 6fbc 2ded ad3c
00000260: 4d5b d03c d639 e2bc 40d4 19bd d353 c43c
00000270: a03c 063d 7155 183d ddd0 6e3c d21f b13c
00000280: a2d1 7c3c 6f82 173b f7a8 05bb 1a8b 09bc
00000290: aeb9 533c 4e6b 6abc b54b 4cbc 1846 b93c
000002a0: 6e8a 533c c28c 57bc afb8 3a3b 2162 b2bb
000002b0: c748 00bd f93b e03c f60d a33c efa3 6dbc
000002c0: 8ff1 cc3b 5366 dd3c 156f 083d a66c 3e3c
000002d0: 1bbe 093c 6bd5 143d a41c 3cbd 384e 873b
000002e0: b8bf fe3c ccf0 8cbc 7743 013d 1801 223d
000002f0: 3a52 ae3b c1e0 eabb 629d c0bc f278 943c
00000300: 9d09 ed3b a2af 4f3c 97f7 fcbb 21e5 6fbc
00000310: 542e 40b9 c558 05bd 309b 6c3c 3a24 c23b
00000320: 9f31 fe3b dc96 5c3d 2041 bd3c 84d0 d43b
00000330: 6371 663c 02e6 0ebd 9818 b03c 1cca ff3b
00000340: 964d e43c 3633 f63c 3707 463b 5dde dcbc
00000350: 19cc 493d 6d94 2b3d c7a1 ecbb 1d63 4dbc
00000360: 0343 ccbc aa32 2f3c bd11 4a3d 77e2 e9bc
00000370: ef66 a6bc e99b b7bc 2521 ae3c 427e 123c
00000380: 0b7e 2f3c ea58 b2bb 2254 403b b44b 943c
00000390: ae1b 53bd fc1e bd39 0b89 35bd 6846 dc3c
000003a0: 83d1 09bd 191f 913c 22e5 b33c b5fb d6bc
000003b0: 1048 a5bb af95 90bc a8d7 213c 1e47 ab3c
000003c0: c964 7d3c 8b29 4b3c 7e88 973c 74b5 7e3b
000003d0: f567 3b3c 112e 953c 2468 993c 97d3 be3c
000003e0: 3045 863c 39f4 01bd fca8 0ebd 3b09 0a3c
000003f0: 0528 253b 67db d2bb a825 d9bb a30a f73c

gat2.lin.weight f4 [256, 256]
0.09721 -0.021377832 0.031502955 0.067242466 0.050435886 -0.018724695 -0.03502765 0.010918092
0.08175433 -0.08367161 0.045703694 0.048950497 -0.07073599 -0.00078371115 -0.09357703 0.081916854
-0.093053475 -0.102238774 0.0028411746 -0.07722865 0.07776218 -0.026174478 -0.038204677 0.08523111
0.015815163 0.02027069 -0.054132402 0.002204764 0.08990041 -0.0540391 0.051157426 0.030930674
-0.111164 -0.064350106 -0.00017211221 -0.028548656 0.0010194267 0.027020391 0.054107677 0.0696403
0.010784843 0.018426292 -0.067105256 0.002812081 -0.09150518 -0.033742167 -0.02722613 0.07807911
0.048826795 0.025232632 0.09609745 -0.05286236 0.0034845716 -0.048114922 -0.10627999 0.05498752
0.059701104 -0.11576916 0.07062013 0.029455252 0.059080303 0.08932645 -0.06810933 0.041550685
-0.073087774 -0.0098864455 -0.06498564 -0.05718444 0.010043628 -0.06718367 -0.042911414 0.07342908
0.09826753 -0.04936347 -0.007168228 -0.021652762 -0.023894133 0.033368114 -0.01971238 0.06639951
-0.039910063 -0.017366458 -0.056317188 -0.09629155 -0.07922741 0.042221252 -0.074177004 -0.013926462
-0.020083375 -0.078571595 0.060037896 -0.07169829 0.0031843956 0.0826313 -0.021103602 -0.099421196
0.09097807 -0.020698732 -0.049124945 -0.09955524 -0.06697488 -0.017132599 0.064683445 0.06716135
0.050023366 -0.093312025 -0.09004058 0.021288928 0.034195043 -0.013793836 0.08225503 -0.080798395
-0.06526519 0.09348597 -0.014107905 0.0626009 0.041687172 0.009996729 -0.083044566 0.012632788
0.054661497 -0.07628137 0.09834865 -0.076437235 -0.0026255373 -0.031557057 0.036001597 0.04042694
0.027979976 -0.06812863 -0.09545699 -0.020292617 0.0020168328 0.030754203 -0.11277483 -0.04501071
-0.047472328 0.012766228 -0.04290678 -0.075697474 0.0920228 -0.058099233 -0.084753595 -0.05211138
0.050861966 -0.06900637 0.06681334 -0.052999865 0.06300316 -0.03256009 -0.07017977 0.09606155
-0.04046084 -0.07280966 0.041952856 0.05925707 0.015792126 0.083847255 -0.06611072 0.003468237
-0.0029372692 -0.023864595 0.066543065 0.0013528246 -0.025662968 -0.024783792 -0.08321972 0.05166424
-0.08337999 -0.011468535 0.0025848118 0.10562598 -0.078000024 -0.057996802 -0.09388841 0.033310458
0.0778007 0.04745298 -0.08718603 -0.00780883 0.026492126 0.07038776 0.034940783 0.02696032
0.09292835 -0.08105635 -0.03758437 0.05085653 0.050262533 -0.052832082 0.061512683 -0.040050942
0.08281911 -0.05035593 -0.09401402 0.072779715 0.06309196 0.0332415 -0.06663337 -0.030128054
0.09468882 0.09180696 0.020171342 0.06863119 -0.08555919 -0.025406372 -0.05616007 -0.077238075
-0.011847711 -0.030240834 0.0027372146 0.051580265 -0.09045747 0.099232964 -0.029855661 -0.049470194
0.023138316 0.06632069 -0.08395991 0.06586716 -0.028369943 -0.08241252 0.0754731 -0.08450005
0.083931886 -0.04337063 0.00010179375 -0.013788365 -0.08838421 0.03602232 0.096725136 0.01588773
-0.10662592 -0.067845196 -0.03463137 0.046529673 -0.018824572 -0.007089315 0.05645142 -0.03241299
-0.099072896 0.10228931 -0.09475494 -0.034373797 0.024713224 0.047274746 -0.032876506 -0.06972011
-0.04186808 -0.02558961 -0.05660223 -0.071413785 0.0675812 0.042446084 -0.025363171 0.050135966
00000000: 0916 c73d 9020 afbc 3e09 013d 6bb6 893d
00000010: dc95 4e3d 8864 99bc 2779 0fbd cce1 323c
00000020: d06e a73d 055c abbd cc33 3b3d 5180 483d
00000030: 08de 90bd f771 4dba 50a5 bfbd 06c4 a73d
00000040: d292 bebd 9062 d1bd 0033 3a3b 0e2a 9ebd
00000050: c741 9f3d dc6b d6bc 827c 1cbd a68d ae3d
00000060: cd8e 813c b80e a63c f0b9 5dbd cd7d 103b
00000070: b51d b83d 1a58 5dbd 738a 513d 5362 fd3c
00000080: f4a9 e3bd fdc9 83bd 0579 34b9 dfde e9bc
00000090: 499e 853a de59 dd3c 03a0 5d3d 939f 8e3d
000000a0: e9b2 303c bcf2 963c 7b6e 89bd e44a 383b
000000b0: 1167 bbbd 3a35 0abd 5509 dfbc f1e7 9f3d
000000c0: 9bfe 473d aab4 ce3c bdce c43d 3486 58bd
000000d0: 695d 643b 2714 45bd 53a9 d9bd 983a 613d
000000e0: 2589 743d 6218 edbd 49a1 903d 244c f13c
000000f0: 30fe 713d c9f0 b63d e87c 8bbd 0d31 2a3d
00000100: 0baf 95bd c2fa 21bc 3117 85bd 3b3a 6abd
00000110: 078e 243c 9897 89bd e1c3 2fbd fc61 963d
00000120: 7d40 c93d 5a31 4abd 74e3 eabb 2261 b1bc
00000130: a1bd c3bc 01ad 083d db7b a1bc 77fc 873d
00000140: bc78 23bd 1a44 8ebc daac 66bd 8134 c5bd
00000150: fb41 a2bd 31f0 2c3d 1dea 97bd d12b 64bc
00000160: e485 a4bc 25ea a0bd 4cea 753d 8ed6 92bd
00000170: 4bb1 503b 993a a93d 76e1 acbc 579d cbbd
00000180: b652 ba3d 6390 a9bc 3d37 49bd 9ee3 cbbd
00000190: 202a 89bd aa59 8cbc c178 843d e48b 893d
000001a0: 4de5 4c3d 601a bfbd 3267 b8bd 1e66 ae3c
000001b0: 1a10 0c3d 8bff 61bc 5375 a83d a179 a5bd
000001c0: c2a9 85bd 9275 bf3d d824 67bc e734 803d
000001d0: 2bc0 2a3d 52c9 233c 4513 aabd c1f9 4e3c
000001e0: bce4 5f3d 6839 9cbd 046b c93d 208b 9cbd
000001f0: 3511 2cbb f941 01bd 6976 133d b896 253d
00000200: 4336 e53c 0687 8bbd f47e c3bd b43c a6bc
00000210: d72c 043b 3df0 fb3c 7df6 e6bd 265d 38bd
00000220: 5872 42bd 7129 513c 05bf 2fbd 4707 9bbd
00000230: 7376 bc3d 76f9 6dbd 4b93 adbd be72 55bd
00000240: a354 503d 3653 8dbd 6fd5 883d 6316 59bd
00000250: cd07 813d bb5d 05bd 69ba 8fbd ebbb c43d
00000260: 44ba 25bd 3b1d 95bd c2d6 2b3d 8bb7 723d
00000270: 7d5e 813c 1cb8 ab3d 0f65 87bd 5c4b 633b
00000280: 337f 40bb af7f c3bc bb47 883d 4351 b13a
00000290: 253b d2bc 6107 cbbc 1a6f aabd e29d 533d
000002a0: 21c3 aabd 86e6 3bbc f265 293b 6f52 d83d
000002b0: 7abe 9fbd 0e8e 6dbd 9148 c0bd 8c70 083d
000002c0: f955 9f3d 0e5e 423d 978e b2bd 37e1 ffbb
000002d0: 0406 d93c 7527 903d 111e 0f3d e4db dc3c
000002e0: 3851 be3d df00 a6bd 11f2 19bd f04e 503d
000002f0: 16e0 4d3d 7466 58bd b9f4 7b3d 750c 24bd
00000300: 119d a93d 0542 4ebd 6c8a c0bd 880d 953d
00000310: 5c36 813d 3d28 083d 1477 88bd 1ccf f6bc
00000320: 36ec c13d 4a05 bc3d 5f3e a53c 828e 8c3d
00000330: a839 afbd 0621 d0bc 1a08 66bd ff2e 9ebd
00000340: e71c 42bc a0bb f7bc d762 333b d445 533d
00000350: c441 b9bd a73a cb3d dc93 f4bc 42a1 4abd
00000360: 918c bd3c 24d3 873d 2cf3 abbd 5de5 863d
00000370: 1568 e8bc e5c7 a8bd a491 9a3d 5d0e adbd
00000380: 7be4 ab3d 67a5 31bd 1a7a d538 98e8 61bc
00000390: c802 b5bd 248c 133d d417 c63d fc26 823c
000003a0: b15e dabd 6cf2 8abd a0d9 0dbd e695 3e3d
000003b0: fd35 9abc 7c4d e8bb 9b39 673d 7cc3 04bd
000003c0: bbe6 cabd 0f7d d13d e10e c2bd 8acb 0cbd
000003d0: 6373 ca3c 2aa3 413d 84a9 06bd 6bc9 8ebd
000003e0: dd7d 2bbd 4da1 d1bc bdd7 67bd 6441 92bd
000003f0: 0368 8a3d f2db 2d3d 6dc6 cfbc 5f5b 4d3d
