Analyses/models/Scenario2_6h/lstm.pth (torch, 263817 bytes, 11 tensors)

lstm.weight_ih_l0 f4 [256, 45]
00000000: 3159 423e b8b7 423d e120 d13d c43f 633c
00000010: 6a9e b53c 6f19 99bd 6a8d 033e 830f ad3d
00000020: 4837 4d3d aaa6 6abc 02c4 ce3d 0b20 e23d
00000030: d6a6 873d dad5 b73d daf0 d63d 7f0e 063e
00000040: 45e4 663d f912 a9bd 3ede bebc c310 9dbc
00000050: d880 4d3a 1a50 eebc 617a fd3c 00d0 42bc
00000060: fe91 f23d e61a 1ebd 75d8 40bc 2a1f 5d3d
00000070: b349 d6bc 11b7 fe3b 50af 573d 697d d03d
00000080: 5c32 52bd 4829 72bb 7a61 d03d 94ab 843d
00000090: ad3b debd 7174 a0bd 9336 fbbd 62bf 523d
000000a0: 2809 20bd a96f 823d 7fad b13d a3ce b23d
000000b0: 5b43 693c ac9e 79bd 41ea 01be 4297 a9bd
000000c0: cd1b 123e 8532 163e 26a2 c3bc b8aa 3b3d
000000d0: b486 21bd 9dca b8bd 4a34 efb9 eaa1 183d
000000e0: 0fa3 61bc 21fc 83bc 8790 ae3d 8f4b f4bc
000000f0: 0636 82bc 2135 4b3d b87b 8abd 328c 0b3e
00000100: f957 c3bd 059e 0b3e e8c6 cc3c 1f8c a4bb
00000110: 2327 f03c 4fd7 93bd c0a5 c7bd 5274 d1bd
00000120: b065 b83d f6c4 a03a e999 a93d d917 7fbd
00000130: c4ac d8bd 3d98 c63c 5c03 833c 95c4 a43d
00000140: dfd8 023d 3847 dbbb 67c6 83bd 8458 e5bd
00000150: f960 dd3d 3db3 873c 43d2 ae3d a0ec f2bc
00000160: fbef a9bd b3d1 ee3c 219d a0bc 0cc8 8fbd
00000170: ae0c d9bd aa91 91bd 5a3e d3bd e161 b13d
00000180: 82fd 953d 84c7 bc3d 9208 42bd 1d5b 953d
00000190: d7de d1bd d28c 6abd ee34 5dbb 63e0 fcbb
000001a0: 210e d93c 7806 64bc 203a b33d 5d47 c6bb
000001b0: 724b bfbd 1acb 0fbe 54ca 323d ee32 963d
000001c0: 0fcf b7bd f61c e03c eaf5 f6bc 6f37 02bd
000001d0: bf7b aabd 26e4 643d 7932 94bd 5e1d 293d
000001e0: 68aa 85bd f500 573d 6bc3 08be 4b47 d1bc
000001f0: 0d4e 573d 1660 f5bc 3c2e 3e3d e562 48be
00000200: a7b8 4ebd 9950 dabd 0ca6 c73d 94ba 8fbd
00000210: b88a 403c 3d16 4bbd 75e3 a3bd 2c5f 6bbd
00000220: 90db 0cbe 9aa9 57bd 62d2 06be 9b1b a0bd
00000230: bc2a 1fbd b9e3 223e 075c 3ebe bfeb af3d
00000240: a4f5 a23d 751c e2bd 401e f93d 5a67 5b3d
00000250: effb b6bd aa44 c0bd 4f98 623d d3fa a9bd
00000260: 902d 18bd 9929 aebc bfe5 c73a ad0c 70bd
00000270: 9016 483b 874e 23be 85ba ef3d 2e4d 003e
00000280: 29aa b9bd 80b6 b03d c21f 0abe 1a6b cb3d
00000290: 02c4 1f3e 26b7 00be 9e10 783c dd92 273e
000002a0: 0fa8 5c3d 1837 76bc 7e9e d53d de32 fabd
000002b0: 53cf edbd 93f8 e7bc 57d9 483d 7998 ddbd
000002c0: e906 c33d 3653 81bd 3e0a 32bd d32e ca3c
000002d0: f6a3 843d 6803 893d e97e 5abd 5edd 3e3d
000002e0: 5696 353d a2da bf3c bf0f 3e3d 73f1 17be
000002f0: 7dfe 46bd c50d a73d 9e02 cf3d 8e38 87bc
00000300: c196 9dbc f9b8 c1bd 98f2 e93c a984 3abd
00000310: 6b79 37bd 1bda 0a3d b87e 04bd a56e 91bd
00000320: d163 cfbd 0ba2 863d 80c4 4abc d678 06bc
00000330: ae12 91bd 7495 acbd bd9b 3cbd b921 e43d
00000340: 509d 703d 77bd b33d 2e15 89bd c781 f2bd
00000350: 580b ad3d c0b6 54bd 9004 8abd aa10 a7bd
00000360: 143b ccbc bb69 c53c 886c 53bd 7cf7 9f3c
00000370: 9296 23be fc71 e8bd ec53 d4bb 71cf 073d
00000380: cedb 9f3b bb04 853d 22cb 28bd 1c7e 273c
00000390: 6a0f dc3c e14e 51bd fdec f73c 3a37 62be
000003a0: 6fce a33c bc8a 4d3b b18c a3bd b799 803d
000003b0: dade c3bd 39bb 07bd 3f83 b3bd 39bd ed3d
000003c0: 6a1a 7e3d 63c1 03bd d44c 6a3d f252 8c3d
000003d0: b621 103e 9d51 623d 7378 e6bc 8ea3 fd3d
000003e0: d70d 883d 75ce 6fbd 9534 ddbd b6ed 9dbd
000003f0: f0fa 96bd 309f bebc 6cfc 8ebd 217d d43d
0.18979336 0.04753849 0.10211349 0.013870183 0.022170264 -0.07475554 0.12846914 0.08450224
0.05010155 -0.014321962 0.10095979 0.11041268 0.06623618 0.08976336 0.104951575 0.13091467
0.05637004 -0.08255572 -0.023299333 -0.019173032 0.00078393286 -0.02909093 0.030942144 -0.011890411
0.11844252 -0.03859987 -0.011770357 0.0539848 -0.02615819 0.007773288 0.052657425 0.1018017
-0.051317558 -0.0036950875 0.10174842 0.064780384 -0.10851226 -0.078347094 -0.122662686 0.051452048
-0.039071232 0.06368954 0.0867567 0.08730819 0.01423725 -0.060942337 -0.12687017 -0.08280803
0.14268418 0.14667709 -0.02388103 0.045817107 -0.039435104 -0.090230204 -0.0004562459 0.03726379
-0.013771786 -0.016111435 0.0852366 -0.029821185 -0.015894901 0.049611215 -0.06761879 0.13627699
-0.09538264 0.13634498 0.02499719 -0.0050215865 0.029315537 -0.07218801 -0.09748411 -0.102272645
0.0900377 0.001226573 0.08281309 -0.062278602 -0.105798274 0.024242515 0.015992813 0.080453075
0.031945106 -0.0066918395 -0.064343266 -0.11198524 0.10809512 0.01656496 0.08536198 -0.029653847
-0.08297726 0.029152727 -0.019606175 -0.07020578 -0.105981216 -0.07107861 -0.10314627 0.08661247
0.073237434 0.09217742 -0.047371455 0.07292769 -0.102475815 -0.057263203 -0.0033753472 -0.0077171787
0.026495995 -0.013917558 0.08751321 -0.0060509876 -0.09340562 -0.14042321 0.043649986 0.07333933
-0.0897504 0.02735756 -0.030146558 -0.031791147 -0.08324384 0.05588164 -0.072361894 0.041287772
-0.06526643 0.052491147 -0.13355796 -0.02554669 0.05256467 -0.029953044 0.04643081 -0.19568975
-0.050469067 -0.10659904 0.09748468 -0.07018009 0.011751823 -0.049581755 -0.08002368 -0.05746381
-0.13755631 -0.05265198 -0.13166192 -0.07817765 -0.038859114 0.15907182 -0.18589793 0.08589887
0.079570085 -0.11040584 0.12163973 0.05356536 -0.08934771 -0.09388097 0.055321034 -0.08299794
-0.037152827 -0.02126007 0.0015250965 -0.05860584 0.0030531026 -0.15947925 0.11705498 0.12529442
-0.090656586 0.08628559 -0.13488677 0.099325374 0.15602115 -0.12569866 0.015140681 0.16364618
0.05387121 -0.015027784 0.104306206 -0.122167334 -0.116118096 -0.028316772 0.049035396 -0.108200975
0.095228024 -0.06314699 -0.0434668 0.02468053 0.064765856 0.06690103 -0.053343687 0.04659783
0.044332825 0.023419682 0.046401735 -0.148382 -0.048582543 0.08156923 0.10107921 -0.01650646
-0.019236924 -0.09459109 0.02855806 -0.04553667 -0.044793528 0.033899408 -0.03234741 -0.07101182
-0.1012646 0.06573876 -0.012375951 -0.0082075205 -0.07083641 -0.084269434 -0.04604696 0.111392446
0.058743775 0.08776372 -0.06693493 -0.11841159 0.08449429 -0.051932096 -0.067391515 -0.08157475
-0.024930514 0.024098268 -0.051617175 0.01952719 -0.15975407 -0.11349866 -0.006479731 0.033156816
0.0048784977 0.06495043 -0.041209348 0.010222938 0.026862819 -0.051100615 0.030264372 -0.2209138
0.019995896 0.003136321 -0.07985819 0.06279319 -0.0956399 -0.033137534 -0.087652676 0.11608357
0.06203691 -0.03216685 0.057202175 0.06851758 0.1407536 0.055253614 -0.028133607 0.12384711
0.06643265 -0.058546502 -0.10801045 -0.077113554 -0.07372081 -0.023269266 -0.069817394 0.10375429

lstm.weight_hh_l0 f4 [256, 64]
00000000: e246 68bd 5154 85bc 7aae efbd 0d2a 6abd
00000010: 5753 fcbb 72c8 86bd 1d1b ac3d dbcc f43c
00000020: bc42 12bd 9101 0cbc 81db dc3c 8021 813d
00000030: 83b0 a03d 9934 96bd 847f c23d 5570 bfbd
00000040: fcfd 02be 46c9 5abd 9f3a 6b3d d437 103c
00000050: ba61 b63d ab11 84bd 03d8 c4bd 644d 3b3d
00000060: 6085 55bc 7101 27bd cf0c 47bc f134 b03b
00000070: 2a5f a3bd 436b d5bc b082 bb3d b9cc adbc
00000080: 7115 943b 0197 98bd 7eac 273d a422 b7bd
00000090: 4d8a ccbc 5d13 82bd 37e2 a3bd e925 cebd
000000a0: 9629 7d3d e5de c3bd ff7e ef3d 15f4 babd
000000b0: fed2 853d 24b1 97bc c338 48bd a787 79bd
000000c0: 8f56 273d 63c5 613d 4bfd 94bd 867b 443a
000000d0: bb99 e6bd af55 d5bd 4677 0d3d 16ec 043e
000000e0: bbe9 7e3d d43c 33bd 0320 cdbd a34e 0a3c
000000f0: 5da9 3fbd a147 b03d f9de 1abd 5589 51bd
00000100: 4e39 3abd f060 66bd 48e1 ad3b e8de 0b3d
00000110: 24dc 0cbb cb32 e33c 5384 25bc 5d18 74bc
00000120: ed93 43bd b286 09bd 70d8 d3bd c4d5 973c
00000130: 4824 e3bc 633f 733d c11d 96bd 0667 9abc
00000140: 21c7 a73d bd49 62bc 58f6 863d 55d3 c53c
00000150: 6563 b1bc f301 9fbd 28ae 09bb 4c84 a7bc
00000160: 2df1 953d 8b53 113d 25f4 c5bc 2942 dd3c
00000170: 22b6 1c3d dc70 6a3d e4a6 bd3d f44c f03d
00000180: d33c a63d e061 cfbd 6967 803d e0cf b23c
00000190: effd 9fbc 34e5 6abd e14a 77bd 89f1 74bc
000001a0: 85a4 713d bf16 12bd 6da3 303d dc61 3c3d
000001b0: e3ad 63bd 4201 61bd 0a53 a1bb 7154 993d
000001c0: 146b 503d c3e1 3fbd e837 1e3d b82b f1bc
000001d0: 3a44 393d b8be 353b a6c9 f7bc 4324 fd3c
000001e0: e89b 18bd 0b23 8cbd 11d9 45bd fd2b a63d
000001f0: a646 d73b 49c8 99bd 4f08 45bd 25ca 413d
00000200: 07e0 ad3d 5b48 6bbd afe3 ba3c e8d9 d7bc
00000210: c8ca b83c 93d0 49bd 9ca2 90bd 8ce6 b6bd
00000220: f500 d8bd 94a3 533d 3254 10be 4b5d 543d
00000230: 4a9f 2b3d b67d 31bd d1a2 bebc 802e f53c
00000240: 2c78 6f3d 79c8 1e3d 2920 46bc 19e8 f8bc
00000250: e50b 77bd d659 ccbc c53b 88bc be5b 2bbd
00000260: b086 16bd afd1 643d a3cd 90bd 9c8b 2a3d
00000270: 6671 2a3d 32aa c7bd 649a 143e b027 06be
00000280: d054 ab3d 06a1 7ebd 5454 583d bb3a 2e3c
00000290: 74a7 fabd 84f5 023e 22c3 dfbd a68a bb3d
000002a0: afb0 05bd 1db3 e03d 0827 6e3d 33aa 90bc
000002b0: 2767 babd 1bf0 3cbc 25fe 7a3d d8e7 d9bd
000002c0: 4646 b93d 0005 edbc 6f7f 033e 82f1 00bd
000002d0: f76a 963c a79a a8bd 8407 17bd d659 743d
000002e0: 267c a33c 921a e13c 2854 9d3c 5e0e 8fbd
000002f0: 5681 a4bd 797c a63d 2cda 893d 5dbd c03d
00000300: 3e82 15be 402e e23d 0d42 a8bb a8ea da3d
00000310: 4e7b afbd c472 7d3d 9c5e e93d 1800 3abc
00000320: b444 db3c 4a76 b7bd b16f c1bb 0f35 993c
00000330: 9e49 b0bd 639e 1f3e fa6f a33d b794 b03d
00000340: c1d5 a1ba 7aa7 ecbc 3e05 abbd 665a 403d
00000350: 8e7f 9d3d dc56 f0bc 3b11 8b3d 8a57 8c3d
00000360: 5efe 1abd 56d4 ac3d 4675 8eba 3454 803d
00000370: c199 9abd ec95 d03d ba6e 203d c13a 28bd
00000380: dcc7 c9bd b892 553d 3cac c7bb 5f84 88bd
00000390: 82e2 bdbd f09f 31bd 2e8a ea3d eaab a73d
000003a0: c780 fa3a 2f39 c9bd a973 52bd fc0e 21bb
000003b0: f578 69bd a4cb c8bd a9f5 82bd 0531 9cbd
000003c0: 52c5 003e b855 96bb e5d1 953d e491 ccbc
000003d0: acb0 93bd cca0 a23b 097c d9bd f8e3 7c3d
000003e0: 4e49 0e3d 3e59 ce3b 61ff 66bd 0464 0f3d
000003f0: bcac 41bd 21f0 91bd 5c38 ec3d 7bca 88bd
-0.056708224 -0.016275557 -0.11703201 -0.05716901 -0.0077003646 -0.06581201 0.08403609 0.029882839
-0.035708174 -0.008545295 0.026960136 0.06305218 0.07846167 -0.07334251 0.09496978 -0.093475975
-0.127922 -0.053414606 0.057428952 0.008802373 0.089053586 -0.064486824 -0.096115135 0.045728102
-0.013032287 -0.04077286 -0.01214905 0.005377405 -0.079771355 -0.026052123 0.09155786 -0.021215783
0.0045191576 -0.07450677 0.040935986 -0.08942154 -0.02496829 -0.063513495 -0.080021314 -0.100658245
0.061807238 -0.09563998 0.116941445 -0.09128586 0.06534384 -0.018517084 -0.048882257 -0.060920384
0.040854033 0.055119883 -0.07274874 0.0007495213 -0.112597905 -0.104167335 0.034537576 0.12980685
0.06223462 -0.043759182 -0.100158714 0.0084416 -0.046792377 0.08607412 -0.0378103 -0.05115636
-0.045464806 -0.05624479 0.0053063966 0.034148127 -0.0021493519 0.02773418 -0.010102349 -0.014898387
-0.047748495 -0.03357572 -0.103440166 0.018534549 -0.027727261 0.059386622 -0.07329894 -0.018847954
0.08192278 -0.013811526 0.06589955 0.024148623 -0.02165384 -0.07764044 -0.0021008346 -0.020448826
0.07321391 0.035480063 -0.024164269 0.027009087 0.038259633 0.057236537 0.092603475 0.11733428
0.0811707 -0.1012609 0.06269724 0.021827638 -0.019530265 -0.05734749 -0.060374144 -0.014950165
0.05899479 -0.035666224 0.043124605 0.045991763 -0.055585753 -0.05493284 -0.004923229 0.07486809
0.050883368 -0.046846163 0.038627535 -0.029439792 0.04523108 0.0027732085 -0.03024752 0.03090108
-0.03725806 -0.068426214 -0.048302714 0.08113859 0.0065697012 -0.075089045 -0.048103627 0.04731192
0.084899954 -0.05744205 0.022813646 -0.026349023 0.022557631 -0.049271178 -0.07062265 -0.08930692
-0.105470575 0.051669672 -0.14094618 0.051846784 0.041899957 -0.043332778 -0.023270996 0.0299294
0.058464214 0.038765404 -0.0120926285 -0.03038411 -0.060314078 -0.02494518 -0.016630063 -0.04183554
-0.03674954 0.055864032 -0.07070472 0.041637048 0.04161205 -0.09749259 0.1451202 -0.13101077
0.08365786 -0.062165283 0.052814797 0.01063412 -0.122389704 0.1278897 -0.109258905 0.091573045
-0.0326392 0.10971663 0.05814269 -0.017659282 -0.09101706 -0.011531855 0.061277527 -0.10639924
0.09046607 -0.028933048 0.12841581 -0.03148032 0.018361552 -0.082326226 -0.0368724 0.059655987
0.01995666 0.02747849 0.019205168 -0.06985162 -0.08032481 0.0812921 0.06731066 0.09411118
-0.14600465 0.11043978 -0.005134827 0.106892884 -0.085684404 0.061877027 0.113949984 -0.011352561
0.026766159 -0.08958109 -0.005903207 0.018702058 -0.08607791 0.15587763 0.07980342 0.08622115
-0.0012347029 -0.028888453 -0.08350609 0.04696121 0.07690345 -0.029338293 0.06790396 0.06852634
-0.03784024 0.08438937 -0.001086869 0.062660605 -0.075488575 0.10184845 0.039168097 -0.041071657
-0.09852573 0.052141875 -0.00609353 -0.06665873 -0.092717186 -0.04336542 0.11452137 0.08187087
0.0019111865 -0.0982536 -0.051379833 -0.0024575582 -0.05700012 -0.09804466 -0.06394512 -0.07626537
0.12575272 -0.004587855 0.07315425 -0.02497191 -0.07211432 0.004963016 -0.10619361 0.061740845
0.034737878 0.0062972596 -0.056395892 0.03500749 -0.047283873 -0.07125879 0.11534187 -0.06679245

lstm.bias_ih_l0 f4 [256]
00000000: c792 8cbc 9f1f a33d b84a ef3d 01ba 3d3d
00000010: ef37 36bd 64c1 07bd 2064 c7bd 81be 3c3d
00000020: cb0e 153e 4f29 c63c 54c0 b63d 4cfc c53d
00000030: d805 fbbc 094f 9dbc d66c bdbd 4002 fcbd
00000040: 9c63 ab3d b533 ed3c 2e32 bb3d 00bd 433d
00000050: eac9 e7bc 6499 a53c 53fc 913d 9c17 bd3d
00000060: 413c e9bd 0332 c63d fb74 363d 4fd5 bf3d
00000070: 4643 39bc 7e04 8abd 424e 573c e35f 553d
00000080: 7de8 043e acfe d33c 55b0 cfbd 976a c2bd
00000090: 7854 fc3d 1a24 df3d 55dc 633d 556e 93bd
000000a0: 4129 cb3d a81d ddbb 87ed ac3d 00f1 093d
000000b0: 7730 83bd 1772 af3c bcd3 503d 8d2c 25bd
000000c0: 2f2f 51bd dd0a 2bbd 5dc3 d4bc ea15 9e3c
000000d0: d850 b33d 9d63 223d 5490 a3bd 5ab5 1dbc
000000e0: da0c 273d 40a3 9e3d 9895 993d 1bc7 a73c
000000f0: dacf c7bd 512b d3bd 5370 353d 31ba b53d
00000100: f019 903d 6af1 c3bd 8501 c5bd 0582 8cbc
00000110: 9084 13bd d05b 75bd 5277 a4bd 6de1 1fbd
00000120: 6833 e0ba c6fd debd 34e5 063e 6003 c03d
00000130: bf0a b7bd e1ef 1b3d 1884 913b 5576 fc3d
00000140: a0e5 733d 6f0c 4cbc 3d53 073e 5c22 563d
00000150: ee5c c3bd 6b09 84bd 03bd 993d 528f be3d
00000160: 6a71 983d 8275 2cbd 7372 703d 50be 203e
00000170: f8fb f23d 03c2 3bbd 1611 c1bd 5424 a9bd
00000180: 38b5 00be 7f5d 13bd fee7 adbd af9e 9d3d
00000190: bc2a d93d 1789 8b3d 6acc 95bd 5ab6 82bd
000001a0: a846 82bd 6eaf 963a da60 473c 774e 9b3d
000001b0: 8cdf ccbd c305 393d 94b3 4c3d d8b4 5bbd
000001c0: a92f cabc 01fa 4dbc ec60 eebc 9ce9 8a3d
000001d0: c86e 18bd 7256 a2bd f79e 7bbc 6b6a 87bd
000001e0: 4f6d da3c da1f 9dbd f458 b5bd a33d 36bd
000001f0: abb4 4f3d 610f adbd ae1b c5bd e397 6c3d
00000200: 5bfd 51bc a0fc f73d 8800 b83a 293e a23d
00000210: 031f b1bd 5f50 a9bd c3c3 60bd fe9a 8c3d
00000220: 319e afbc 0ccf acbd 9cb8 3d3d b7f8 b83d
00000230: 8ed0 d43d 825f 8ebd 8223 3abc fa24 e2bd
00000240: c242 a63d 0bac c03c 2534 a2bd c00d b03d
00000250: 7619 813d 1bd0 b8bd fe75 cd3d 4e5d 16bd
00000260: c202 94bd 28db 203b 3857 b53d 2f7a 003e
00000270: 31e4 a5bd 26bd d53d 107e 023e 1453 a6bd
00000280: 9fee 753c dfe9 82bd 8021 41bd 8c24 66bd
00000290: 2704 d2bc 3d13 a83d 30fa 95bc 1c72 0d3c
000002a0: e555 273c df71 c63d 6af9 f5bd 5036 24bd
000002b0: a802 c83d 0149 b7bd 11f3 6bbb c1e9 e23c
000002c0: 7d4f 90bd 4eff 48bd b737 c5bd c65d 8a3d
000002d0: d4f8 1a3d aebe 02be f2f1 e0bd 6138 05bd
000002e0: d760 8bbd 5473 8cbd dfd2 d6bc 00aa 2a3c
000002f0: f748 87bc fdde dd3d f600 0dbb cc28 fb3d
00000300: 420a 6eba c8ac 4a3c 1353 b43d d253 503d
00000310: 3ecb 003e 7f3c 01bd 1035 823c 6996 0a3d
00000320: f98e 80bd a9d4 d13d fbb7 34bd 8862 b73d
00000330: 3744 813d 8d0c 8f3d 2219 603c ccf9 ef3d
00000340: a1f1 e13c c7e7 a5bd 76af c83b a29d e1bd
00000350: 580b 1bbd 6fcf 8f3d f1b7 373c a96d bc3d
00000360: 31a2 b13c fcd9 90bc 77bc 5cbd a477 2e3d
00000370: ea95 7b3c 3fe0 bb3a 87db 913d a635 b63d
00000380: 1335 953c 70e7 dbbc dc9d a23d bc4b babc
00000390: 5da4 ba3c 0636 d5bd 0574 873b 9459 dcbd
000003a0: 9153 ef3c 6255 d63d d3b5 343d 28a0 b7bd
000003b0: ad02 ebbc e90a 84bd 9b5a 23bd 8086 b33d
000003c0: 36ac 8abb f6ef 0c3d 4c83 c8bd d2f6 9b3d
000003d0: ed87 61bd ab70 d13b ca06 823a d854 063e
000003e0: 3b77 45bd 8268 983c b03d a03d d800 fd3c
000003f0: f414 ae3d 0b12 9e3d dad1 c6bd 7c02 44bc
-0.017159833 0.079650156 0.11684173 0.046319965 -0.044486936 -0.033143416 -0.09735894 0.046080116
0.14556424 0.02418962 0.089234024 0.096672624 -0.030642435 -0.019202726 -0.092492744 -0.12305117
0.08368608 0.02895532 0.091404304 0.047787666 -0.028294522 0.020214744 0.07128205 0.09233019
-0.11388446 0.09677508 0.044545155 0.09366857 -0.011307543 -0.06739138 0.013141217 0.052093398
0.12979312 0.025878273 -0.101410545 -0.09492987 0.12320799 0.10895558 0.055630047 -0.071987785
0.09919978 -0.00674792 0.08443742 0.0336771 -0.06405728 0.021416707 0.050983176 -0.04032569
-0.05107039 -0.041758407 -0.025972063 0.019297559 0.08755654 0.03964578 -0.07986513 -0.009625757
0.04078374 0.07745981 0.07499236 0.020480683 -0.097564414 -0.10310996 0.044296574 0.08873404
0.07036197 -0.095675305 -0.096194305 -0.017151842 -0.036015093 -0.059902012 -0.08030571 -0.039033342
-0.0017105164 -0.10888247 0.13173372 0.09375644 -0.089375965 0.038070563 0.0044407956 0.123272575
0.05954516 -0.012454136 0.13215347 0.05227886 -0.09539209 -0.06447109 0.07506754 0.0930468
0.07443507 -0.04210425 0.058702897 0.15697598 0.118644655 -0.04583932 -0.09427087 -0.08258882
-0.1256913 -0.035977837 -0.084915146 0.07696282 0.10603854 0.06813257 -0.073143795 -0.06382437
-0.06361133 0.0011496374 0.012169087 0.07583325 -0.10003576 0.04517151 0.049975947 -0.053639263
-0.02468093 -0.012571813 -0.02909895 0.06782839 -0.037215024 -0.079266444 -0.015357724 -0.066120945
0.02666345 -0.07672091 -0.08854857 -0.044492375 0.050709408 -0.08450199 -0.0962442 0.057762038
-0.012816752 0.12108731 0.0014038244 0.07922012 -0.08648493 -0.08267283 -0.054874193 0.068655
-0.021437736 -0.084379286 0.046318635 0.090318136 0.10391341 -0.069518104 -0.011361005 -0.11042209
0.08118202 0.023519536 -0.07920102 0.085963726 0.063036844 -0.09024068 0.10032271 -0.036710076
-0.072270885 0.002454469 0.08854526 0.1254661 -0.08100165 0.10436468 0.12743402 -0.08121315
0.015010505 -0.063922636 -0.04715109 -0.056187198 -0.025636746 0.082067944 -0.018307775 0.008633163
0.01021335 0.09689688 -0.120104626 -0.04009086 0.09766132 -0.08949471 -0.0036003033 0.027699353
-0.07046411 -0.049071603 -0.096297674 0.06756167 0.037834957 -0.12768051 -0.109836474 -0.03252447
-0.0680558 -0.068579346 -0.026223598 0.010416508 -0.016514285 0.10833547 -0.0021515465 0.12263641
-0.0009080508 0.012370296 0.08804908 0.050861187 0.1257753 -0.031551834 0.015894443 0.03383485
-0.0627727 0.1024564 -0.04412077 0.0895434 0.06311839 0.06984816 0.013677867 0.11717567
0.027581038 -0.08100849 0.006124432 -0.11016394 -0.037852615 0.07021987 0.011213289 0.092006035
0.021683784 -0.017682068 -0.05389067 0.042594567 0.0153555665 0.0014333798 0.0712195 0.088969514
0.018213784 -0.026843756 0.079402655 -0.022741191 0.022783453 -0.10410695 0.0041337037 -0.10759273
0.029214652 0.10465504 0.044118714 -0.08966094 -0.0286878 -0.064473934 -0.03988133 0.08765888
-0.004231955 0.034408532 -0.09790668 0.076154366 -0.05506127 0.006391605 0.0009920236 0.13118303
-0.04820941 0.01860452 0.07824266 0.030884191 0.0850009 0.07718285 -0.09707995 -0.011963483

lstm.bias_hh_l0 f4 [256]
00000000: 9de4 323d 1a61 ff3d aef6 403c 3653 bf3d
00000010: 61fa a03d 70c3 33bd 4ee7 de3d e688 463c
00000020: 7a61 933d a812 b2bd 10a2 9ebd c637 163d
00000030: 0239 9f3d 2fc6 05bc ed23 f93d 8275 1b3d
00000040: 7b72 85bb 5d7f e2bd 276b 403d 7074 2e3d
00000050: e3c3 96bd 19f9 2e3d ecfa 343d e05f 1ebd
00000060: cdb8 e13d d08b 85bd 76df 2139 0f49 c83d
00000070: 40ec edbd 055c 013e 987a d6bd 8908 faba
00000080: 0afa 223d edca 363d a110 793c 6ffb c83d
00000090: 124b 2ebd 0fcc c33d 162a 94bd 5be2 493d
000000a0: b2f7 6fbd 5787 b23d a491 513d c47f aebd
000000b0: 5d08 1abd 2041 5bbd 9555 bfbd 1b1c 05bc
000000c0: bae6 aa3d ebb1 b2bd b08e e8bc 3240 e43c
000000d0: 23d6 813d f46b 98bc f825 56bd 453b afbc
000000e0: ed44 973b e563 4d3d 445b 4cbc 2bca 92bc
000000f0: 941a e7bd 9dba 543d 19c3 273d 0c86 bfbd
00000100: 91b5 36bd d8be 8c3d 625f c4bd e1d7 043e
00000110: 38b2 af3d 2751 003d cee5 5a3d 1121 a33d
00000120: 2ac6 8fbc 420c b0bd 22f9 a43d 2fab 49bd
00000130: cdb2 7c3d 1cad bd3d 8e9f 87bd a8b4 99bd
00000140: 8be8 2c3d db72 89bc 9efc 54bd 1776 bc3c
00000150: 439f 01bd 5876 a03d ed98 95bd 7376 73bd
00000160: 0dd7 723d 036e cdbd 4722 a23d 81fe cd3d
00000170: 148e 6c3b 4cef c13c ab36 cabd a276 0d3d
00000180: 85ce b33d fe27 c03d 5167 d8bd b517 103d
00000190: 27e5 fb3d e0d9 d93d b386 b6bc f082 49bd
000001a0: 5bdf 79bd d396 babd 38a1 92bd 9c50 243d
000001b0: 7c2b fc3c 8c7d d4bd 2bd1 3c3d 9821 303d
000001c0: 1799 893c 061a 8b3d 15f8 953d fb10 ae3d
000001d0: 32e8 cebd 45d8 0f3d df84 afbd e35d 463d
000001e0: 5a2c 573d 070d dd3d 2a8f 4f3d 9d6d a7bd
000001f0: 14be 88bd 481f 7f3a 4a01 b9bb 323d a2bd
00000200: 28e6 4a3d a264 483d 04e5 383d 2a33 96bd
00000210: 8a5a 16bc 0c81 743d 6d0d 8bbd 95b5 cf3c
00000220: 4f30 a1bd c031 2cba 300d 523d 0e42 cc3d
00000230: 894b 83bd 70a8 8fbd cbb5 c63d 7083 6b3b
00000240: fef3 3f3d 2a70 f1bd 2171 ad3d 8409 57bd
00000250: 1f24 b0bc 4675 723d e435 003e d826 a5bd
00000260: a9ba 803d f3e5 3a3d 9e1b 37bd 2d31 343c
00000270: 348e 7ebd 39b2 a0bd 6ba3 d03c adc6 ec3c
00000280: db44 d63d bdcf eabc a439 d93c 23df 51bd
00000290: e6dd e83d 4698 953c 4f1e 423c a295 813c
000002a0: f911 ec3d fcc9 033d aa4b c63d b602 95bd
000002b0: 32d5 26ba b611 e2bd 4e17 953d d003 553d
000002c0: a9b2 383d fb99 adbb 55ac 733d b1f6 3fbd
000002d0: 3742 313d 6bc8 103c 9e79 afbd 33b7 95bc
000002e0: 3bc6 a0bd 709a 4dbc 740c a0bd cbf2 74bd
000002f0: ce04 d8bd 98ef 893d df56 acbc 5959 d8bd
00000300: edff 1abd f3b1 c9bd 6a96 b23b a30a ec3d
00000310: e95a 483d 58a1 97bc 064b e93d d0cd 933d
00000320: 30cc 87bd 5cd7 963d afc2 7a3d 11ac dc3d
00000330: 7209 2f3d 8a0b 073d 5fec 7b3b 3591 ed3c
00000340: 2d41 91bd 543e 903d accf f43d 5a9a 743c
00000350: 8b15 a03c a670 6fbd fb1d b2bd 9af3 13bd
00000360: 2971 b6bd 2cb2 15bb 33a4 a23b 99a8 3bbc
00000370: d75f 243c 21c6 f2bc 28c7 583d 63ef af3d
00000380: 644e a43d 69f5 d8bb 5b72 bdbd 7f34 5dbc
00000390: 848e 103d 0476 72bd 4641 093c 697e e43d
000003a0: 96ce c23c c1c6 203d 6bbb ea3d c345 283d
000003b0: 1706 9e3d 7ac2 dc3c 1f46 df3b 9f62 ca3d
000003c0: 36f4 16bc 024d 1bbc 6ce3 a1bd da77 be3d
000003d0: b1ae f4bc a547 a93c 4a6d a9bd 07d9 d9bb
000003e0: 9a42 7f3c d3cf 95bd bdbc 84bd b57f fa3d
000003f0: 5093 ec3d cb60 91bd 21db 21bd b8dd 623d
0.043675054 0.124696925 0.011777563 0.09342043 0.07860256 -0.043887556 0.108839616 0.0121176
0.071963266 -0.08694965 -0.07745755 0.036674283 0.07774545 -0.008164926 0.121650554 0.03795386
-0.004072485 -0.11059449 0.04697719 0.042591512 -0.07361581 0.042718027 0.04418461 -0.038665652
0.11021576 -0.06520808 0.00015437402 0.0977956 -0.11617327 0.12632759 -0.10472602 -0.001907603
0.039789237 0.04462712 0.015201719 0.09813582 -0.04255206 0.095604055 -0.0723459 0.049288135
-0.05858583 0.0871722 0.051164284 -0.08520463 -0.037605632 -0.053528905 -0.09342495 -0.008124377
0.08344789 -0.087253414 -0.028388351 0.027862642 0.063396715 -0.018606164 -0.052282304 -0.021390567
0.004616371 0.050144095 -0.012472931 -0.017918667 -0.11284366 0.05193578 0.040957544 -0.09351739
-0.04460675 0.06872338 -0.09588505 0.12972976 0.085789144 0.031327393 0.053441815 0.07965291
-0.017550547 -0.08596088 0.08055331 -0.04923552 0.061693955 0.092615336 -0.066222295 -0.075051606
0.042213958 -0.0167784 -0.051998727 0.023005528 -0.031646024 0.07835072 -0.07304559 -0.059439134
0.05928712 -0.10030749 0.07916694 0.100583084 0.0036095427 0.023673676 -0.09873708 0.034536965
0.08779625 0.09382628 -0.10566581 0.03517886 0.12299567 0.106372595 -0.022281026 -0.049197137
-0.061004024 -0.09110799 -0.07159656 0.040115938 0.030782454 -0.10375509 0.046097916 0.043000787
0.016796632 0.06792073 0.073227085 0.084993325 -0.101028815 0.03511836 -0.08570265 0.04842938
0.05253253 0.107935004 0.05067364 -0.08175204 -0.066768795 0.00097321393 -0.0056459056 -0.07921828
0.0495359 0.048924096 0.04514028 -0.073339775 -0.00917686 0.05969338 -0.0678967 0.02535514
-0.07870542 -0.00065686926 0.051282108 0.099735364 -0.064108916 -0.07014549 0.09702643 0.0035936497
0.04686355 -0.11788972 0.08468843 -0.05249931 -0.021501599 0.059193872 0.12520558 -0.080640495
0.062856026 0.045629453 -0.044704072 0.010998053 -0.062147334 -0.07846493 0.025468549 0.02890333
0.10462352 -0.02866351 0.026516743 -0.05123819 0.11370449 0.018261086 0.011848046 0.01581842
0.115268655 0.03217505 0.096824005 -0.07275908 -0.0006364166 -0.11038534 0.07279836 0.05200559
0.04509226 -0.005297897 0.05949052 -0.046866123 0.043276038 0.008836846 -0.085681185 -0.018275833
-0.078503095 -0.012549028 -0.07814875 -0.059801858 -0.105477914 0.06735152 -0.021037517 -0.10563917
-0.037841726 -0.09848394 0.0054500597 0.11525466 0.048914824 -0.018509552 0.11391263 0.0721699
-0.066307425 0.07365295 0.06122082 0.107750066 0.042733617 0.03296999 0.0038440449 0.028999904
-0.070925094 0.07043138 0.11953673 0.014929378 0.019541522 -0.05845704 -0.086971246 -0.03612099
-0.08908302 -0.0022841794 0.0049634217 -0.011453771 0.010032616 -0.02963549 0.052924305 0.08590581
0.08022764 -0.006621052 -0.09250327 -0.013501286 0.035292163 -0.05919458 0.008377379 0.11156923
0.023780148 0.039252046 0.114615284 0.041082155 0.07716005 0.026948202 0.006813779 0.09882092
-0.009213498 -0.009478809 -0.079047054 0.093002036 -0.029868456 0.020664046 -0.08272798 -0.006648186
0.015579844 -0.0731503 -0.064813115 0.122313894 0.11551535 -0.0709854 -0.03951562 0.05538723

lstm.weight_ih_l1 f4 [256, 64]
00000000: 6d30 7f3d 68f1 953c 4001 633c 6ddc efbd
00000010: 6662 923d d621 083d f4ce 32bc fd96 2ebd
00000020: 570b ecbd 89de c0bd e951 f93c f0be dc3d
00000030: b72b 8bbc b677 4bbd a295 91bc 1592 1e3d
00000040: 6d89 3cbd 4ed0 2bbd 2751 6f3c d9a4 60bd
00000050: 8495 ba3d dbb2 823d 4cb8 5b3d 36c2 9a3c
00000060: 9d56 ca3c 863e 6bbb ded7 5c3c beac 8cbd
00000070: 6fdd b63d 2969 b53c 0f46 a7bd 8772 2cbd
00000080: f5fb debc 2ff2 e1bc 4215 d7bc 02da f8bb
00000090: a423 7f3d 229d 9ebd c7f8 2abd a287 e4bd
000000a0: ec47 eb3b 9f1a 3c3c 1b28 bcbc f3ba cfbd
000000b0: 2d5b f83d f055 a5bd d44d f73b 3069 edbd
000000c0: f7b5 90bd 7014 a0bd 7b80 08bd cf27 d6bd
000000d0: f984 72bd 9de3 783d 6900 08bd 594d d1bd
000000e0: fcaf 66bd 58e9 a23d e642 1c3d a6de ab3c
000000f0: bdaf 95bd 9390 c63c fd6e 88bc 8e6a 8fbd
00000100: 6572 623d 901b 643d 8b03 a6bb 2fcb 23bd
00000110: a6bf 5fbd b5f9 443c e3a6 e13c b945 9ebc
00000120: 263e 01be 26ba d43d 6278 08bd 4bd1 5c3d
00000130: d383 9ebc 46f0 443a 50d4 4bbd 0ba5 403d
00000140: 6bb8 80bc 6c70 f03d bec4 29bc 1809 ddbd
00000150: 13f4 e63d 57ae 3fbd dc26 7c3b e66b 9f3c
00000160: 50fb 04bd 59aa 663d 78da 893d b488 5d3d
00000170: 18a0 663c d7e8 81bd 4f13 c4bd a2a8 403d
00000180: 5ffa f33c 0bb2 823d 5068 09be ddfb 1b3d
00000190: 0a2c d6bc 8701 56bc 484a a43d 1742 8f3c
000001a0: a66c 14bd ccf2 3dbd 8d18 513c 4526 dd3b
000001b0: 3cde 303d ebe4 50bd 98f7 a03d 77e1 733b
000001c0: 4520 b03c d1d4 9cbc 1201 863d 71c5 05bc
000001d0: 8545 88bd 2ea7 e23d 300d 93bd 001f 803d
000001e0: 50f6 2bbd d00f d73d 5367 82bc 6e05 8d3d
000001f0: eb72 203d c913 383d 2fd1 05bd 7930 d3bd
00000200: 0005 85bd 5854 c43d e4ef 0ebd 9688 97bd
00000210: af3b e9bc f260 ba3d a696 60bd 50a6 55bd
00000220: 7a8a bcbd 131e 5dbb 1325 b1bd c65f d83a
00000230: 9999 09bd 0a7e e5bd f63a 5c3d f617 6e3c
00000240: d6a4 793d f83a 3b3d 7616 3fbb 8d3c 63bc
00000250: 96a3 52bd c293 683c 33b9 fe3d d57c 4dbc
00000260: 9ba8 b7bc ee91 68bd 7e07 67bc bf4f 833d
00000270: aca5 abbd 8e4c 9bbd ae16 58bd a326 8bbc
00000280: 5a6a ad3d 0e5a 81bc 5ba2 bcbc d73e 9dbb
00000290: fea4 093b 8cf7 503b 6d3a 5bbc 3db1 1dbd
000002a0: 021c 893b 13b6 033d b15d c53d d086 dcbd
000002b0: f172 1e3d 84bc e13b 5398 a03c 310e 803c
000002c0: d2e7 fbbc 0f40 8abd ccea a53d cd95 b8bd
000002d0: 9a7d e33c 227c feb9 a2d2 f0bd fa2f 5c3d
000002e0: 3227 03bc 62be 3b3d ef86 ff3d 0369 b13d
000002f0: 4996 aabd 8efc 913c 3a7a c9bc 8523 563c
00000300: e135 9abc ed03 51bd b2b6 5b3d f191 aebc
00000310: 0c3e ce3c d7bd 87ba 301c a5bb 69aa 1f3d
00000320: 95f2 92bb 5a8b 173d 33b6 3b3c 36a1 ac3d
00000330: 1419 d03c 3efe ee3c 9046 2b3d e0b2 bbba
00000340: 625a 01bc 6212 2c3d af17 8039 9619 253d
00000350: 7957 c2bc f579 76bd 3c79 b13c 4c00 973c
00000360: bdc9 32bd b412 1f3d 3691 89bb 1e21 fc3b
00000370: 7ecf 733d ad5f 91bd 1b9f 763d ae94 cfbb
00000380: 16be 493d d58a 2bbd 4b72 3f3b 4c38 dbbc
00000390: 007d 7ebb 572e 573b 9132 0b3d 2ac6 8dbc
000003a0: da48 cdbc e140 27bd 4809 2fbb 42ee 0bbc
000003b0: c49c 413d 521b ecbc cce2 f73c 0542 b0bd
000003c0: c113 1d3d 0d1c 34bc 7667 95ba b345 a33c
000003d0: ea71 85bd f038 14ba 213d d13c c957 bbbc
000003e0: e3ef 06bc 0f97 0f3b c37c cabc b0e2 9dbc
000003f0: 923e 463d a5d6 3fbc 7177 303d 6525 54bb
0.06230204 0.018303588 0.0138552785 -0.11711965 0.07147674 0.033235393 -0.010913599 -0.042624462
-0.115256004 -0.09417445 0.030434566 0.10778606 -0.016988618 -0.049674712 -0.017771546 0.038713533
-0.046029497 -0.0419467 0.014606751 -0.05484471 0.09110549 0.0638177 0.053642556 0.018891435
0.024699504 -0.0035895421 0.013479201 -0.068688855 0.08928954 0.02214487 -0.081676595 -0.04210141
-0.027219752 -0.027581302 -0.026255254 -0.007594348 0.06228985 -0.077448145 -0.04174116 -0.111586824
0.0071802046 0.011480956 -0.022968343 -0.101430796 0.121267654 -0.08073032 0.0075471196 -0.115923285
-0.07065957 -0.07816398 -0.033325654 -0.10456812 -0.059208844 0.060763944 -0.033203516 -0.10219831
-0.056320176 0.07954663 0.038149737 0.02098019 -0.0730891 0.02423886 -0.016654486 -0.070027456
0.055284876 0.05569035 -0.0050663403 -0.039988693 -0.05462613 0.012022425 0.027545398 -0.019320356
-0.12621364 0.103870675 -0.03331793 0.053910535 -0.019349968 0.000751261 -0.049763024 0.047032397
-0.015712937 0.11740193 -0.010361848 -0.1079275 0.11277022 -0.046797123 0.003847531 0.01946063
-0.032466233 0.0563148 0.06731123 0.05408545 0.014076255 -0.06343239 -0.09573995 0.04703582
0.029782472 0.06381615 -0.13418698 0.038081992 -0.026144046 -0.013061888 0.080219805 0.017487569
-0.036236428 -0.046374127 0.012762201 0.006748947 0.04318069 -0.050999563 0.07859725 0.0037213245
0.021499762 -0.019144448 0.06543173 -0.0081647495 -0.06653885 0.11067043 -0.0718025 0.06255913
-0.04198295 0.10501063 -0.01591841 0.06885801 0.039172094 0.044940744 -0.032670196 -0.1031198
-0.06495094 0.095864 -0.034896746 -0.073990986 -0.028470842 0.09100522 -0.05483117 -0.05216056
-0.092061 -0.003373985 -0.086496495 0.0016508035 -0.033593748 -0.11205681 0.053767167 0.01453208
0.060948215 0.045710534 -0.0029157675 -0.013869417 -0.05142554 0.014195384 0.12437668 -0.012541969
-0.022419265 -0.056779794 -0.014100907 0.06411695 -0.08381209 -0.07582961 -0.052756004 -0.016986197
0.084675506 -0.015790012 -0.023026636 -0.004798751 0.0021002884 0.003188583 -0.013380629 -0.038499106
0.004184247 0.03215606 0.09637011 -0.10767901 0.038683835 0.006888928 0.019603884 0.015631767
-0.030750189 -0.067504995 0.081014246 -0.09012947 0.027769852 -0.0004853914 -0.11758925 0.05375669
-0.00800495 0.04583586 0.124769084 0.086626075 -0.08329446 0.017820623 -0.024594415 0.013069992
-0.01882452 -0.051029135 0.05364103 -0.021309825 0.02517607 -0.0010356259 -0.0050387606 0.038980875
-0.0044844844 0.03699813 0.011457014 0.08429186 0.025402583 0.029173966 0.04181534 -0.0014320277
-0.007895084 0.04200972 0.00024431708 0.040307604 -0.02372335 -0.0601749 0.021664254 0.018432759
-0.043649424 0.038836196 -0.0041982187 0.0076943776 0.05952405 -0.07098327 0.06021033 -0.0063348627
0.049253546 -0.041880447 0.002921241 -0.026760243 -0.003883183 0.0032834017 0.03398377 -0.017306406
-0.025059152 -0.040833358 -0.0026708413 -0.008540692 0.047268644 -0.028821621 0.030259512 -0.08606342
0.038348917 -0.010993016 -0.0011398632 0.019930696 -0.06515868 -0.00056542363 0.025541844 -0.022869008
-0.008235904 0.0021910106 -0.024717694 -0.019273132 0.048399515 -0.01170889 0.04308266 -0.0032370922

lstm.weight_hh_l1 f4 [256, 64]
00000000: a490 c73b dabe b13c b50f 83bd cd9b cfbc
00000010: 370c 5d3d 34c4 7f3d f409 943c 0799 15bc
00000020: 99a2 c33d d617 853c 64a6 20bd b2ef 50bd
00000030: fb32 5c3c 8113 96bd 8460 573c 340f b53d
00000040: 82af 8f3d faa8 243d fbe3 2bbc a39d 56ba
00000050: 9010 03be 3c82 023c b013 1d3d 050f 99bd
00000060: b6d1 25bd 6e33 53bb 370d ea3d 4ecc a83c
00000070: 593e ad3d c307 a1bd 3035 953d c7f8 5e3d
00000080: 47de d73c af42 663d d95c 243d b83f 193d
00000090: 3a9e 583b 506f d7bd 70b8 dcbc 5166 a33c
000000a0: 9079 51bd 0dc9 79bc 51a7 293d b2bf 3f3d
000000b0: e797 a2bd 313c 94bd 4af7 7dbd 229f 2abd
000000c0: f182 303d 4ef7 9e3d ae8b 7fbd e75e a3bc
000000d0: 2d4d 4b3c 054c 533d 4655 1b3c 03e4 33bd
000000e0: eaf2 b53d 8aef b83d f97e 21bc 8aa8 7ebd
000000f0: fcd1 313c d974 8fbc 622f 03bd eeaa a5ba
00000100: f46b d2bd fdd1 aabc 21d0 1c3c 7390 04bd
00000110: 4af7 02bd c429 923d 8dc6 d8bd 93d2 ccbc
00000120: cc6d 813d 9775 ae3c 6125 863d 337f 7f3d
00000130: f767 ad3b 34e6 80bd 47f5 a0bd c8b4 d13d
00000140: 4b40 023c cc94 f83c e773 ce3d ed74 87bd
00000150: 5c1a 5bbc 1bbb 143e a8ce de3d 4001 70bd
00000160: b076 c6bd c903 c23c 8d06 b43d d8bc a2bd
00000170: 5b8e 133e ebcb a8bd 24b6 573d 3762 35bd
00000180: acb6 0bbc b0b0 123d 4be1 ee3d 265d c33d
00000190: 49bc 833d 9697 823d c46e 893c f5ce bcbc
000001a0: b6ca 09be 2c6b 76bd 9aca 193d ac6f 95bd
000001b0: 1b71 e33c 33a9 7c3d 1cbb acbd a069 36bd
000001c0: 520d a0bd 96eb dcbc f0c0 683c 9b08 14be
000001d0: a61a 84bb 575c 99bd a40c 25bc 2279 06bd
000001e0: e550 c23c da7c 80bd af88 a13d d678 813d
000001f0: 980a 193d 6d25 3dbc ac69 09be 9c66 46bd
00000200: 07b4 eebd b5dc 86bd cd32 bfbd 974a 8c3d
00000210: 8702 c3bc 7a54 2fbd 184a 113d dfae 87bd
00000220: 6329 ad3d a11e 743d 13ac dfbc 0a5d 10bd
00000230: 515d a63d b49b 123d d30d be3d 75d1 c73c
00000240: 8c33 65bd d570 7abc bfa8 96bd 8f8d 48bb
00000250: b065 8bbd 2279 45bc 399d bc3d d0e9 3ebd
00000260: 4a66 27be 6306 37bd 2c5b a0bc cf31 1c3c
00000270: fbaf 8e3d faf0 ed3d 8b59 843c dc31 e13c
00000280: 8c45 973d 5266 9e3d 87a8 1bbd 6f86 043e
00000290: 9263 253d 0192 8a3d f108 aa3d 8fb9 f7bd
000002a0: 265c 093d 86a8 10bd e9f6 c63c 08c9 cc3d
000002b0: 9c4b 553d b08a d7bd fd5a cfbd e783 df3c
000002c0: 4789 4c3d 8137 05be 1f85 93bd 6d07 00be
000002d0: 7b13 01bd 8979 68bd f4b3 e73d 7186 8f3c
000002e0: fd73 9c3c 9384 c43d a33c 073d cb34 de3c
000002f0: a0da 383d fa9e ea3c ab5f 00be 4926 a43c
00000300: bfef 263b 855a 86bc c422 483d bf79 72ba
00000310: 6e90 7a3a 7590 e4bc 0c67 78bd a254 d83c
00000320: f071 353d 022e 8a3c 5d86 febc 47b0 153d
00000330: 1d7b bf3c 1899 9fbc 8f4d 81bb 9522 de3c
00000340: 128f ec3c 6270 00bb fe07 c1bc 30cb 7e3d
00000350: 2abc 883b 3a23 323d 46bc 0e3c bb53 1d3d
00000360: d43f c1bc d41f 57bd 37c5 9c3c cbb5 d5bc
00000370: 370a 98bc db38 25bc debc 943c 75c8 353b
00000380: 1343 b9bb 5ee9 9bbc af65 adbc bd84 833c
00000390: f756 033d 054c 17bd 76b0 b7bb 161a 3fbb
000003a0: 4115 2aba 6c4b ddbc d556 f3bb 83a5 46bc
000003b0: c94a 353d e9e4 393d 1350 3f3c d2bd 583d
000003c0: cce7 553c 87c7 5bbc 38ae 52bc 4ee9 3d3c
000003d0: 1f49 39bc f757 47bd f202 94bc 3677 8e3c
000003e0: 9794 b43c 58d2 733d a94f dfbb 7960 9b3c
000003f0: a4d6 c83c 6744 04bd e893 03bd 2a22 4e3c
0.0060902406 0.02169745 -0.0639948 -0.025342846 0.053966727 0.062442973 0.018071152 -0.009130723
0.095524974 0.016246717 -0.039221182 -0.05100984 0.013439889 -0.07327939 0.01314557 0.088407904
0.07015897 0.04020021 -0.0104913665 -0.0008186942 -0.12799287 0.007965621 0.038348854 -0.07473568
-0.0404832 -0.00322267 0.11428302 0.020605233 0.084591575 -0.078628086 0.07285535 0.05443647
0.026351107 0.05621594 0.04012761 0.037414283 0.0033053295 -0.10519278 -0.026943415 0.01994625
-0.05114132 -0.015245688 0.04141933 0.046813674 -0.07939129 -0.07238043 -0.06200341 -0.041655667
0.043093625 0.077620134 -0.06238907 -0.019942714 0.012408537 0.05158617 0.00948078 -0.04391862
0.08884223 0.090300635 -0.009856933 -0.06217245 0.010853287 -0.017511772 -0.03202761 -0.0012639442
-0.10274497 -0.020852083 0.009571106 -0.03236432 -0.031974114 0.071368724 -0.105847456 -0.025002753
0.0631977 0.021296306 0.06550098 0.062377166 0.0052919346 -0.06293908 -0.07859283 0.102395594
0.007949899 0.03034439 0.100807 -0.06614099 -0.013372984 0.145245 0.1087926 -0.058594942
-0.096906066 0.023683446 0.08790312 -0.07946175 0.14409773 -0.08242019 0.052663937 -0.044283118
-0.008527439 0.035813034 0.11664065 0.09539251 0.06432397 0.06376569 0.01677645 -0.023047904
-0.13456234 -0.0601608 0.03754673 -0.0729669 0.027763894 0.0616848 -0.08434126 -0.044534326
-0.07815041 -0.026967805 0.014206156 -0.14456408 -0.004031497 -0.074883156 -0.010073815 -0.032830365
0.023720214 -0.062738135 0.078873985 0.06321876 0.03736362 -0.0115445675 -0.13419217 -0.0484377
-0.11655431 -0.06585065 -0.09335861 0.068501644 -0.023804916 -0.042805173 0.035471052 -0.06625151
0.084551595 0.059599523 -0.027303731 -0.03524498 0.081232674 0.03579302 0.092799805 0.02439187
-0.055957362 -0.01528569 -0.073564045 -0.0030601954 -0.06806505 -0.012052806 0.09209675 -0.0466097
-0.16347614 -0.044683825 -0.019574724 0.00953336 0.06967159 0.11618228 0.016155979 0.027489595
0.07386312 0.0773436 -0.038002517 0.12941907 0.04037816 0.06766129 0.08302487 -0.12095939
0.033535145 -0.035316966 0.024287658 0.09999281 0.05207406 -0.105244994 -0.101247765 0.027284576
0.049935605 -0.13009454 -0.07203125 -0.12502833 -0.03151272 -0.05675653 0.1131362 0.017520161
0.019098276 0.09595599 0.033016812 0.027124783 0.045130372 0.028640259 -0.12536494 0.020037787
0.002547249 -0.016400585 0.04886128 -0.0009249709 0.0009558265 -0.027900914 -0.06064515 0.026407544
0.044298112 0.016867641 -0.031069929 0.036545064 0.023374135 -0.01948218 -0.0039460133 0.0271161
0.028876815 -0.0019598235 -0.023563381 0.062205493 0.0041728215 0.043490626 0.00871188 0.03840993
-0.023590006 -0.052520588 0.019137008 -0.026087662 -0.018559558 -0.010084356 0.018156465 0.002773789
-0.005653748 -0.019032177 -0.02116665 0.016054505 0.032065358 -0.036937732 -0.0056057526 -0.0029159836
-0.00064881524 -0.027013503 -0.0074261227 -0.012124422 0.044260774 0.04538432 0.011676806 0.0529154
0.013055753 -0.01341427 -0.01285892 0.011591269 -0.011308937 -0.048667874 -0.01806781 0.017390829
0.02204351 0.05952677 -0.006814916 0.0189669 0.024516411 -0.032291796 -0.032123476 0.012581388

lstm.bias_ih_l1 f4 [256]
00000000: eefc f43d 8d3a 14bd 6dfd 83ba dd76 bebc
00000010: 9929 f9bc a99c ee3d 24ff 0bbc ca28 e93d
00000020: 8ca8 13bd 713f b83d f0a3 af3d a2fb 8b3d
00000030: d5f2 423c 01c0 81bc 7eea 043c c995 3d3d
00000040: 1f23 c93c c8a0 b23d 2642 f23c bab1 34bd
00000050: a113 cebd 9ba8 3a3d 0862 ff3c eae9 23bd
00000060: 15e1 aa3c cd50 643d 049c 393d 7966 ce3b
00000070: 61b4 80bd 51b0 e3bd fc03 393d 68cd 963d
00000080: 70c4 04bd fac1 183d 0c91 683d a457 053d
00000090: 610b 91bd 0ff8 c5bd ecae ea3d e6c8 16bd
000000a0: 118a 2d3d 439a 323d baa2 d13c dfb2 1cbd
000000b0: 8ace 6f3d 2806 533c b48b 4fbd 59a0 633b
000000c0: 41e4 9f3d 9633 00bd 5bc2 2d3c c31b d6bd
000000d0: a959 77bd 305a f73d f96b 0abb 38c8 b63d
000000e0: 8359 c3bd 090f 7c3d b5c4 7bbd ea7b da3d
000000f0: 915e 9f3d 8c2f d93d f164 cdbd d7c3 a2bd
00000100: e441 ee3b e7d3 c13d 7019 05bc 1a91 ca3d
00000110: 912b bd3c db6f 633c 0610 cc3d d588 dc3d
00000120: 3b16 6e3d 796b b1bd 7f9d d2bd ed4c 823d
00000130: 3bd0 483d 909e c2bd 3efe 033e cb4b 6b3d
00000140: 7cd6 66bd 8768 5abd e74b d83d 12b0 ae3d
00000150: 8f79 ff3d 34b5 eb3c 9f3a 96bc 7937 923d
00000160: 7e1a 2bbd 80e0 89bd 8c5d 64bd 0611 ed3d
00000170: 5701 ce3d b3be f23d 052c 64bd 52da b3bd
00000180: 5fbd 9dbd ffeb 7c3c 2f57 773d 117b ce3d
00000190: f246 d8bd ca71 e73d 9266 eb3d eb10 89bd
000001a0: 8d18 033c 4b2d bd3d c4cb 40bd 742a 11bd
000001b0: ba81 a63d 3ab4 053e 8651 c83d aaa1 de3c
000001c0: a3c4 dbbd 27a8 903d b318 9b3d 9833 babd
000001d0: a253 babd 574c dbbb 7464 0c3e d5ed 81bd
000001e0: 0def 8fbc 1896 383d 61f0 263d b0cb 613d
000001f0: c24f 103d 6c52 7b3d f01d ab3d 663b 02bd
00000200: e715 f4bd 5abf b1bd 2482 85bd b0ea e3bc
00000210: 8729 a0bc ea48 7b3d a6d1 07bd f1d5 b8bd
00000220: 41df 75bc 9880 b93d 87d7 0bbd 81ea 213d
00000230: a7d1 a8bd e39e 533d 5b9c 7d3d ae79 523d
00000240: fbd6 cc39 321e 0f3d 4b3d 993d bae1 743d
00000250: 09e8 45bd a039 173d 00f7 debd 08cb f7bd
00000260: 1f5f 543d b1b7 dabc 72e4 be3d b8dd b13b
00000270: 4ce9 563c 9bbe 9d3d 75ce 76bd fa57 eabd
00000280: b06d 683c 4236 ebbd 5b32 903d c918 0dbe
00000290: 5861 c0bc b6b0 e0bd d24b d7bd e3f3 a8bd
000002a0: a448 4f3c 9014 f4bd d2c5 9ebd 9174 a53b
000002b0: 0347 6dbd bbed b2bd fee2 8cbd 3e37 85bd
000002c0: cae9 c33d 6c01 bd3b d509 6cbd 3c83 e8bb
000002d0: 6897 c5bd ae22 1dbd 86a7 e83c 4a0c eb3d
000002e0: 2f3b 333d 4d42 e8bd de49 d2bd f298 e4bd
000002f0: 5b1f 35bd 9041 f7bd a794 2fbc 878b 70bd
00000300: 0db9 adbd 90a8 0b3e 6560 2abd a624 a93d
00000310: 6f9b 373c aa87 d7bd d6e3 9a3d 1b62 a1bd
00000320: 909f a9bc 15f8 ef3c 0b66 26bd 5c3b ba3d
00000330: d1b3 ab3d 20de 50bc f599 d33d 80d1 343d
00000340: 2b2a 1fbd 3b37 af3c d6f3 b4bb a98e 0d3d
00000350: 82e6 80bd 699e 3fbd f5ef 143e c8c7 86bd
00000360: 2ac0 a8bd b07e a0bd 227f dcbc ed3c a4bd
00000370: 9a19 083e f52b 883d 4a18 5fbb 0798 14bc
00000380: 967f a63b 78d4 64bd e4d5 cfbd 212c 793d
00000390: 6d94 943d f9f7 47bd 3285 dc3d cc4f 54bd
000003a0: 6329 aebc 9a91 5a3d 508b 8cbc 0f0c 2ebd
000003b0: 420b 1b3d f25e d6bc 521e bd3c 6787 c13d
000003c0: ad77 52bd 65e2 e73c 8cfe c53d 0d78 2b3d
000003d0: fc72 67bd ba04 e93d e1e6 be3c 61a9 b7bd
000003e0: d502 05be f4df cabd 8536 80bd abe6 d9bc
000003f0: ba28 83bd 0ba0 d23d 1819 5f3d fcaf 29bd
0.11962305 -0.03618865 -0.0010070034 -0.023250038 -0.030415343 0.11650974 -0.008544717 0.11384733
-0.03604941 0.089964755 0.085761905 0.068351045 0.011898716 -0.015838625 0.008112548 0.046285424
0.02455288 0.08722073 0.029572558 -0.044114806 -0.10062338 0.04557095 0.031174675 -0.040018
0.02085928 0.05574112 0.045314804 0.006298837 -0.062844045 -0.11117614 0.045169815 0.07363397
-0.0324139 0.037294365 0.056778952 0.032554284 -0.070822485 -0.09666454 0.11459145 -0.036812685
0.042368 0.043604147 0.02559029 -0.038256522 0.05854658 0.012879886 -0.05067034 0.0034733026
0.07807208 -0.031299196 0.01060542 -0.10454514 -0.06038824 0.12077749 -0.0021121486 0.089249074
-0.095385574 0.061537776 -0.06146689 0.10668166 0.07781709 0.10604772 -0.10029019 -0.0794751
0.0072710384 0.09464245 -0.008123741 0.09890957 0.023092063 0.013881649 0.09963994 0.10768286
0.05812667 -0.08663077 -0.10283946 0.06362329 0.04902671 -0.095029 0.12889954 0.05744533
-0.056356892 -0.05332234 0.10561352 0.085296765 0.12474357 0.028772928 -0.0183385 0.07139487
-0.04177331 -0.06732273 -0.055753276 0.115755126 0.10058849 0.11852779 -0.055706043 -0.08781876
-0.07702135 0.015437125 0.06038588 0.10082067 -0.10560407 0.113010004 0.11494173 -0.0669268
0.008001459 0.092371546 -0.047069326 -0.035440877 0.08130212 0.13057032 0.09781174 0.027176697
-0.10730865 0.070633225 0.075730704 -0.09091872 -0.09097983 -0.00669245 0.13710195 -0.06344191
-0.017570043 0.045065016 0.040756587 0.055125892 0.035232313 0.0613579 0.083553195 -0.031794928
-0.1191824 -0.086790755 -0.06518963 -0.027821869 -0.019551052 0.061348833 -0.03315892 -0.09025181
-0.015006841 0.090577304 -0.03414109 0.03953028 -0.08243113 0.051665198 0.06191669 0.051385574
0.00039070085 0.034940906 0.07482394 0.059785582 -0.04831699 0.03692019 -0.10886955 -0.12099272
0.051848527 -0.026698919 0.09320916 0.0054280423 0.013117146 0.07702371 -0.060255487 -0.114425614
0.014186308 -0.11484958 0.070408545 -0.13778986 -0.023483917 -0.10971205 -0.105125085 -0.08249643
0.012651596 -0.119179845 -0.07752575 0.005049296 -0.05792905 -0.0873675 -0.06879233 -0.06504677
0.09566076 0.0057679918 -0.057626564 -0.0070957225 -0.09648019 -0.03836315 0.028400194 0.11476953
0.043757614 -0.11340771 -0.10267995 -0.111619845 -0.044219356 -0.12073052 -0.010716594 -0.058726814
-0.08482561 0.1363852 -0.041595835 0.08258943 0.011206492 -0.10523923 0.075629875 -0.0788004
-0.020705968 0.0292931 -0.04062466 0.09093353 0.08383907 -0.012748271 0.10332099 0.044145107
-0.038858574 0.02138864 -0.0055222316 0.03455988 -0.06293966 -0.04678193 0.14544661 -0.06581074
-0.082397774 -0.07836664 -0.02691609 -0.08019433 0.13291016 0.06649009 -0.0034041577 -0.009069449
0.0050811274 -0.05586669 -0.10148218 0.0608331 0.072548725 -0.04882047 0.107675925 -0.051833913
-0.02125997 0.053361513 -0.017156273 -0.04249197 0.037852533 -0.02616832 0.023085747 0.09449654
-0.051383663 0.028306196 0.096676916 0.041862536 -0.056506142 0.11377855 0.023303451 -0.08967853
-0.12989362 -0.09905997 -0.06260399 -0.026599249 -0.06404252 0.10284432 0.05446729 -0.041427597
