models/Scenario1_1h/gnn_fixed.pth (torch, 409439 bytes, 15 tensors)

gat1.att_src f4 [1, 4, 64]
0	0xbcad02d0	-0.021119505
1	0xbe0de727	-0.13857709
2	0xbe0e7c12	-0.13914517
3	0x3e589080	0.21148872
4	0x3dae29de	0.08504079
5	0xbd873924	-0.066026956
6	0xbdbeb4b9	-0.09311814
7	0xbe0e3cdb	-0.13890402
8	0x3db15bcd	0.08660088
9	0x3e03cbba	0.12870684
10	0xbafebc24	-0.0019434732
11	0x3d9ec12f	0.077516906
12	0xbe5dd1a9	-0.2166201
13	0x3e31ccb9	0.17363252
14	0x3e5ce5aa	0.21571985
15	0x3dab4176	0.08362095
16	0xbdcd5920	-0.10026765
17	0xbe39a706	-0.1813012
18	0xbd6dbced	-0.0580415
19	0x3dca5892	0.09880175
20	0x3dd0f8a4	0.102036744
21	0x3dca5a62	0.098805204
22	0xbe8801cf	-0.2656388
23	0x3e966fe0	0.2938223
24	0x3dfc08e3	0.123063825
25	0xbe5aa8e8	-0.21353495
26	0xbdd8216b	-0.10553249
27	0x3e6d2d0f	0.2316172
28	0xbdfece90	-0.124417424
29	0x3e4f9fe8	0.20275843
30	0x3dbda5bb	0.09260126
31	0x3de18ba9	0.11012966
32	0x3dff448a	0.12464245
33	0xbe4b483c	-0.19851774
34	0x3e7fc834	0.24978715
35	0x3e24ddd1	0.16100241
36	0xbd6f9f1f	-0.05850136
37	0xbbdb8799	-0.006699514
38	0xbe5dc4ff	-0.2165718
39	0xbc9deab9	-0.019276964
40	0x3c0985f9	0.008393758
41	0x3d4ed0c1	0.050492052
42	0xbe1844ba	-0.14869967
43	0x3e0f352e	0.1398513
44	0x3e368334	0.17823488
45	0x3d92be64	0.071652204
46	0x3e1da957	0.1539663
47	0xbe312b72	-0.1730173
48	0x3d890f0a	0.066923216
49	0x3e6142ad	0.21998091
50	0x3e2ae01a	0.1668705
51	0xbdf7e6ee	-0.12104593
52	0xbdf39ffd	-0.1189575
53	0x3e9a9530	0.30191946
54	0xbd3d6f04	-0.04624845
55	0x3e35c828	0.17752135
56	0xbea22a41	-0.31672862
57	0x3ca8da82	0.020612005
58	0xbe5f497e	-0.21805379
59	0x3d730c8b	0.059338134
60	0xbda853b5	-0.08219091
61	0x3e846482	0.2585793
62	0x3da27d36	0.07934038
63	0xbe6a5765	-0.22884901
64	0x3e13bc50	0.14427304
65	0xbc154ada	-0.009112084
66	0x3e15feb9	0.1464795
67	0xbd158fd2	-0.03651411
68	0x3e90e2b6	0.28297967
69	0x3cb0c565	0.0215785
70	0x3e6cffca	0.23144451
71	0x3d61fcb2	0.05517263
72	0xbe05c128	-0.13061965
73	0x3cae7607	0.021296514
74	0x3e0f0199	0.13965453
75	0xbe8d93c1	-0.2765179
76	0x3e14e4e6	0.14540443
77	0xbe14b1a4	-0.1452089
78	0xbd18fd08	-0.037350684
79	0x3d39c465	0.045353312
80	0x3e6da828	0.23208678
81	0x3e3c62eb	0.18397109
82	0xbc03e344	-0.00804979
83	0xbe72737d	-0.23676868
84	0x3cb3a3cd	0.021928692
85	0xbc79c9eb	-0.015245895
86	0xbdc8d943	-0.098070644
87	0x3e1de947	0.1542102
88	0xbdda5f09	-0.10662658
89	0x3e765aef	0.24058126
90	0x3e1340c9	0.14380182
91	0x3e0a15b0	0.13484836
92	0x3e0c5873	0.13705616
93	0xbd84aedb	-0.064786635
94	0xbd6d2932	-0.057900615
95	0xbbde1129	-0.006776948
96	0x3e5e69ae	0.21720001
97	0x3ca629ad	0.020283544
98	0x3e0ca047	0.13733016
99	0xbdee61bd	-0.11639736
100	0xbdf6810a	-0.12036331
101	0x3e74d2f8	0.23908603
102	0xbdbd3dbb	-0.0924029
103	0x3b30dc69	0.0026986843
104	0x3c917e6c	0.017760478
105	0xbe10564c	-0.1409542
106	0xbdb3a1fc	-0.087711304
107	0x3e5f03a8	0.21778738
108	0xbe4a289c	-0.19742054
109	0xbcf52950	-0.029926926
110	0x3e1d1d7a	0.15343276
111	0xbdc9b822	-0.09849574
112	0x3e8c40ad	0.27393094
113	0xbcf14937	-0.029453857
114	0xbe57e6ae	-0.21084091
115	0x3e0b0353	0.13575487
116	0xbe2b22dc	-0.16712517
117	0x3e5e4028	0.21704161
118	0x3de8ea7a	0.11372848
119	0x3e5b7bdd	0.21433969
120	0x3e71d35f	0.23615788
121	0x3d6a573f	0.05721211
122	0x3e6228fc	0.22085947
123	0xbe447556	-0.19185385
124	0xbe1e1986	-0.15439424
125	0xbe7c2ba7	-0.24626027
126	0x3e454538	0.19264686
127	0xbd30ba6d	-0.04314654
128	0x3dafdd1d	0.08587096
129	0xbe16c15f	-0.14722203
130	0x3e83550d	0.25650826
131	0x3d9f698e	0.07783805
132	0xbe80615c	-0.2507428
133	0x3e2b68fe	0.1673927
134	0xbbfcf703	-0.007719876
135	0x3de4d51b	0.11173459
136	0xbe76cc28	-0.24101317
137	0x3dc1c30e	0.09461032
138	0xbd8102d0	-0.062993646
139	0x3db77cee	0.08959375
140	0xbe688860	-0.22708273
141	0xbe11e1b8	-0.14246261
142	0x3e34a9c5	0.17642887
143	0x3e850189	0.25977734
144	0xbe296e2e	-0.16545936
145	0xbe0ba658	-0.13637674
146	0xbc646d08	-0.013942011
147	0x3e3f9ddf	0.18712567
148	0x3dd11f94	0.10211101
149	0x3ccedd9e	0.02525216
150	0xbe7f3830	-0.24923778
151	0xbe08d631	-0.13362958
152	0x3e6e474d	0.23269387
153	0xbdd9f435	-0.10642282
154	0xbe334aa1	-0.17508937
155	0xbd9d3b59	-0.07677335
156	0xbc45db9d	-0.012076286
157	0x3c3b2753	0.01142295
158	0x3e0599d5	0.13046964
159	0x3bdf83b2	0.006821119
160	0x3e9d5157	0.3072612
161	0xbdf9c288	-0.12195307
162	0x3e23d266	0.1599823
163	0xbe8ffdee	-0.2812342
164	0x3e19e35c	0.15028137
165	0x3e721e36	0.23644337
166	0xbe08fd6a	-0.1337792
167	0xbe1f04b4	-0.15529138
168	0x3e036979	0.12833203
169	0xbd70f14f	-0.05882388
170	0xbe8cd657	-0.27507278
171	0x3e5b210a	0.21399322
172	0x3e2cdc83	0.16880994
173	0x3da55eca	0.0807472
174	0x3dcc3ba1	0.09972311
175	0x3e14afda	0.14520207
176	0x3e23750f	0.15962623
177	0xbd6c12c2	-0.057635076
178	0xbe0b9068	-0.13629305
179	0xbde7e3c6	-0.11322741
180	0x3d492c19	0.04911432
181	0xbdd06f5c	-0.1017749
182	0x3e3ad2b4	0.1824444
183	0x3df1bb28	0.11803275
184	0xbe796a34	-0.2435692
185	0xbe7018f8	-0.23447025
186	0xbdaf88c3	-0.08571007
187	0xbd676535	-0.056493003
188	0x3d6f6dfd	0.058454502
189	0x3e9907bd	0.29888716
190	0x3d653b22	0.055964597
191	0xbe563cdb	-0.20921652
192	0xbe32cfa9	-0.17462029
193	0x3e33d22b	0.17560641
194	0xbe65c0ef	-0.2243688
195	0x3dcbc858	0.09950322
196	0x3e55c2fb	0.2087516
197	0x3e0e8dea	0.13921323
198	0x3a2d0416	0.0006600035
199	0x3e5ccdf8	0.21562946
200	0x3d77b279	0.06047294
201	0xbe2a5a7d	-0.16636081
202	0xbe164baa	-0.14677301
203	0xbd8ed6c4	-0.06974557
204	0x3d9b3074	0.07577601
205	0xbe830e85	-0.25597015
206	0xbd4101a1	-0.047120694
207	0xbe35664c	-0.17714804
208	0x3e202a7e	0.1564121
209	0x3e1037e8	0.14083827
210	0xbe94f61c	-0.29094017
211	0x3dd1032d	0.10205684
212	0xbe0cc42e	-0.13746712
213	0x3e18f1fd	0.14936061
214	0xbc6f4e64	-0.014606092
215	0x3e2dc119	0.16968192
216	0x3dd0d66d	0.101971485
217	0xbe67eedb	-0.2264971
218	0x3e581a28	0.21103728
219	0x3d5cb41a	0.053882696
220	0x3dd65f86	0.104674384
221	0xbe276ec7	-0.16350852
222	0x3dd78eed	0.10525308
223	0xbdfa901d	-0.12234519
224	0xbdc559b5	-0.09636251
225	0x3cd84de9	0.026404338
226	0x3e3ebb32	0.18626097
227	0xbda5c531	-0.08094252
228	0xbe17d7d8	-0.14828432
229	0x3da9b7d0	0.082870126
230	0xbe603d6a	-0.21898428
231	0x3e065870	0.13119674
232	0xbe37d432	-0.1795204
233	0x3e6fe002	0.23425296
234	0x3d57a8e6	0.05265131
235	0x3ca94e57	0.020667238
236	0x3e78623b	0.24256222
237	0xbe766608	-0.2406236
238	0xbc0ba014	-0.008522052
239	0xbd52912f	-0.05140799
240	0xbd8b5639	-0.06803555
241	0x3e5586d2	0.20852211
242	0x3d7374f6	0.059437715
243	0xbe69a1d2	-0.22815636
244	0x3d04e65a	0.032446243
245	0x3e40ced2	0.18828896
246	0x3e32252e	0.17396995
247	0xbe6a35bd	-0.22872062
248	0x3dce936c	0.10086712
249	0xbe251ca0	-0.16124201
250	0x3e351b27	0.17686139
251	0xbe3b0588	-0.18263829
252	0x3d99bfbb	0.07507273
253	0x3d375bbe	0.044765227
254	0xbe06e003	-0.13171391
255	0x3dffdbdd	0.124931075

gat1.att_dst f4 [1, 4, 64]
0	0xbdab5e7b	-0.0836763
1	0x3d9c886d	0.07643209
2	0xbcc9d852	-0.024639282
3	0xbde4f4f4	-0.111795336
4	0xbe679748	-0.22616303
5	0x3e1111cf	0.1416695
6	0x3d13565c	0.03597103
7	0xbd43869b	-0.04773579
8	0x3bd84133	0.006599569
9	0xbe6d8a27	-0.23197232
10	0xbd53b184	-0.051682964
11	0x3e5c3260	0.21503592
12	0x3d9d2eba	0.07674928
13	0xbc9df245	-0.019280562
14	0x3d160c5e	0.036632888
15	0x3e7371de	0.23773906
16	0xbe5e534f	-0.21711467
17	0x3e2d646a	0.16932836
18	0x3d1abed3	0.03777964
19	0x3e4bc39d	0.1989884
20	0xbd3f8002	-0.046752937
21	0xbde8d34f	-0.11368429
22	0x3e50ae62	0.20379022
23	0xbc5d6b60	-0.01351437
24	0xbe23736e	-0.15962002
25	0x3dce3766	0.1006916
26	0xbc638f80	-0.013889194
27	0x3b6ddcb9	0.003629489
28	0xbd9617c0	-0.07328749
29	0x3df18edf	0.117948286
30	0xbd22cca6	-0.03974595
31	0xbd0e26cf	-0.03470498
32	0x3e191d3a	0.14952555
33	0x3e3d4ab3	0.18485527
34	0x3dc41665	0.09574584
35	0x3ba323dd	0.0049786405
36	0xbe384233	-0.17994003
37	0x3dfda4f1	0.12384976
38	0xbd460bd1	-0.048351113
39	0x3e512eeb	0.20428054
40	0xbbb76f39	-0.0055979756
41	0x3cdc9c67	0.026930047
42	0x3e10d66f	0.141443
43	0x3d4e9e15	0.050443728
44	0x3e2b3574	0.1671961
45	0x3e351a56	0.17685828
46	0x3e59c77b	0.21267502
47	0x3e18fe52	0.14940766
48	0x3e1e9435	0.15486224
49	0x3e390369	0.18067707
50	0x3e627f79	0.2211894
51	0xbe1ad5e6	-0.15120658
52	0xbe100c37	-0.1406716
53	0xbd9d36eb	-0.076764904
54	0xbe128e9e	-0.14312217
55	0xbe457192	-0.19281605
56	0xbe29b42e	-0.1657264
57	0x3e45e3bb	0.19325154
58	0x3da6014d	0.08105717
59	0x3e1504ad	0.14552565
60	0xbe580b82	-0.2109814
61	0x38c89240	9.563984e-05
62	0xbd036a95	-0.032084066
63	0xbd0d3ba1	-0.034480695
64	0xbe37790d	-0.17917271
65	0xbdd7b34b	-0.10532244
66	0x3d2a4988	0.04157403
67	0x3e695937	0.22787939
68	0x3d527dea	0.051389612
69	0xbe66c500	-0.22536087
70	0xbdf8aa94	-0.1214191
71	0xbe30c514	-0.1726268
72	0x3d38229a	0.044954874
73	0x3e1c0bbe	0.15238854
74	0xbe314090	-0.17309785
75	0x3e43b52c	0.1911208
76	0x3e46a45f	0.1939864
77	0x3dd34012	0.10314955
78	0xbdb5d8a4	-0.088792115
79	0x3dc145cc	0.09437141
80	0xbe735d6f	-0.23766111
81	0xbd288253	-0.04113991
82	0x3e38a485	0.18031509
83	0xbd2f738e	-0.04283481
84	0x3e07e1fe	0.13269803
85	0x3e519a8a	0.20469108
86	0xbe3aef6d	-0.18255396
87	0xb8ba36b2	-8.879359e-05
88	0x3dfc3306	0.123144194
89	0xbe357c7c	-0.17723268
90	0x3e3e0cae	0.18559524
91	0x3e5bff38	0.21484077
92	0x3e573df6	0.2101973
93	0x3db79eff	0.08965873
94	0xbd3f08cf	-0.04663926
95	0xbd835596	-0.064128086
96	0xbdb142c4	-0.08655313
97	0xbe76c37c	-0.24098009
98	0x3cf62604	0.030047424
99	0xbce3ff3c	-0.027831666
100	0xbe4195db	-0.18904822
101	0x3cbb5dcc	0.022871874
102	0xbe6ef44e	-0.23335382
103	0x3da4dc00	0.08049774
104	0xbe5a4bb0	-0.21317935
105	0x3e0e0cdf	0.13872097
106	0x3dabd24c	0.0838972
107	0x3e59d9d3	0.212745
108	0x3e65afd2	0.22430351
109	0xbe337cf8	-0.1752814
110	0x3e553252	0.20819977
111	0xbb0c66c5	-0.002142356
112	0x3e295a4f	0.16538356
113	0xbd86b8f5	-0.065782465
114	0xbde6e77b	-0.1127462
115	0x3e2cbb1e	0.16868255
116	0x3e6bdf0d	0.23034306
117	0xbdea7c03	-0.114494346
118	0xbe26204b	-0.16223256
119	0xbd9e1e71	-0.0772065
120	0xbd93495b	-0.07191726
121	0xbcb26804	-0.021778114
122	0xbd60ab61	-0.05485094
123	0xbe0298e6	-0.12753639
124	0x3de311d0	0.11087382
125	0x3e1c1c55	0.15245183
126	0xbe37d634	-0.17952806
127	0x3e4100f1	0.18848015
128	0x3e49ff7b	0.19726364
129	0xbd4f85e9	-0.050664816
130	0x3e36bcc2	0.17845443
131	0x3e1f0802	0.15530398
132	0xbe5ac905	-0.21365745
133	0xbdc1a350	-0.094549775
134	0x3e3974a0	0.18110895
135	0xbd9e7392	-0.07736887
136	0x3d046aa1	0.03232825
137	0xbd29dd5e	-0.041470878
138	0xbe80ba75	-0.25142255
139	0x3cb3200e	0.02186587
140	0xbdbfe5e0	-0.09370017
141	0x3e24c809	0.16091932
142	0x3e0b41e4	0.13599354
143	0xbde8f246	-0.11374335
144	0xbd83938c	-0.06424627
145	0x3db0632a	0.08612664
146	0xbddcb2d0	-0.10776293
147	0x3dab086c	0.08351216
148	0xbe639f29	-0.22228684
149	0xbd7c415f	-0.06158578
150	0xbe09ce0a	-0.13457504
151	0x3ce7bbb0	0.028287739
152	0x3e23dc59	0.16002025
153	0x3d917ad1	0.071035035
154	0xbdc8ef8e	-0.098113164
155	0x3d79d93e	0.060998194
156	0xbe8233aa	-0.25430042
157	0x3df3a276	0.11896221
158	0x3d2dc7f3	0.042427015
159	0x3e2b32d5	0.1671861
160	0x3e3a8b78	0.18217266
161	0xbe3c59e3	-0.18393664
162	0x3d12c79a	0.035834886
163	0x3e721dcf	0.23644184
164	0xbdf15fd1	-0.11785854
165	0xbd6d6c1b	-0.057964426
166	0xbe489789	-0.19589056
167	0x3e450ee5	0.19243963
168	0x3dee15fe	0.116252884
169	0xbe2f1e39	-0.17101373
170	0x3dfad245	0.12247137
171	0x3d57ba0c	0.052667663
172	0x3cd1c464	0.025606342
173	0x3df9edbe	0.12203549
174	0x3e4828c4	0.19546801
175	0x3d92edb3	0.07174244
176	0xbdc4bb4e	-0.09606038
177	0x3d470732	0.048590846
178	0x3d49a0bf	0.049225565
179	0xbc78d861	-0.0151883075
180	0xbdaf78db	-0.08567973
181	0xbe44253b	-0.19154827
182	0x3d3d025d	0.046144832
183	0x3d1548a0	0.036446214
184	0x3dd5231c	0.10407087
185	0xbd9c2363	-0.07623937
186	0xbda295c1	-0.079387195
187	0xbe5750bc	-0.21026891
188	0x3dae6aaf	0.08516442
189	0xbe852aa0	-0.26009083
190	0xbe820551	-0.2539468
191	0xbe56c9d4	-0.20975429
192	0x3d072dcb	0.033002656
193	0xbe1b2f2e	-0.15154716
194	0xbc82b324	-0.015954562
195	0xbe85e7c9	-0.261534
196	0x3d23c982	0.039987095
197	0xbe379691	-0.1792853
198	0xbbad3651	-0.005286016
199	0x3d2be01d	0.041961778
200	0xbdf2cfe6	-0.1185606
201	0x3da7b49a	0.08188744
202	0x3e1cad4d	0.15300484
203	0xbe40498d	-0.18778057
204	0xbd35eb27	-0.044413712
205	0x3da80f95	0.08206097
206	0x3e689951	0.22714736
207	0x3e68eda6	0.22746906
208	0xbe6fc2b3	-0.23414116
209	0x3e816dd9	0.2527912
210	0x3e267c9a	0.16258469
211	0xbe254efb	-0.1614341
212	0xbd6a6a4d	-0.057230283
213	0x3e0f4ba5	0.139937
214	0xbe5234fe	-0.20528027
215	0x3df48e10	0.11941159
216	0xbc030c9c	-0.007998612
217	0x3e38c672	0.18044451
218	0x3e0c7aab	0.13718669
219	0x3e67c83b	0.22634976
220	0x3e8487c6	0.25884837
221	0x3e5809f7	0.21097551
222	0xbe586222	-0.21131185
223	0xbcad382e	-0.021144953
224	0x3d8e648e	0.06952773
225	0xbe4c9e5c	-0.19982284
226	0x3d3a7cc7	0.045529153
227	0xbcf4b832	-0.029872987
228	0xbe3c8032	-0.18408278
229	0xbc2f4671	-0.010697947
230	0xbe43eab4	-0.19132501
231	0xbe148281	-0.14502908
232	0x3dee87c1	0.11646987
233	0x3da48483	0.08033087
234	0xbe780f52	-0.24224594
235	0xbd54854c	-0.051884934
236	0x3e56640d	0.20936604
237	0xbe63cbd0	-0.22245717
238	0xbdbb2062	-0.09137036
239	0xbe4e7ff2	-0.20165995
240	0xbe43c848	-0.1911937
241	0x3dcc3fbb	0.09973093
242	0x3d96e662	0.07368161
243	0x3d5ca771	0.053870622
244	0x3e001e6c	0.12511605
245	0x3dd84a7e	0.10561083
246	0xbdcc8001	-0.09985352
247	0xbe0bcb49	-0.13651766
248	0x3e22b974	0.15891057
249	0x3e6184ba	0.22023287
250	0x3dd3fed1	0.10351337
251	0xbdfdbce8	-0.12389547
252	0xbdfaac6b	-0.12239917
253	0xbe754159	-0.2395071
254	0xbe5b6f51	-0.21429183
255	0xbe6f474a	-0.23367038

gat1.bias f4 [256]
0	0xbcdd9b2d	-0.027051533
1	0x3d4ef91e	0.050530545
2	0xbad62958	-0.0016339226
3	0x3d3b7778	0.04576823
4	0xbd294e02	-0.04133416
5	0x3d623d5c	0.055234298
6	0xbd072691	-0.032995764
7	0xbc886196	-0.016648095
8	0x3d80dfcd	0.062926866
9	0x3c89d01a	0.016822863
10	0xbca61aac	-0.02027639
11	0x3d874440	0.066048145
12	0x3cdc1957	0.026867552
13	0x3d33524d	0.04377966
14	0xbb38bdc4	-0.002818928
15	0x3b674104	0.0035286555
16	0xbaeee238	-0.0018225377
17	0xbc1d864e	-0.00961454
18	0x3c8e6b95	0.017385283
19	0xbc66b37c	-0.014080878
20	0xbd2144bb	-0.039372187
21	0xbbcfbcef	-0.0063396613
22	0xbb94b390	-0.004538007
23	0x3d0ec242	0.034853227
24	0xbcbe5367	-0.023233129
25	0x3c19f8b9	0.009397679
26	0x3d53b7d4	0.051688984
27	0x3cce74a1	0.025202097
28	0x3d7c4385	0.06158783
29	0xbd8a3ddb	-0.06750079
30	0x3cd1d2c8	0.025613204
31	0xbd218952	-0.0394376
32	0x3c5d94d8	0.013524257
33	0x3d222428	0.039585263
34	0x3d534016	0.05157479
35	0x3cf6455d	0.030062372
36	0xbb3b0c08	-0.0028541107
37	0x3c1c4e96	0.009540221
38	0x3c87148e	0.016489293
39	0x3b06fd1f	0.002059765
40	0xbd74d0ed	-0.05976956
41	0x3b57da70	0.0032936595
42	0xbbf0bcbd	-0.007346718
43	0xbd187c2e	-0.037227802
44	0x3d830a2a	0.06398423
45	0x3d12ee41	0.035871748
46	0xbc1b1463	-0.00946531
47	0x3d2c555f	0.042073604
48	0xbc8760bc	-0.016525619
49	0xbc326583	-0.01088846
50	0x3d0a4f02	0.033766754
51	0xbca81905	-0.020519743
52	0x3c8864f3	0.016649699
53	0xbd42ed76	-0.04758974
54	0x3a108fa3	0.00055145676
55	0x3c669f66	0.0140760895
56	0x3a5b2264	0.00083593116
57	0xbc3a3f7d	-0.011367676
58	0x3c2158a4	0.009847794
59	0x3cd7698b	0.026295444
60	0x3cedc6aa	0.029025394
61	0x3c9f80d1	0.019470604
62	0x3cb9061f	0.022585927
63	0x3d44eba8	0.0480763
64	0xbd12467c	-0.03571175
65	0x3d30cdd6	0.04316505
66	0x3d27afe3	0.040939223
67	0x3d652ba2	0.055949815
68	0xbc9621b0	-0.01832661
69	0xbc02eaf2	-0.007990586
70	0xbc8df5d3	-0.017329132
71	0x3c07f38a	0.00829781
72	0xbadf7793	-0.0017049186
73	0x3cdd59a9	0.027020292
74	0x3d39af35	0.045333106
75	0xbb3dfc05	-0.0028989327
76	0x3d3c2a88	0.045939
77	0x3d13f2b2	0.036120124
78	0x3d6cdb46	0.057826303
79	0x3ce04a4e	0.027379181
80	0x3c83bad3	0.016080296
81	0xbd20232d	-0.039096046
82	0x3c988749	0.018619196
83	0x3a7b930d	0.00095968024
84	0x3ca4e6bd	0.020129556
85	0x3ce9e215	0.028550187
86	0x3cc53409	0.024072664
87	0xbc55ade6	-0.013041949
88	0x3cd12ed2	0.025535021
89	0x3d1786f1	0.036993925
90	0x3c5b85ae	0.013398571
91	0xbc54c80a	-0.012987146
92	0xbc9f6b1e	-0.019460257
93	0xbccd7060	-0.025077999
94	0xbc9c3cfe	-0.019072052
95	0xbc4bb57b	-0.012433405
96	0x3c1d695c	0.009607639
97	0xbbe8b873	-0.007102066
98	0x3d48bc45	0.049007673
99	0x3c599bd5	0.013281782
100	0x3a7d4e35	0.0009662838
101	0xbd1ca0dd	-0.03823935
102	0x3d115a9a	0.035486795
103	0x3cea23fc	0.028581612
104	0x3ced9992	0.029003892
105	0x3c601985	0.013677959
106	0x3c7a938e	0.015293969
107	0xbc48d5bf	-0.012257992
108	0x3cb261e4	0.021775194
109	0x3c8c13cb	0.017099282
110	0xbd863a14	-0.06554046
111	0xbc246459	-0.01003369
112	0x3d2f52d7	0.04280361
113	0x3c8428b9	0.0161327
114	0x3cac54b3	0.021036481
115	0xbd27894c	-0.04090242
116	0x3c70a5fc	0.014688011
117	0xbbc26762	-0.0059327343
118	0xbc0c4e2e	-0.008563561
119	0x3d45b589	0.04826883
120	0x3d7b72bc	0.061388716
121	0xbc6f3766	-0.01460061
122	0x3d6635aa	0.05620352
123	0x3caffdaf	0.02148327
124	0xbcdf4c24	-0.027257986
125	0x3cffea89	0.031239765
126	0x3d692d11	0.056927744
127	0x3c81d751	0.015849741
128	0x3d00d454	0.031452492
129	0x3d2c83e9	0.042117987
130	0xbc273f20	-0.010207921
131	0xbc90538c	-0.017617963
132	0xbc290340	-0.010315716
133	0x3d29e226	0.041475438
134	0xbd0e5723	-0.03475107
135	0xbc599764	-0.013280723
136	0xbcc41373	-0.023935055
137	0x3c5f1ec2	0.013618173
138	0xbb6cc716	-0.0036129407
139	0xbb4a3d0a	-0.0030859136
140	0x3c38b1c9	0.011272856
141	0x3d141e6e	0.036161833
142	0xbc5d47b7	-0.013505868
143	0xbab0405e	-0.0013446917
144	0xbca8aef5	-0.020591239
145	0x3c55e076	0.013054004
146	0x3d5a5754	0.05330594
147	0x3cda87fc	0.02667617
148	0xbcb842a2	-0.02249271
149	0x3cdc24e2	0.026873056
150	0xbc31aab7	-0.010843924
151	0x3ca4ac65	0.020101735
152	0xbb9bfce8	-0.0047603734
153	0xbcdcd4dd	-0.02695697
154	0xbbbb9317	-0.0057243216
155	0xbcc9fcd0	-0.024656683
156	0x3d0e9c49	0.034817014
157	0x3d076c89	0.03306249
158	0xbd63260d	-0.05545621
159	0xbd054b1a	-0.032542326
160	0x3d2bd717	0.041953173
161	0x3d472bef	0.048625883
162	0x3d503a36	0.050836764
163	0x3cd39a20	0.025830328
164	0x3c593cf5	0.013259162
165	0x3d112827	0.035438683
166	0x3b807bfb	0.0039210296
167	0xbca631ce	-0.02028742
168	0x3c746335	0.014916231
169	0xbd005968	-0.031335264
170	0x3d6eb8c8	0.05828169
171	0x3d870cf7	0.0659427
172	0x3be3f887	0.006957117
173	0x3c8f69d0	0.01750651
174	0x3d8aa0d9	0.067689605
175	0x3cd44981	0.025913956
176	0x3d792b7a	0.060832478
177	0xbc87f4e2	-0.016596261
178	0x3b6185e8	0.003441209
179	0x3d44efd8	0.048080295
180	0x3c8209e0	0.01587385
181	0xbb995514	-0.0046793316
182	0x3d9485a5	0.07252053
183	0xbc242bb2	-0.010020183
184	0x3c781897	0.015142581
185	0xbcea49d5	-0.028599659
186	0xbd0d2aef	-0.034464773
187	0x3b845f72	0.0040396983
188	0xbc39961a	-0.011327291
189	0x3d5481a8	0.051881462
190	0x3d176093	0.036957335
191	0x3b79c630	0.0038112514
192	0x3b21f545	0.0024712842
193	0xbc32d720	-0.010915548
194	0xbbc5f90e	-0.0060416525
195	0xbb10609a	-0.0022030235
196	0xbca1e8c7	-0.019764317
197	0x3d255e28	0.040372998
198	0xbc17d799	-0.009267711
199	0x3c1a4cee	0.0094177555
200	0xbcf52a93	-0.029927528
201	0xbd81f0b3	-0.06344738
202	0x3cdd200a	0.026992816
203	0xbd0f6e79	-0.035017464
204	0x3d7ff6ce	0.06249123
205	0x3d1e9155	0.03871282
206	0xbc641a99	-0.013922357
207	0x3ca34520	0.019930422
208	0xbc44ac77	-0.012004009
209	0xbd2b4326	-0.041812085
210	0xbd07cc1c	-0.03315364
211	0x3cb0f821	0.021602692
212	0x3d0705c9	0.0329645
213	0xbd59166d	-0.052999903
214	0x3d2523ad	0.040317226
215	0x3c987bd8	0.01861374
216	0x3d3cac69	0.04606286
217	0xbc8def44	-0.017326005
218	0x3b2bddc9	0.0026224724
219	0xbbb51daf	-0.00552722
220	0xbb87834d	-0.0041355253
221	0x3d523652	0.051321335
222	0xbb3169a3	-0.002707102
223	0x3d26fcf1	0.040768567
224	0xbd96bd18	-0.073602855
225	0x3ca551c3	0.020180589
226	0x3c816133	0.015793419
227	0xbc6d6d67	-0.014491416
228	0x3d70acf5	0.058758695
229	0x3c9450d5	0.01810495
230	0x3d7eefb4	0.062240317
231	0xbd88865e	-0.066662535
232	0xbc2f8dc6	-0.010714954
233	0xbd439675	-0.04775091
234	0xbbbf7b49	-0.005843554
235	0xbb2c130a	-0.0026256465
236	0x3c6d414b	0.014480899
237	0x3cbe4c41	0.02322972
238	0x3cdc3fc9	0.026885884
239	0x3c28633b	0.010277565
240	0x3bfe15d5	0.0077540674
241	0x3d618600	0.055059433
242	0xbcbdded3	-0.02317754
243	0xbc19c0ce	-0.009384347
244	0xbb6630a8	-0.0035124216
245	0x3b76c95b	0.0037656638
246	0x3d26d789	0.040732894
247	0x3d625d37	0.055264678
248	0x3d172814	0.036903456
249	0x3c66f8c3	0.014097395
250	0xbd3f1289	-0.046648536
251	0xbd12a79b	-0.035804372
252	0x3c5a34a9	0.013318219
253	0xbd8a9243	-0.067661785
254	0x3d5baebf	0.053633448
255	0x3ccb59e9	0.024823146

gat1.lin.weight f4 [256, 55]
0	0xbdc6262b	-0.09675249
1	0xbd0f2c58	-0.0349544
2	0x3db92189	0.090395994
3	0xbe01bed8	-0.12670457
4	0x3d5077c0	0.050895452
5	0x3cd58bb1	0.026067587
6	0x3dbf25f0	0.09333408
7	0xbdb6c586	-0.08924393
8	0x3d8cc75b	0.068739615
9	0x3d37f4e8	0.044911295
10	0xbd840af9	-0.06447405
11	0xbbf3675f	-0.0074280943
12	0x3dd59581	0.10428906
13	0xbd8ddbbc	-0.06926677
14	0xbd28c9af	-0.041207965
15	0xbd8b6a8e	-0.06807433
16	0xbe116b6e	-0.14201137
17	0xbc3ad6f7	-0.011403791
18	0xbc70f938	-0.014707856
19	0xbb6a70f8	-0.00357729
20	0x3db36559	0.08759565
21	0x3d9b09b2	0.075702086
22	0x3e0c6758	0.13711298
23	0x3dc4eb03	0.096151374
24	0x3d807217	0.06271761
25	0x3d3c6cdc	0.046002254
26	0x3d443955	0.04790624
27	0xbddf6e34	-0.109096915
28	0x3db19596	0.086711094
29	0xbdcf9e50	-0.101376176
30	0xbda5c86a	-0.080948666
31	0xbce59fdd	-0.02803033
32	0xbe02b4d8	-0.12764299
33	0x3dc5211b	0.09625455
34	0x3de032b5	0.109471716
35	0x3d649251	0.0558036
36	0x3cc3d136	0.02390347
37	0x3d4032a1	0.046923283
38	0xbd066986	-0.03281548
39	0xbcc65278	-0.024209246
40	0x3d2fd7b2	0.042930312
41	0xbc56da52	-0.013113575
42	0xbdc2f6c5	-0.09519724
43	0xbe01c82c	-0.12674016
44	0xbe2d2c46	-0.1691142
45	0x3d8f9456	0.07010715
46	0x3d6a25ef	0.057165083
47	0xbddb8ad3	-0.10719838
48	0xbdad1c92	-0.08452715
49	0xbce3c491	-0.027803691
50	0xbd380a8d	-0.044931937
51	0xbda2457d	-0.0792341
52	0xbce714a4	-0.028208084
53	0xbd5f8ac1	-0.054575685
54	0xbe1af473	-0.15132312
55	0xbc7950ee	-0.015217049
56	0xbd84373e	-0.06455849
57	0x3da37ad5	0.07982413
58	0xbd49dcc7	-0.049282815
59	0x3dad0cf3	0.084497355
60	0xbde0293d	-0.109453656
61	0xbe043e46	-0.1291438
62	0x3d979eb6	0.074033186
63	0xbddc8941	-0.107683666
64	0x3daf770b	0.085676275
65	0xbd88b950	-0.066759706
66	0xbd7c3fc4	-0.06158425
67	0x3d30148a	0.042988338
68	0xbd972501	-0.07380105
69	0x3dd5a121	0.104311235
70	0x3d23e1aa	0.040010132
71	0x3d99d7a2	0.07511832
72	0x3c9b520f	0.018960027
73	0x3d6d1de7	0.057889845
74	0xbb8232ef	-0.003973357
75	0x3bdfd50b	0.0068308166
76	0xbdff719c	-0.12472841
77	0x3db0cb25	0.08632497
78	0x3d1023ce	0.035190396
79	0xbe12900c	-0.14312762
80	0xbd6f189e	-0.058373086
81	0xbdd984c3	-0.106210254
82	0xbd8b832c	-0.068121284
83	0xbda7e8c4	-0.081986934
84	0x3e02d4e3	0.12776522
85	0xbd848f26	-0.06472616
86	0xbd84d64f	-0.064861886
87	0xbdb89386	-0.09012513
88	0x3d99315d	0.074801184
89	0xbd9fd4e3	-0.07804277
90	0x3e1b5b6e	0.15171596
91	0x3de65679	0.11246962
92	0xbd88eee5	-0.066861905
93	0xbdf4cb16	-0.11952798
94	0xbd561373	-0.052264642
95	0xbd4fb89c	-0.050713167
96	0xbdc116e2	-0.09428193
97	0x3e0e13a5	0.13874681
98	0xbd9a5bd3	-0.07537045
99	0x3dee85ad	0.116465904
100	0x3df177db	0.11790439
101	0x3db98d2c	0.090601295
102	0x3d0ee171	0.034882966
103	0x3b83212a	0.004001756
104	0x3d68b472	0.05681271
105	0x3c0f5e75	0.008750548
106	0xbcf47140	-0.029839158
107	0xbd14f024	-0.03636183
108	0xbc605fee	-0.013694746
109	0x3dfc7863	0.123276494
110	0x3cbe3f1e	0.023223456
111	0x3d140022	0.03613294
112	0xbdcc9a00	-0.09990311
113	0xbd7434eb	-0.05962078
114	0xbdf25468	-0.118325055
115	0x3de6566d	0.11246953
116	0xbde0bbda	-0.1097333
117	0x3ccdfdb4	0.02514539
118	0x3d9d7bda	0.076896384
119	0x3d1fbf0b	0.039000552
120	0xbb0dd0bc	-0.0021639308
121	0x3d9df21c	0.07712194
122	0xbd1e90e6	-0.038712405
123	0x3d8fa333	0.0701355
124	0x3d546c9f	0.0518614
125	0x3cb62a34	0.02223692
126	0x3c64e6af	0.013971015
127	0xbdbb7c0e	-0.09154521
128	0x3c4d9835	0.012548496
129	0xbd87c2e1	-0.06628967
130	0x3dcd8496	0.100350544
131	0xbd984171	-0.07434357
132	0x3cb4cac0	0.022069335
133	0x3d6830ca	0.056687154
134	0xbc87256d	-0.016497338
135	0xbdeba607	-0.115062766
136	0xbe02107f	-0.12701605
137	0xbdd68d7d	-0.104762055
138	0x3d354abe	0.044260733
139	0x3db9ab5a	0.09065886
140	0xbde9d43d	-0.11417434
141	0x3df14fdc	0.1178281
142	0x3dfa8ae1	0.1223352
143	0x3d7eb67a	0.062185742
144	0x3c7fe7e1	0.015619249
145	0xbdf4e1a2	-0.119570985
146	0xbdae7fec	-0.08520493
147	0xbde8fe1a	-0.11376591
148	0xbdcc0c6c	-0.09963307
149	0xbdc57555	-0.0964152
150	0xbd0a00aa	-0.03369204
151	0xbcc4fd91	-0.024046691
152	0x3d5ab3ca	0.053394116
153	0xbdcf4226	-0.10120039
154	0x3d66b30f	0.056323107
155	0x3e1118aa	0.14169565
156	0xbcf47a59	-0.029843496
157	0x3dbfe9ee	0.093707904
158	0xbd1b11f1	-0.037858907
159	0x3dc7ec71	0.097618945
160	0x3dd40dba	0.10354181
161	0xbe019246	-0.12653455
162	0x3de9094e	0.11378728
163	0xbceb49c9	-0.028721707
164	0x3db6e494	0.089303166
165	0xbd423db3	-0.047422122
166	0x3c05090e	0.008119835
167	0x3b827642	0.0039813826
168	0xbdc07019	-0.09396381
169	0x3dba84e3	0.091073774
170	0xbcddbfb0	-0.027068943
171	0x3df0f44e	0.117653474
172	0xbe028af0	-0.12748313
173	0xbcf46177	-0.029831631
174	0xbd651cac	-0.055935547
175	0x3dc267e8	0.09492475
176	0xbb3471f3	-0.002753374
177	0xbdba8567	-0.09107476
178	0xbde1ad16	-0.11019342
179	0xbd6479d5	-0.05578025
180	0xbdf76ef3	-0.12081709
181	0xbccec310	-0.025239497
182	0xbd70fcd9	-0.058834884
183	0x3c94b9d6	0.01815502
184	0x3b4248d0	0.002964545
185	0x3cd24fdc	0.025672846
186	0xbd3d9830	-0.046287715
187	0xbd7b478c	-0.06134753
188	0xbd547c3b	-0.051876288
189	0x3d9af583	0.07566359
190	0xbde0a02f	-0.109680526
191	0xbda8d091	-0.08242906
192	0xbc530660	-0.012879938
193	0x3dbc9236	0.09207575
194	0x3d9cbc7b	0.07653137
195	0xbdc4e2d2	-0.09613575
196	0xbd6edc8c	-0.0583158
197	0x3c2c5d08	0.010520227
198	0x3d9bb805	0.07603458
199	0xbd52c76e	-0.051459722
200	0x3db33d86	0.08751969
201	0xbd614b92	-0.05500371
202	0x3e042c8d	0.1290762
203	0x3ddf7f50	0.10912955
204	0x3d415da1	0.047208432
205	0x3dc8f948	0.098131716
206	0x3daaed67	0.08346062
207	0x3d96db46	0.07366042
208	0xbce89855	-0.02839295
209	0x3dd4f3eb	0.10398086
210	0x3df7cf02	0.121000305
211	0xbd371ca4	-0.04470505
212	0x3d8c4048	0.06848198
213	0xbe0ab1ed	-0.13544436
214	0xbdf97e4f	-0.121822946
215	0xbce3e9c8	-0.027821437
216	0x3d7865f8	0.06064412
217	0xbcd0384e	-0.025417473
218	0x3d1f0339	0.038821433
219	0x3def169a	0.11674233
220	0xbda71922	-0.081590906
221	0xbdce9ef3	-0.10088911
222	0x3d0d5fa2	0.03451503
223	0xbdcf7781	-0.101302154
224	0x3d3ef889	0.04662374
225	0xbd424a07	-0.04743388
226	0xbe077e67	-0.13231812
227	0xbdb73024	-0.08944729
228	0x3d6f633d	0.05844425
229	0x3d89c6d7	0.06727379
230	0xbdcb929b	-0.09940072
231	0x3d98db42	0.07463695
232	0x3dc00a7b	0.09376999
233	0xbd93c81d	-0.07215903
234	0x3b76b137	0.003764225
235	0x3c77da3c	0.015127715
236	0x3dad1d8d	0.08452902
237	0x3e0ae7e2	0.13565019
238	0xbd5d8350	-0.054080307
239	0xbd842db9	-0.064540334
240	0x3b21c7ca	0.0024685734
241	0x3d13d7ac	0.036094353
242	0x3dbde071	0.092713244
243	0x3d71f755	0.059073765
244	0x3d9c33dd	0.0762708
245	0x3daa68dd	0.08320782
246	0x3d28da2f	0.0412237
247	0x3cfd1b82	0.030896906
248	0x3ccff0b7	0.025383336
249	0xbc6aefed	-0.014339429
250	0xbd71e119	-0.05905256
251	0xbd8347c6	-0.06410174
252	0xbdc22102	-0.09478952
253	0x3c90769d	0.017634684
254	0xbde48707	-0.11158567
255	0x3d37102c	0.044693157

gat2.att_src f4 [1, 4, 64]
0	0x3d73ed1d	0.0595523
1	0x3d317c75	0.043331582
2	0xbd55227c	-0.05203484
3	0xbe43735d	-0.19086976
4	0xbe469228	-0.19391692
5	0xbe41d752	-0.18929794
6	0x3e24b524	0.16084725
7	0x3e664cd2	0.22490242
8	0x3e347892	0.17624119
9	0x3e8296d1	0.2550569
10	0xbafff8b3	-0.0019529074
11	0xbe32c66c	-0.17458504
12	0xbd1f885e	-0.03894841
13	0xbe0752b5	-0.13215144
14	0xbe80871f	-0.2510309
15	0x3d7ccfa8	0.061721474
16	0xbe33ba24	-0.17551476
17	0xbda2e9c6	-0.07954745
18	0xbe1f6c02	-0.15568545
19	0xbe19b18c	-0.15009135
20	0xbc5ce67b	-0.013482685
21	0xbc8145a7	-0.015780283
22	0xb8842b0b	-6.302268e-05
23	0x3dc4018c	0.095706075
24	0x3e86523d	0.26234618
25	0xbe50cc44	-0.20390421
26	0x3dfad1b6	0.122470304
27	0x3e1ff8a9	0.156222
28	0xbe3e6f79	-0.18597211
29	0x3e6bf452	0.2304242
30	0x3e0883ba	0.133315
31	0xbd72937b	-0.05922268
32	0x3e715920	0.23569155
33	0xbe39a982	-0.18131068
34	0xbe48432e	-0.19556877
35	0xbd03a712	-0.032141753
36	0x3d301938	0.0429928
37	0xbca03b4e	-0.019559529
38	0xbd2bf22e	-0.041979007
39	0x3e820bb3	0.2539955
40	0xbe0f8b32	-0.14017943
41	0xbdcd40d0	-0.10022128
42	0x3e855b2b	0.26046118
43	0x3da0d04d	0.0785223
44	0xbca0d317	-0.019631905
45	0xbd95c5b7	-0.07313102
46	0x3e1515c1	0.1455908
47	0xbe32bb98	-0.17454374
48	0x3e79df8e	0.24401686
49	0xbe2a8ad4	-0.16654521
50	0x3e3366ad	0.17519636
51	0x3e4ff184	0.20306975
52	0x3dd2b437	0.102882795
53	0x3da4d9e0	0.08049369
54	0xbe20aab4	-0.15690118
55	0xbd99be53	-0.075070046
56	0x3e143353	0.14472704
57	0x3e53a079	0.20666684
58	0x3e52f221	0.20600177
59	0x3df86990	0.121295094
60	0x3e0cfff7	0.13769518
61	0x3d71d96d	0.059045244
62	0x3cd694a7	0.02619393
63	0x3e7a52c4	0.24445635
64	0x3e1549aa	0.14578882
65	0xbe3a66c7	-0.18203269
66	0x3ca305fa	0.01990031
67	0xbe517fce	-0.2045891
68	0xbe026827	-0.12735043
69	0xbe5f09d9	-0.217811
70	0x3cb85052	0.022499237
71	0xbe098a4d	-0.13431664
72	0xbe620cc9	-0.2207519
73	0xbdf36356	-0.11884181
74	0xbe4223b5	-0.18958934
75	0x3d7ded2e	0.06199377
76	0xbe47d961	-0.19516517
77	0xbd9f9e05	-0.07793812
78	0x3e34b1cb	0.17645948
79	0xbe5f68c9	-0.21817316
80	0x3c9dcaca	0.019261736
81	0xbe52b055	-0.20575078
82	0xbcc0471c	-0.023471408
83	0xbd3679bc	-0.04454969
84	0xbd367458	-0.044544548
85	0x3e53388b	0.20627038
86	0x3e23a10b	0.15979402
87	0x3e59e99e	0.21280524
88	0xbe81b7a8	-0.2533543
89	0x3b6e93b5	0.0036403958
90	0x3dc98c3c	0.09841201
91	0x3e113aa4	0.14182526
92	0x3e224630	0.15847087
93	0xbbeba541	-0.0071913307
94	0xbdb305f4	-0.0874137
95	0x3c68c00d	0.014205945
96	0xbd447ed5	-0.04797252
97	0x3d1ae4ff	0.037816044
98	0x3de7edf5	0.113246836
99	0xbe8707db	-0.2637318
100	0xbe594236	-0.21216664
101	0xbcda510c	-0.026649974
102	0x3e883b23	0.26607618
103	0x3cdf3770	0.027248114
104	0xbe42d3bc	-0.19026083
105	0xbd390f26	-0.045180462
106	0x3e0ce62b	0.13759677
107	0xbe414449	-0.18873705
108	0xbe0a5df5	-0.13512404
109	0x3da06a35	0.078327574
110	0xbdbffaa7	-0.0937398
111	0x3d0ac0cd	0.033875275
112	0x3de8bda9	0.113643
113	0x3e460c91	0.19340731
114	0x3dfc1cb5	0.12310163
115	0xbe3c5cbe	-0.18394753
116	0x3e1bdb83	0.15220456
117	0xbe7f59e6	-0.24936637
118	0x3e8dd3c4	0.27700627
119	0x3da94d36	0.0826668
120	0x3da5bf21	0.080930956
121	0xbe5c5cda	-0.21519795
122	0xbe29aaf4	-0.1656912
123	0x3dc3ba2c	0.09556994
124	0xbe355315	-0.17707475
125	0xbde5be44	-0.11217931
126	0x3e24351a	0.16035882
127	0x3db1a518	0.08674067
128	0x3d7819fc	0.060571656
129	0xbd446533	-0.047948074
130	0xbe1a173c	-0.15047926
131	0x3e479526	0.1949049
132	0x3e3c7f6e	0.18407986
133	0xbe687a39	-0.22702874
134	0xbdd059c7	-0.10173374
135	0xbe4ea442	-0.20179847
136	0xbe234cad	-0.15947218
137	0xbe7b9362	-0.24567941
138	0xbe5f93af	-0.2183368
139	0xbdc7b6e4	-0.097516805
140	0xbdc94396	-0.09827344
141	0x3e802f04	0.2503587
142	0xbcc32c10	-0.023824722
143	0x3e521775	0.2051676
144	0xbd0d5715	-0.034506876
145	0xbdede149	-0.11615235
146	0x3e1d4bf4	0.15361005
147	0x3dc5cb44	0.096579105
148	0xbe4637c6	-0.19357213
149	0xbe0ebe86	-0.13939866
150	0x3cfe3506	0.031031143
151	0x3e4fefeb	0.20306365
152	0x3e8c0e64	0.2735473
153	0xbdfa121f	-0.122104876
154	0xbe286d49	-0.16447939
155	0xbd6ccc5d	-0.057812084
156	0x3dfea966	0.12434654
157	0x3e81a006	0.253174
158	0xbd0b628f	-0.03402954
159	0x3e7b87c6	0.24563512
160	0x3dd28f0e	0.10281192
161	0x3e790785	0.24319275
162	0x3d91a1dd	0.07110951
163	0xbd573e97	-0.052549925
164	0xbe56074f	-0.20901226
165	0x3dedbca5	0.11608247
166	0xbe363b79	-0.17796125
167	0xbd301392	-0.042987414
168	0x3c9d7448	0.019220486
169	0xbd064960	-0.03278482
170	0xbd4aac9c	-0.04948102
171	0xbd8dd60a	-0.0692559
172	0xbdeb8a9f	-0.11501049
173	0xbe2c3624	-0.16817528
174	0xbda8e9c8	-0.08247715
175	0x3e2b054a	0.16701236
176	0xbe38017a	-0.17969313
177	0x3d526739	0.051367972
178	0x3e20b0a1	0.15692379
179	0xbe07e7e9	-0.1327206
180	0x3c548d02	0.012973072
181	0xbe6479b9	-0.22312059
182	0xbc0f024a	-0.008728573
183	0x3e08c6a7	0.1335703
184	0x3e57550f	0.21028541
185	0x3e35ad88	0.17741978
186	0x3df17192	0.1178924
187	0x3dc18e05	0.09450916
188	0xbe1d8f70	-0.15386748
189	0xbe56b706	-0.20968255
190	0xbdc8568f	-0.09782135
191	0x3d46ba6a	0.048517622
192	0x3e5dd02f	0.21661447
193	0xbe30583c	-0.17221159
194	0x3dab3980	0.08360577
195	0xbe621c02	-0.22080997
196	0xbe0f529c	-0.13996357
197	0x3e539010	0.20660424
198	0xbd9766f0	-0.07392681
199	0xbe6608cd	-0.22464295
200	0xbdadcd42	-0.084864154
201	0x3c635c59	0.013876998
202	0x3e01516c	0.12628716
203	0xbe0e44cd	-0.13893433
204	0x3e2a216d	0.16614313
205	0x3e67cd0b	0.22636811
206	0xbb767762	-0.0037607779
207	0xbe13454b	-0.14381902
208	0xbdda6608	-0.10663992
209	0x3e1ec3d3	0.15504389
210	0x3c966e31	0.01836309
211	0xbda41f1a	-0.08013745
212	0x3cf1068a	0.029422063
213	0xbe383200	-0.17987823
214	0x3e46396c	0.19357842
215	0x3e29fee9	0.16601147
216	0x3df5dca0	0.120049715
217	0xbde9ea64	-0.114216596
218	0x3e09f80a	0.13473526
219	0x3d937520	0.07200074
220	0x3e0d139f	0.13777016
221	0xbe2191f2	-0.1577833
222	0x3e76e83c	0.24112028
223	0xbe4d24db	-0.2003359
224	0xbd40da4b	-0.04708318
225	0xbd295563	-0.041341197
226	0x3dc99b95	0.09844128
227	0x3e293681	0.16524698
228	0xbe58638f	-0.21131729
229	0x3e66f893	0.22555761
230	0x3e1ac9ac	0.15115994
231	0x3bfdd82b	0.0077467165
232	0x3e23c850	0.15994382
233	0xbe774af9	-0.24149694
234	0xbca8d643	-0.02060998
235	0x3e122141	0.14270498
236	0x3c83fbcf	0.016111283
237	0xbd8ba3f3	-0.0681838
238	0xbdd7f497	-0.10544699
239	0x3e563e66	0.2092224
240	0xbe3eca77	-0.18631922
241	0xbd62a001	-0.055328373
242	0x3e539765	0.20663221
243	0x3e064d90	0.13115525
244	0x3e3eb203	0.18622594
245	0xbe6ed71d	-0.23324247
246	0x3e0f81f8	0.14014423
247	0xbe85c4f2	-0.2612682
248	0x3e187567	0.14888535
249	0xbcdf6f45	-0.027274737
250	0x3d7ab5b6	0.06120845
251	0x3e12b952	0.14328507
252	0x3da93ab9	0.082631536
253	0x3c12c36e	0.008957727
254	0x3e22bba8	0.15891898
255	0xb9c8425f	-0.00038196423

gat2.att_dst f4 [1, 4, 64]
0	0xbd998abe	-0.07497166
1	0x3e0c2494	0.13685828
2	0x3e8af1e3	0.2713767
3	0x3c994bc1	0.01871288
4	0xbe81cdaf	-0.25352237
5	0xbb1349c8	-0.0022474397
6	0x3d8ef337	0.06979983
7	0xbd9698ef	-0.073533885
8	0xbe508524	-0.20363289
9	0x3dbbdd85	0.09173111
10	0x3df5a32c	0.11994013
11	0xbd96c1c0	-0.07361174
12	0xbdcb9212	-0.0993997
13	0x3e91aec7	0.28453657
14	0x3c4fd93d	0.012686071
15	0xbd93afa9	-0.07211239
16	0xbe6efab5	-0.23337825
17	0xbd1f7669	-0.038931284
18	0xbe628fc2	-0.22125152
19	0xbe1c8ac6	-0.15287313
20	0xbe42521a	-0.18976632
21	0xbd362202	-0.044466026
22	0xbe318700	-0.17336655
23	0x3d0bea2b	0.034158867
24	0xbddfeee1	-0.109342344
25	0xbbb6df96	-0.0055808527
26	0xbe4203a9	-0.18946709
27	0x3d6a1d6e	0.057156973
28	0x3c535ae1	0.012900085
29	0xbd12271f	-0.03568184
30	0x3e8620d3	0.26196918
31	0xbe1edf85	-0.15514953
32	0x3e787a4c	0.24265403
33	0x3e831a4a	0.25605994
34	0xbdb70754	-0.089369446
35	0x3e6f786b	0.2338578
36	0xbe294053	-0.16528444
37	0xbe67dcd3	-0.22642832
38	0x3df2bc68	0.11852342
39	0x3e48d23c	0.19611448
40	0x3e24c59c	0.16091007
41	0xbe76167d	-0.24032016
42	0x3d61a279	0.055086587
43	0x3db3d83f	0.0878148
44	0xbe1a81cd	-0.15088578
45	0xbe2fc241	-0.17163946
46	0xbdb0bb2d	-0.08629451
47	0xbcbd94d2	-0.023142252
48	0xbe61db6d	-0.2205636
49	0xbe7b5ddc	-0.24547523
50	0x3e427533	0.1899002
51	0xbe95a46d	-0.2922701
52	0x3d970ec0	0.0737586
53	0x3e0f05a8	0.13967001
54	0xbe107a66	-0.14109191
55	0x3e1cb626	0.15303859
56	0x3da3cc5f	0.07997965
57	0xbe80abc5	-0.2513105
58	0x3d33b6d4	0.04387553
59	0x3deae5d5	0.11469618
60	0x3e7b69b4	0.24552041
61	0xbe5ac842	-0.21365455
62	0xbe420141	-0.18945791
63	0xbe81e56b	-0.25370345
64	0x3dbe64e0	0.09296584
65	0xbde453e6	-0.11148815
66	0x3d8f4e9b	0.06997415
67	0x3e0e90c9	0.13922419
68	0x3d33921a	0.043840505
69	0xbc078f05	-0.008273845
70	0xbe0fe7ff	-0.14053343
71	0x3d47b472	0.04875607
72	0xbe2735f5	-0.16329177
73	0x3e3d09a2	0.18460706
74	0x3e3f0929	0.18655838
75	0x3def1ba2	0.116751924
76	0xbd5124a9	-0.051060352
77	0xbe1f2827	-0.1554266
78	0xbd99ddd4	-0.075130135
79	0x3c84aae1	0.016194763
80	0x3a4af180	0.0007741675
81	0x3e0284e8	0.12746012
82	0xbe360910	-0.17776895
83	0xbd2e0a32	-0.04249019
84	0xbe5b37c6	-0.21407995
85	0xbe69e76e	-0.2284219
86	0x3e01c3dc	0.1267237
87	0xbc43ab98	-0.011942767
88	0x3de66907	0.11250501
89	0xbe6e14a4	-0.23250061
90	0x3e52dc09	0.20591749
91	0x3e47ff44	0.1953097
92	0x3ddec986	0.10878281
93	0x3d1350a6	0.035965584
94	0x3e374c46	0.1790019
95	0xbdf84a17	-0.121235065
96	0x3c06369d	0.008191732
97	0x3e48967a	0.19588652
98	0xbda18473	-0.07886591
99	0xbd9521d3	-0.07281842
100	0x3d82abc6	0.063804194
101	0x3e771cc9	0.24132074
102	0x3e7d0cfc	0.24711984
103	0xbe3d6da4	-0.18498856
104	0x3ca89ac8	0.020581618
105	0xbe263eb3	-0.16234855
106	0x3e3341c4	0.17505556
107	0x3e165bcd	0.14683457
108	0xbdf7e1b8	-0.12103599
109	0xbdc6e0e8	-0.09710866
110	0x3df7e3a3	0.12103965
111	0x3e33a8fd	0.17544933
112	0x3e19a19d	0.15003057
113	0x3e32ce49	0.17461504
114	0xbe8579b9	-0.2606943
115	0x3ca6ed2e	0.020376768
116	0x3d8db817	0.06919878
117	0xbe66f52e	-0.22554466
118	0x3d63fb58	0.055659622
119	0x3e4df84b	0.20114248
120	0xbaf30c71	-0.0018543137
121	0xbcf15ae0	-0.029462278
122	0xbddcf925	-0.10789708
123	0xbe2a6dee	-0.16643497
124	0x3dbe408b	0.09289654
125	0xbc1081b4	-0.008819986
126	0xbe518a04	-0.20462805
127	0x3e194c47	0.14970504
128	0x3e7bbcb4	0.24583703
129	0x3e7cbccc	0.24681395
130	0xbda774bc	-0.08176562
131	0x3dd4e6f3	0.103956126
132	0x3e5c0742	0.21487144
133	0x3df6538d	0.12027655
134	0xbdb211a1	-0.08694769
135	0x3e64a4bb	0.22328465
136	0xbd94ca2b	-0.07265123
137	0xbd83c4ca	-0.06434019
138	0xbdcf05a2	-0.10108496
139	0xbe1a89f5	-0.15091689
140	0x3e347b1d	0.17625089
141	0xbdf2c149	-0.118532725
142	0xbe254748	-0.16140473
143	0x3e80105b	0.25012478
144	0x3ddac02c	0.10681185
145	0xbe3d145e	-0.184648
146	0x3dc03bc0	0.093863964
147	0x3dff03af	0.124518745
148	0xbe24c291	-0.16089846
149	0x3d4db0ff	0.050217625
150	0x3e4b79c3	0.19870667
151	0x3e0856ce	0.13314363
152	0xbcdc0774	-0.026859023
153	0xbdd9ad31	-0.10628737
154	0x3c20ba0a	0.00980998
155	0x3e21cad9	0.15800036
156	0xbe4fb9a4	-0.2028566
157	0xbd7daf04	-0.061934486
158	0xbe18884e	-0.14895746
159	0xbe817f80	-0.25292587
160	0x3e39546e	0.18098614
161	0x3c54e497	0.012993953
162	0x3e4075f6	0.18794999
163	0x3ca8ed76	0.020621043
164	0xbe03edf5	-0.12883742
165	0x3e731c60	0.23741293
166	0xbd60a11f	-0.054841157
167	0x3e14e55a	0.14540616
168	0xbd921720	-0.07133317
169	0xbc39b880	-0.011335492
170	0xbe182e47	-0.14861403
171	0xbdcf4793	-0.101210736
172	0x3b569810	0.0032744445
173	0xbd6fa21c	-0.05850421
174	0x3dcb14bd	0.09916065
175	0x3e3f73c5	0.18696506
176	0xbe0ce875	-0.1376055
177	0xbda4c935	-0.0804619
178	0xbe3e29a6	-0.18570575
179	0xbe788833	-0.24270706
180	0x3e4d3022	0.20037892
181	0x3cfbe056	0.03074662
182	0x3dcf0c29	0.10109741
183	0xbde306b3	-0.11085262
184	0xbe276905	-0.16348656
185	0x3e3678ab	0.17819469
186	0xbcaaaf9e	-0.020835694
187	0x3ccc10cf	0.024910359
188	0xbe629054	-0.2212537
189	0x3e310dab	0.1729037
190	0x3df2f854	0.11863771
191	0x3e69270e	0.22768804
192	0xbd2df47c	-0.042469487
193	0xbdb39405	-0.08768467
194	0x3d8cb81c	0.068710536
195	0xbe0a8b1e	-0.13529631
196	0x3de3f437	0.11130565
197	0xbe10cdda	-0.14141026
198	0x3dc0ff6c	0.09423718
199	0xbe7f47ad	-0.24929686
200	0x3e08bd20	0.13353395
201	0xbc09111e	-0.008365897
202	0x3e602db2	0.21892431
203	0xbe48b52e	-0.19600365
204	0x3e39feac	0.18163556
205	0xbe2890cf	-0.1646149
206	0x3e250c5b	0.16117994
207	0xbe8bed1a	-0.27329332
208	0xbdb22bad	-0.08699737
209	0xbe5a4103	-0.21313863
210	0xbdbeff32	-0.093260184
211	0x3ddb011b	0.1069357
212	0x3dc14c4a	0.09438379
213	0xbe78856d	-0.24269648
214	0x3e3eb301	0.18622972
215	0xbd1194e2	-0.035542376
216	0xbd836ad7	-0.064168625
217	0x3e8c4964	0.27399743
218	0xbe4f6bb8	-0.20255935
219	0xbe79be0f	-0.24388908
220	0xbe58c596	-0.21169123
221	0xbe51fdf0	-0.20507026
222	0x3d7f1ab5	0.06228133
223	0x3d10a084	0.03530933
224	0x3e59de9b	0.21276323
225	0xbe447d2a	-0.19188371
226	0x3e54c572	0.20778444
227	0x3d988dbe	0.0744891
228	0x3daba172	0.083804026
229	0xbca75e11	-0.020430597
230	0x3e55d121	0.20880558
231	0x3d675fb3	0.05648775
232	0xbb31c437	-0.002712501
233	0x3daebd00	0.08532143
234	0x3e42a2e8	0.19007456
235	0x3e6a5b74	0.22886449
236	0x3ad6913f	0.0016370191
237	0x3c3688b8	0.011140995
238	0xbd9743fc	-0.07386014
239	0xbe4feede	-0.20305964
240	0xbe01170d	-0.1260645
241	0xbdeae274	-0.11468974
242	0xbe53f894	-0.20700294
243	0x3e5b573f	0.2142
244	0x3e38364c	0.17989463
245	0xbe06d187	-0.13165866
246	0x3e6cd28c	0.23127192
247	0x3e2314b1	0.15925862
248	0x3e671b18	0.22568929
249	0xbd8130e7	-0.063081555
250	0x3ca6beea	0.020354707
251	0xbe4e2446	-0.20131025
252	0xbcfa2abd	-0.030537957
253	0x3d87cc84	0.06630805
254	0xbbd68ffd	-0.0065479265
255	0x3e6d5f56	0.23180899

gat2.bias f4 [256]
0	0x3cf031a0	0.029320538
1	0x3cd0f3b8	0.02550684
2	0xbd0a7d03	-0.033810627
3	0x3ac22939	0.0014813311
4	0x3c43da83	0.011953953
5	0xbcbb6bb6	-0.022878509
6	0xbd2fa92a	-0.042885937
7	0x3c209e60	0.009803385
8	0x3b7ac4a3	0.0038264177
9	0x39912256	0.00027682137
10	0x3d792bd0	0.0608328
11	0xbbdd2fd6	-0.0067500873
12	0xbbb3bdd5	-0.005485276
13	0x3cb05147	0.021523131
14	0x3bc0bd60	0.0058819503
15	0xbccfd155	-0.025368372
16	0x3d15c3e0	0.036563754
17	0x3d0c3a46	0.03423526
18	0x3c081a93	0.008307117
19	0x3ca91cca	0.02064361
20	0xbb9e95a3	-0.0048396154
21	0xbc9600ac	-0.018310867
22	0x3cd481d0	0.025940806
23	0xbd1ddf9e	-0.038543336
24	0xbd6ac648	-0.057318002
25	0xbb3f4947	-0.0029187964
26	0xbb9982bf	-0.0046847756
27	0xbcf66998	-0.030079648
28	0xbcfb1d48	-0.03065361
29	0xbd547752	-0.051871605
30	0x3ce3eae4	0.027821966
31	0x3b27405f	0.0025520546
32	0x3bda0841	0.006653816
33	0xbc2c5ce1	-0.010520191
34	0xbd1a063e	-0.03760361
35	0x3c5faa92	0.013651507
36	0xbc5dc80f	-0.013536467
37	0x3d0afbb5	0.033931453
38	0x3bb4a9df	0.0055134143
39	0x3d2b5392	0.041827746
40	0x3c46540e	0.012105001
41	0xbd36d6a1	-0.04463828
42	0xbc9239f0	-0.017849892
43	0xbc941a2c	-0.018078886
44	0x3c7ce272	0.015434848
45	0xbc50d199	-0.0127452845
46	0xbc4f0f45	-0.012637918
47	0x3d013a29	0.031549606
48	0xbc5de70e	-0.013543857
49	0x3af45a2e	0.0018642598
50	0x3c2d08ae	0.010561151
51	0xba41f75d	-0.0007399226
52	0xbd3a8074	-0.04553266
53	0xbca90f7d	-0.020637268
54	0x3d083ad4	0.033259228
55	0x3c9bec1c	0.019033484
56	0xbd59503f	-0.053055044
57	0xbceb5454	-0.028726734
58	0x3d01cdc6	0.03169038
59	0xbc3f7175	-0.011684765
60	0x3cb185e3	0.021670287
61	0xbc4d83b3	-0.012543607
62	0x3b9d39bc	0.0047981422
63	0x3c13fcde	0.009032456
64	0x3c89e67f	0.016833542
65	0xbbe17066	-0.006879854
66	0x3cc460f0	0.023972005
67	0x3c83a354	0.016069092
68	0x3d0438ec	0.032280847
69	0xbd1ae2a7	-0.03781381
70	0xbc7f0fa2	-0.015567692
71	0xbd1ab3d3	-0.03776915
72	0x3ad09c3f	0.0015915706
73	0xbcfff298	-0.031243607
74	0xbce51cdb	-0.02796786
75	0x3c2ded70	0.010615692
76	0xbb200e36	-0.0024422533
77	0xbcd93ed8	-0.026519224
78	0x3cfed00c	0.031105064
79	0xbc5ccd0b	-0.01347662
80	0xbcb3e138	-0.021957979
81	0x3cc9ce6a	0.024634559
82	0x3c99b9db	0.01876538
83	0x3d0e3224	0.034715787
84	0x3d0ed36f	0.034869608
85	0x3d24b0d6	0.040207706
86	0xba8dd436	-0.001082069
87	0x3cadbbcd	0.021207714
88	0xbd2c4b50	-0.04206401
89	0xbd0be57f	-0.03415441
90	0x3cfebe95	0.031096736
91	0x3c3fecb1	0.0117141465
92	0x3d1c2aa7	0.038126614
93	0x3cf4efba	0.029899467
94	0x3d18a44d	0.037266064
95	0x3c9fe7d8	0.019519731
96	0x3c2b94ae	0.01047246
97	0xbc258c25	-0.010104214
98	0xbb5187b9	-0.0031971766
99	0x3d2451e4	0.04011716
100	0x3d128460	0.035770774
101	0x3d0f316f	0.034959253
102	0x3c73bb97	0.014876268
103	0xbcd19d09	-0.025587576
104	0x3c6aea45	0.014338081
105	0x3b4bb78d	0.0031084747
106	0xbd79791e	-0.060906522
107	0xbc7d5410	-0.015461937
108	0x3cc04ec4	0.023475058
109	0x3bbab056	0.0056972904
110	0x3c8d3b03	0.017240053
111	0xbc856990	-0.016285688
112	0xbb36999e	-0.002786256
113	0xbc20d625	-0.009816681
114	0x3c79562c	0.015218299
115	0x3d0426af	0.032263454
116	0x3d297a22	0.04137624
117	0xbcb6e3ee	-0.022325482
118	0x3d26f62b	0.040762108
119	0x3cb9b271	0.022668095
120	0x3cb79d67	0.022413922
121	0xbd104090	-0.03521782
122	0x3cef0f73	0.029182171
123	0xbad67ef2	-0.0016364737
124	0xbbdbd8d1	-0.006709196
125	0xbcae808b	-0.021301528
126	0xbca2de57	-0.01988141
127	0xbca91b8b	-0.020643016
128	0xbc2d9ecc	-0.010596942
129	0x3b82613d	0.003978877
130	0x3cb94142	0.022614125
131	0x3d1f570c	0.038901374
132	0x3cc6ffc4	0.02429188
133	0x3c8169cd	0.01579752
134	0x3cbb0991	0.02283171
135	0x3c60678c	0.0136965625
136	0xbc6a985f	-0.014318555
137	0x3d716ed8	0.0589436
138	0xbc89fd8b	-0.016844532
139	0xbd0c504b	-0.03425626
140	0x3d29d322	0.041461118
141	0x3ceee1fc	0.029160492
142	0x3cce4f12	0.025184188
143	0xbc512828	-0.012765922
144	0x3b4e81f6	0.0031510568
145	0xbc245afc	-0.010031458
146	0x3cb28605	0.021792421
147	0xbc07f30c	-0.008297693
148	0x3cb116e6	0.021617364
149	0xbadea119	-0.0016985267
150	0x3d2c49fa	0.042062737
151	0xbba03984	-0.004889669
152	0x3c9f778e	0.019466188
153	0x3d429788	0.047507793
154	0xba86b68c	-0.0010277792
155	0xbd5df609	-0.054189716
156	0xbd0232c2	-0.031786688
157	0xbca14fd1	-0.01969138
158	0x397351f8	0.00023204822
159	0x3d1f9da5	0.0389687
160	0xbc057697	-0.00814595
161	0x3d1d1c85	0.038357276
162	0x3acc5eaf	0.0015592183
163	0x3d0287d5	0.03186782
164	0xbcb885fe	-0.02252483
165	0x3d2a15bb	0.04152463
166	0xbd20f976	-0.039300404
167	0xbcbc03b4	-0.022950985
168	0xbd02d464	-0.031940833
169	0x3d08d2b3	0.033404063
170	0x3c0ffd7b	0.008788462
171	0x3c3b158c	0.011418711
172	0x3ba00d57	0.0048844027
173	0x3cb3e6a6	0.021960568
174	0xbd65cf3d	-0.05610584
175	0x3d5d61af	0.054048236
176	0x3d4a910e	0.04945474
177	0x3d1c21ba	0.0381181
178	0xbd56f782	-0.052482136
179	0x3ccf5448	0.025308743
180	0xbcebff90	-0.028808385
181	0x3c228979	0.009920471
182	0x3b813f51	0.0039443155
183	0x3c0d4a1f	0.008623629
184	0xbd15460b	-0.03644375
185	0xbd003ef3	-0.031310033
186	0x3beadaf6	0.0071672155
187	0x3cf09add	0.02937072
188	0xbd6791fb	-0.056535702
189	0x3cab2624	0.02089221
190	0xbc4fbe17	-0.012679598
191	0x3d2109af	0.039315876
192	0x3d57f5f0	0.05272478
193	0x3c901075	0.017585972
194	0x3c2a5264	0.01039562
195	0x3d438378	0.0477328
196	0xbcd72ccf	-0.026266484
197	0xbcca3a9f	-0.024686156
198	0x3d013cf3	0.031552266
199	0x3ce1f362	0.027581874
200	0xbd09bc63	-0.033626925
201	0x3cac8297	0.021058364
202	0x3c62c497	0.013840816
203	0x3abcfa1f	0.0014417804
204	0xbcb0f3d5	-0.021600643
205	0x3d1ec127	0.038758423
206	0xbc1afddd	-0.00945994
207	0xbd099935	-0.033593375
208	0x3bd7ebca	0.0065893875
209	0xbab59432	-0.001385337
210	0x3d6bc8af	0.057564434
211	0x3c947fc4	0.01812733
212	0x3cdb4f29	0.026771145
213	0x3cf05075	0.02933524
214	0x3d1c440d	0.038150836
215	0x3d04ea44	0.032449976
216	0xbbe6518d	-0.0070287646
217	0xbd03d31d	-0.032183755
218	0x3ccd0c18	0.02503018
219	0xbc8c1e33	-0.017104244
220	0x3cff17f5	0.031139353
221	0xbd8fd23e	-0.070225224
222	0x3c077818	0.008268379
223	0xbcaeab60	-0.021321952
224	0xbd721d52	-0.059109993
225	0xbd20a7d6	-0.03922256
226	0xbd330b6d	-0.04371207
227	0x3c23cfc7	0.009998268
228	0xbc056c1e	-0.008143453
229	0x3c070f60	0.008243412
230	0xbbb0678e	-0.0053834384
231	0xbcb26d32	-0.021780584
232	0x3d2d1ca2	0.042263635
233	0x3d302b2f	0.043009933
234	0x3d145f1e	0.036223523
235	0xbd167e2b	-0.036741417
236	0xbd0c1805	-0.034202594
237	0x3cd3213f	0.025772689
238	0x3c10fb7a	0.008849019
239	0x3c90c077	0.0176699
240	0xbca98d22	-0.02069718
241	0x3cb43c55	0.022001425
242	0x3caee83e	0.021350976
243	0x3c944517	0.01809935
244	0x3d05b7ba	0.03264592
245	0xbc8b3f26	-0.016997885
246	0xbd4c4624	-0.04987158
247	0x3c9cc413	0.019136464
248	0x3cb94821	0.022617402
249	0x3d0642ca	0.03277854
250	0x3cccfe87	0.025023712
251	0xbd20cb54	-0.03925641
252	0x3c1a28f1	0.009409175
253	0xbbd10408	-0.0063786544
254	0x3ba50bd1	0.005036809
255	0xbd1d47e8	-0.038398653
