Analyses/models/Scenario3_12h/gnn.pth (torch, 403931 bytes, 15 tensors)

gat1.att_src f4 [1, 4, 64]
-0.21375984 0.2301244 -0.014866541 -0.19425583 -0.09039295 0.12624654 -0.19930671 -0.034583054
-0.24543212 -0.07376251 0.17537293 -0.06518548 -0.07894203 0.2241636 -0.043052536 -0.008345874
0.0065045017 0.17831858 -0.23412913 0.30101788 -0.22850706 -0.1283482 0.042744346 -0.1632357
-0.102542534 0.08001101 -0.16102208 0.12585974 -0.15810737 0.1902258 -0.27372196 -0.20966798
-0.07266563 0.2140761 -0.28437752 0.26806045 0.13025329 -0.0995889 -0.027413353 -0.05765303
-0.24270074 -0.22544934 -0.15309635 -0.19807467 0.052008953 0.16388261 -0.18900587 0.26555544
0.22599682 0.2724808 -0.19358066 -0.021739926 -0.085797414 0.18026517 0.21558511 -0.16498324
-0.050061103 -0.16291459 0.115834355 -0.19388764 -0.23202102 0.21415672 0.07409495 0.113152795
-0.25905144 0.27521843 -0.24896477 0.14164788 -0.18812898 0.08751225 0.07870629 -0.13607185
-0.19331764 -0.11829727 0.08609566 -0.060651086 0.24012122 0.08405358 -0.26461077 -0.083335996
-0.26340732 0.2866193 0.1626875 0.2043589 0.24926023 -0.17214817 -0.21977077 -0.054688994
0.13091546 -0.111018434 -0.18718334 0.19422738 -0.006176518 -0.04970774 0.15456127 -0.058503114
-0.31267908 0.16682552 0.011727238 -0.29703358 -0.24658675 0.048985362 0.30529526 0.027009124
-0.30916375 0.17190763 0.08734584 -0.058384564 0.22697884 0.0279461 0.16688985 -0.035290506
-0.24735463 -0.21234643 -0.20184696 -0.2620416 0.012717407 0.07732386 -0.26536068 -0.116614915
-0.12586612 -0.21417755 0.08128165 0.26749557 0.06824228 -0.16682005 -0.16737366 -0.052261166
0.2433376 -0.27808952 0.17885855 0.2141902 -0.09100337 0.17457815 -0.02872158 0.15283029
-0.19536607 -0.053293116 -0.29715315 0.17519836 -0.017908864 0.04665134 -0.16956739 -0.12978715
-0.24016984 0.12926413 -0.2609066 0.16906291 0.2424124 0.19238405 0.037791837 0.13144319
0.19372682 -0.06254777 -0.2607963 -0.11049027 0.26375186 -0.025565581 0.24333325 0.040733222
-0.009410339 -0.016693639 0.29283965 0.19297382 0.11983458 0.11903673 -0.14736836 0.00023712916
0.03386078 0.2956885 -0.15013705 -0.16433516 -0.10052617 0.16716892 -0.14064704 -0.10354899
-0.16247699 -0.081661165 -0.07958037 0.1058851 0.0713322 -0.2131576 -0.0548514 -0.20105892
0.11730016 -0.026065676 -0.15167378 0.041562907 -0.21791658 0.24131958 -0.024557194 0.20093854
0.1285476 0.20304614 -0.102549925 0.19235447 0.2102169 0.09891771 -0.23295179 0.07215567
0.123749845 -0.25727057 -0.16742593 0.1945292 0.14402229 0.17132619 -0.17896217 -0.08001815
0.05188169 -0.12673205 0.022631548 0.0167223 -0.009878051 0.2047139 0.22723618 0.13155837
0.28157076 0.23814446 -0.30927247 0.22870813 0.28850588 -0.1466811 0.2459159 0.19090703
0.13737608 -0.10237409 0.21324517 0.016713018 0.19108197 0.08496692 0.13464724 0.17400222
0.06909494 0.17480205 0.11474148 0.01751908 -0.102335714 0.05515034 -0.14983763 0.10839994
-0.12786554 0.17025928 -0.14820924 -0.29351726 0.25205398 -0.2682003 0.12357788 -0.1627686
-0.012975841 -0.008372488 -0.1868886 -0.28095022 0.31148195 -0.1499903 -0.23308139 0.022783333
00000000: dce3 5abe bba5 6b3e cb92 73bc 00eb 46be
00000010: f01f b9bd c646 013e 0f17 4cbe f6a6 0dbd
00000020: 8f52 7bbe cd10 97bd f694 333e f77f 85bd
00000030: 5cac a1bd 258b 653e db57 30bd 22bd 08bc
00000040: b723 d53b 2599 363e 8cbf 6fbe 041f 9a3e
00000050: c1fd 69be b66d 03be b214 2f3d 4227 27be
00000060: d201 d2bd d0dc a33d f9e2 24be 60e1 003e
00000070: e6e6 21be 8dca 423e 4925 8cbe 34b3 56be
00000080: b8d1 94bd c436 5b3e ee99 91be 383f 893e
00000090: 1e61 053e 44f5 cbbd f891 e0bc 9525 6cbd
000000a0: 8b86 78be 31dc 66be 4ac5 1cbe 16d4 4abe
000000b0: 5707 553d d8d0 273e c18a 41be e2f6 873e
000000c0: b66b 673e 9a82 8b3e 023a 46be ee17 b2bc
000000d0: 8eb6 afbd 6f97 383e 58c2 5c3e 5ef1 28be
000000e0: df0c 4dbd 15d3 26be 903a ed3d 7b8a 46be
000000f0: eb96 6dbe e64b 5b3e 18bf 973d a7bc e73d
00000100: 64a2 84be 6ee9 8c3e 9ff0 7ebe 240c 113e
00000110: e2a4 40be 9f39 b33d c330 a13d 6b56 0bbe
00000120: 0ff5 45be d745 f2bd ec52 b03d 466d 78bd
00000130: 56e2 753e 4924 ac3d 107b 87be 10ac aabd
00000140: 53dd 86be c4bf 923e 8d97 263e 7643 513e
00000150: 133e 7f3e 9c47 30be 970b 61be 9101 60bd
00000160: b40e 063e a25d e3bd fdac 3fbe 8be3 463e
00000170: 6364 cabb 589a 4bbd 4f45 1e3e f6a0 6fbd
00000180: 7917 a0be 4fd4 2a3e 9a23 403c c914 98be
00000190: 3d81 7cbe e0a4 483d a94f 9c3e 3d42 dd3c
000001a0: b64a 9ebe 8e08 303e 60e2 b23d a724 6fbd
000001b0: 246d 683e 38ef e43c 2ce5 2a3e c78c 10bd
000001c0: 884a 7dbe 5871 59be f8b0 4ebe 512a 86be
000001d0: ac5c 503c f95b 9e3d 5bdd 87be cdd3 eebd
000001e0: 0ce3 00be 5c51 5bbe fe76 a63d 2ef5 883e
000001f0: 9cc2 8b3d e0d2 2abe 0064 2bbe ce0f 56bd
00000200: 7e2d 793e c061 8ebe b226 373e ad54 5b3e
00000210: fa5f babd 9dc4 323e 8549 ebbc 8b7f 1c3e
00000220: 0b0e 48be e249 5abd 7524 98be 3367 333e
00000230: 9cb5 92bc 7a15 3f3d 13a3 2dbe ece6 04be
00000240: 15ef 75be d15d 043e 8d95 85be d41e 2d3e
00000250: f53a 783e 5300 453e 9dcb 1a3d 0b99 063e
00000260: 5360 463e 0c19 80bd 1887 85be b948 e2bd
00000270: 7c0a 873e e96e d1bc 5a2c 793e e1d7 263d
00000280: d32d 1abc 19c1 88bc 14ef 953e ee9a 453e
00000290: d56b f53d 87c9 f33d bbe7 16be e0a5 7839
000002a0: 9ab1 0a3d 7c64 973e 87bd 19be 7a47 28be
000002b0: aae0 cdbd 542e 2b3e c705 10be 7e11 d4bd
000002c0: 5e60 26be f83d a7bd 08fb a2bd 4ada d83d
000002d0: 9e16 923d fc45 5abe ddab 60bd 64e2 4dbe
000002e0: 113b f03d af87 d5bc 5f50 1bbe de3d 2a3d
000002f0: 8625 5fbe 7b1c 773e 2b2c c9bc d5c2 4d3e
00000300: fba1 033e 54eb 4f3e b205 d2bd 92f8 443e
00000310: 1943 573e 5e95 ca3d ea8a 6ebe 5ac6 933d
00000320: 8f70 fd3d f8b8 83be b471 2bbe aa32 473e
00000330: 947a 133e 2270 2f3e dc41 37be 8ee0 a3bd
00000340: e581 543d 0cc6 01be cc65 b93c 34fd 883c
00000350: 8cd7 21bc 85a0 513e 9ab0 683e 3db7 063e
00000360: 0b2a 903e 24dc 733e f658 9ebe 7732 6a3e
00000370: 0bb7 933e 9233 16be 61d1 7b3e 227d 433e
00000380: 51ac 0c3e 82a9 d1bd f15c 5a3e bde9 883c
00000390: feaa 433e 2303 ae3d f7e0 093e a32d 323e
000003a0: a681 8d3d 4fff 323e 95fd ea3d 2c84 8f3c
000003b0: 6395 d1bd 53e5 613d 096f 19be ca00 de3d
000003c0: 2fef 02be 7358 2e3e 2ac4 17be e547 96be
000003d0: 380d 813e 8d51 89be 6616 fd3d d0ac 26be
000003e0: 9f98 54bc c32c 09bc ba5f 3fbe b5d8 8fbe
000003f0: 907a 9f3e 0f97 19be e3ac 6ebe 1da4 ba3c

gat1.att_dst f4 [1, 4, 64]
-0.101822674 0.12999962 -0.08813114 0.18947984 -0.010309057 0.04214276 -0.21827763 -0.08281333
-0.035087742 0.264772 -0.0054020667 0.10702864 0.24959931 -0.102835 0.13245809 -0.24622457
0.22693402 -0.17942093 -0.1359352 -0.2718744 0.09682626 -0.20060785 -0.2275011 -0.19669779
-0.076543085 -0.22275048 -0.16136897 -0.08732826 -0.108461596 0.27283287 -0.14396761 -0.24744903
-0.0635547 -0.1819001 0.043917853 0.023905197 -0.08191082 -0.27159193 0.083956204 -0.23869585
-0.057080712 -0.13804428 -0.19186719 -0.050269473 -0.1435046 0.19151926 0.13980855 -0.051763307
-0.13215354 -0.116945945 0.24243183 0.26796576 -0.15915607 -0.0807817 -0.12253858 -0.104757644
-0.26226228 -0.06890731 -0.089625426 -0.06837801 0.0126594575 -0.064199366 0.039708685 -0.22357123
0.008652964 -0.22683424 -0.028249934 0.050180893 0.09436996 -0.1971055 0.1774916 0.16596544
0.18265238 0.25853604 -0.1679471 -0.15831071 -0.12065552 0.013222723 -0.18631373 0.115535736
0.14397617 -0.0716146 0.24761292 0.029886864 -0.19116856 0.031367857 -0.08336309 0.10890732
0.2469047 0.2663164 0.11487846 0.21788767 0.02605921 0.046939958 0.20276885 -0.096918225
-0.018523542 -0.15971941 -0.17300716 0.20174715 0.13363111 0.17394695 0.09024169 0.15805408
0.18043272 0.0029282875 -0.11109874 0.21161039 -0.2745638 -0.07940747 0.116420954 -0.13696893
-0.012724853 -0.037680876 0.06775205 0.15986577 0.2314121 0.20593818 -0.012620894 -0.019465093
0.16637081 0.26662153 -0.26122913 0.08495337 0.07935182 0.069987826 -0.041125156 0.01049144
0.14362648 -0.065189295 -0.1535227 -0.0077940854 0.18955326 -0.20606893 -0.0062408578 -0.26853058
0.2433499 -0.16963582 -0.19766447 -0.103373766 -0.24583085 -0.08158092 0.03321864 0.02617283
-0.24519913 0.1416039 -0.13702667 -0.119784765 -0.120011516 -0.15571076 -0.077861406 -0.21891373
0.19907548 0.060291324 -0.16240782 0.002635591 -0.19130348 -0.1227165 0.013258953 -0.18271582
-0.016488811 0.20669274 0.18075486 0.15536211 -0.07855844 -0.15932615 -0.100032724 -0.19368376
0.1248718 -0.02086034 0.121261224 -0.044223335 -0.07745025 -0.036305867 -0.2674621 0.24085161
0.19545966 0.25441924 0.024876947 -0.15484661 0.103696905 0.13693 -0.2643978 -0.062499568
-0.17593367 -0.16114233 0.21769169 -0.03585863 -0.18984188 0.10906342 -0.093141735 -0.045488503
-0.10928045 -0.16107354 -0.1350506 -0.020431537 -0.15855438 -0.16070183 -0.12431704 -0.25498265
0.11493454 -0.27595526 0.21839629 -0.18984796 0.23291191 0.22280242 0.07269194 -0.18976001
-0.12765285 0.11392735 0.13221987 -0.026284292 -0.19419318 -0.07088977 -0.1342848 0.07575214
-0.20227408 -0.19987139 -0.17879404 0.068502516 -0.11080457 0.15584119 -0.14389619 -0.1103181
0.1852378 -0.11724597 0.15602559 0.04947633 0.06652109 -0.110817604 -0.23869734 0.07878335
0.19755226 -0.25169122 0.13945466 0.009809346 -0.26262403 -0.08735964 -0.045900688 0.18623391
-0.101185985 -0.034912523 0.031436186 -0.026919879 -0.2052373 0.110920064 0.24638502 -0.057766374
0.007069868 0.239838 0.19911145 0.1077409 0.0062518995 0.1650801 0.058717504 -0.009631223
00000000: 6888 d0bd 9f1e 053e 197e b4bd 0107 423e
00000010: 52e7 28bc e39d 2c3d 2c84 5fbe 099a a9bd
00000020: 2ab8 0fbd 3290 873e d203 b1bb d531 db3d
00000030: f696 7f3e 289b d2bd 18a3 073e 4b22 7cbe
00000040: 6461 683e 1fba 37be 9932 0bbe 1f33 8bbe
00000050: d94c c63d 256c 4dbe 0cf6 68be 256b 49be
00000060: 9fc2 9cbd b418 64be e83d 25be 29d9 b2bd
00000070: 1d21 debd c0b0 8b3e 3f6c 13be 4763 7dbe
00000080: f728 82bd 0544 3abe 35e3 333d d5d4 c33c
00000090: dcc0 a7bd 190e 8bbe 3bf1 ab3d af6c 74be
000000a0: 77cd 69bd 7b5b 0dbe d578 44be 5de7 4dbd
000000b0: dff2 12be a01d 443e f929 0f3e c305 54bd
000000c0: 4253 07be 5b81 efbd 0d40 783e cf32 893e
000000d0: cff9 22be e070 a5bd 82f5 fabd 2d8b d6bd
000000e0: 3e47 86be 471f 8dbd 898d b7bd c509 8cbd
000000f0: 9d69 4f3c f57a 83bd 93a5 223d dbef 64be
00000100: 29c5 0d3c 3c47 68be 686c e7bc 7b8a 4d3d
00000110: 0a45 c13d 06d6 49be 5cc0 353e d8f2 293e
00000120: 3a09 3b3e d65e 843e 53fa 2bbe 341c 22be
00000130: 3e1a f7bd 1fa4 583c 07c9 3ebe 009e ec3d
00000140: 7d6e 133e adaa 92bd 3e8e 7d3e 4cd5 f43c
00000150: b1c1 43be 957b 003d 45ba aabd cd0a df3d
00000160: 96d4 7c3e a05a 883e 6645 eb3d f21d 5f3e
00000170: 207a d53c 1d44 403d a3a2 4f3e 107d c6bd
00000180: afbe 97bc 7c8d 23be ca28 31be ce96 4e3e
00000190: 98d6 083e 261f 323e a3d0 b83d eed8 213e
000001a0: 5bc3 383e 83e8 3f3b bc87 e3bd 65b0 583e
000001b0: a093 8cbe 62a0 a2bd 1c6e ee3d 9541 0cbe
000001c0: e77b 50bc 4357 1abd 96c1 8a3d dab3 233e
000001d0: 4bf7 6c3e 75e1 523e dec7 4ebc 4275 9fbc
000001e0: 1c5d 2a3e 9e82 883e d3bf 85be 08fc ad3d
000001f0: 3583 a23d c755 8f3d da72 28bd 4ae4 2b3c
00000200: d212 133e f781 85bd 0e35 1dbe 8765 ffbb
00000210: 401a 423e bc03 53be 1c80 ccbb d77c 89be
00000220: b730 793e 03b5 2dbe 8e68 4abe a0b5 d3bd
00000230: 15bb 7bbe e613 a7bd 4510 083d 6768 d63c
00000240: 7b15 7bbe 9d00 113e b850 0cbe b751 f5bd
00000250: 99c8 f5bd a472 1fbe cd75 9fbd ec2a 60be
00000260: 71da 4b3e 09f4 763d 3c4e 26be e1b9 2c3b
00000270: 0fe5 43be ca52 fbbd 143c 593c db19 3bbe
00000280: 8b13 87bc 43a7 533e cd17 393e 3f17 1f3e
00000290: 3fe3 a0bd 6526 23be f5dd ccbd 0955 46be
000002a0: c9bc ff3d 4ee3 aabc ce57 f83d 8723 35bd
000002b0: 3d9e 9ebd 76b5 14bd cbf0 88be cea1 763e
000002c0: 9426 483e 3d43 823e bdca cb3c 1c90 1ebe
000002d0: 0b5f d43d 6137 0c3e 265f 87be 8cff 7fbd
000002e0: f527 34be 7f02 25be 92ea 5e3e 80e0 12bd
000002f0: e965 42be a45c df3d 18c1 bebd 2752 3abd
00000300: 6ece dfbd 76f0 24be b44a 0abe 0a60 a7bc
00000310: 145c 22be 058f 24be ef99 febd 168d 82be
00000320: cd62 eb3d 024a 8dbe 47a3 5f3e 8167 42be
00000330: 7680 6e3e 5126 643e 83df 943d 7350 42be
00000340: 6eb7 02be be52 e93d a564 073e 2852 d7bc
00000350: 94da 46be a82e 91bd f481 09be f023 9b3d
00000360: f020 4fbe 16ab 4cbe c915 37be 0c4b 8c3d
00000370: 82ed e2bd d594 1f3e 8659 13be 75ee e1bd
00000380: faae 3d3e a81e f0bd 2cc5 1f3e b1a7 4a3d
00000390: 363c 883d 57f4 e2bd 136d 74be 2a59 a13d
000003a0: 244b 4a3e acdd 80be 34cd 0e3e 61b7 203c
000003b0: a876 86be 9ce9 b2bd 5c02 3cbd 1ab4 3e3e
000003c0: 993a cfbd 6f00 0fbd 3bc3 003d 1487 dcbc
000003d0: ba29 52be 0f2a e33d 5b4c 7c3e 6f9c 6cbd
000003e0: 5aaa e73b 1898 753e dfe3 4b3e 43a7 dc3d
000003f0: bcdc cc3b c20a 293e c481 703d 47cc 1dbc

gat1.bias f4 [256]
0.013699162 0.0065845107 0.01919451 0.016261011 -0.0045922343 -0.014585373 0.0068036215 0.005125084
-0.0033263543 0.003270305 0.00014634804 0.010788469 -0.026533697 0.0066991723 -0.001013734 -0.022308206
-0.009292523 0.00679343 0.013125385 0.008925195 0.0024501325 -0.028606923 0.005524509 0.0060886596
2.2628707e-05 0.0067220987 -0.024043046 0.005301149 -0.0054645394 0.015973054 0.01764096 -0.009532466
-0.011525837 -0.010412208 -0.0010323934 -0.00296113 0.00748463 0.010967576 0.002627045 0.002483021
0.0065584313 -0.0180595 -0.004231049 0.018131133 0.010746032 0.013211854 0.006778768 -0.009224411
0.01608701 0.0021710105 0.003924687 0.003056143 -0.018146586 -0.017025655 -0.002051255 -0.0040657027
0.00064425304 -0.006987643 0.004031828 -0.014637183 -0.0012503169 -0.0027543383 -0.0017295238 -0.0039046032
-0.0049284883 0.015000792 -0.025518212 0.0012000472 -0.021190342 0.010903201 0.012686563 -0.0029473912
-0.0075162784 -0.0071683903 0.009364859 0.0061660144 -0.0083950255 0.001669094 0.00036324625 0.010102713
0.015652144 0.01936746 -0.0075732884 0.004236085 0.012103615 -0.0031619282 0.009224898 6.315088e-05
0.010846295 0.010576486 0.008998933 -0.015127012 -0.013267736 -0.006155628 0.0052752723 -0.019914787
-0.017638845 -0.018484795 -0.017370954 -0.0007993926 -0.014331152 -0.0105196955 -0.02767522 0.003906732
-0.004793229 0.0059978096 0.010089263 -0.0005386797 0.0041535064 0.0048992652 -0.008033201 0.014210995
0.00014623991 -0.0041279215 0.018792763 0.01139123 0.018079478 0.010781753 -0.0034116635 -0.004284532
-0.0019170729 -0.011673396 0.014451195 9.556247e-05 -0.029920286 0.015902651 0.006352124 -0.022078337
-0.021775093 0.0065002353 0.004122622 0.0097415745 0.017936524 0.006649894 -0.0037151242 0.007247295
0.0017450699 0.012875249 -0.0041050576 0.0108381985 -0.013485636 -0.0037926745 0.010277356 0.015900556
0.0040119295 0.0043324973 -0.018290117 -0.0099455835 0.0028913629 0.008354831 -0.00942286 -0.014765819
-0.0102368435 -0.013333291 0.012927983 -0.0014157891 -0.0095122475 -0.0091508385 0.0015364042 0.0012423059
0.0014452838 0.011330358 -0.008708193 -0.00046807656 -0.0077857673 -0.004511853 0.008951952 -0.013887212
0.015451584 0.018291725 0.014378849 0.020220162 0.021161325 0.016602498 -0.007498392 0.00036720306
-0.0010878389 0.007339904 -0.011483386 -0.005178475 0.01313269 0.015693706 0.011576239 0.007530126
-0.024713557 -0.0054150405 0.008791738 -0.015811617 -0.0052389633 -0.014790352 -0.01779841 0.0061158957
0.007966683 0.013049658 0.015325832 0.0048628226 -0.008695653 0.01866257 0.0068310434 -0.008310731
0.017704045 0.009397525 -0.0064515923 -0.009273248 -0.0030430558 0.0023769834 -0.000230607 0.00085185666
-0.0018718133 0.012329081 -0.004328562 0.010544483 0.009955306 0.00028002774 0.0046578418 0.010560596
0.009252652 0.0097611025 -0.006501614 -0.011268381 0.0061642868 -0.03705347 0.0004985481 -0.021747205
0.0033879175 -0.004647047 0.021371823 0.0032046621 -0.010632654 -0.0072028846 -0.00600606 0.0039159944
-0.019666232 -0.010286676 -0.0005029024 0.002057951 0.018479904 0.0026934065 0.004384859 0.006562687
-0.010210126 0.0043592895 -0.023400113 -0.021857351 -0.010639445 -0.008354382 -0.012164376 -0.007558614
0.00042203738 0.008192029 0.0152678685 0.02001713 -0.0011487936 0.0013145331 -0.0140170725 -0.0070672077
00000000: 7372 603c e1c2 d73b ce3d 9d3c d035 853c
00000010: 747a 96bb 7df7 6ebc eaf0 de3b 52f0 a73b
00000020: f7fe 59bb 9d52 563b 0175 1939 1ec2 303c
00000030: 325d d9bc bb84 db3b 45df 84ba b3bf b6bc
00000040: ab3f 18bc 6c9b de3b db0b 573c fb3a 123c
00000050: 6792 203b 1159 eabc f106 b53b 6183 c73b
00000060: c7d2 bd37 0d45 dc3b ecf5 c4bc 43b5 ad3b
00000070: e10f b3bb ecd9 823c c683 903c 0f2e 1cbc
00000080: ddd6 3cbc f797 2abc 6051 87ba 850f 42bb
00000090: a141 f53b 59b1 333c 802a 2c3b 2eba 223b
000000a0: 1ce8 d63b 84f1 93bc 9da4 8abb be87 943c
000000b0: 2010 303c 8876 583c 6d20 de3b fc21 17bc
000000c0: e8c8 833c 8347 0e3b a99a 803b 9249 483b
000000d0: 26a8 94bc 6379 8bbc 596e 06bb 9639 85bb
000000e0: 17e3 283a 99f8 e4bb 6d1d 843b ccd0 6fbc
000000f0: ace1 a3ba 2182 34bb 30b1 e2ba 5fe4 7fbb
00000100: 287f a1bb e2c5 753c 920b d1bc e74a 9d3a
00000110: 5e97 adbc 57a3 323c 4ddb 4f3c 0529 41bb
00000120: 1d4b f6bb d1e4 eabb 116f 193c 470c ca3b
00000130: 4a8b 09bc 80c5 da3a 1672 be39 d985 253c
00000140: ed38 803c 82a8 9e3c 5929 f8bb dbce 8a3b
00000150: 3e4e 463c 5a38 4fbb 0724 173c df6f 8438
00000160: a9b4 313c ff48 2d3c 4370 133c 49d7 77bc
00000170: eb60 59bc 26b5 c9bb 31dc ac3b 5624 a3bc
00000180: 577f 90bc 6d6d 97bc 884d 8ebc 548e 51ba
00000190: 35cd 6abc cd5a 2cbc 25b7 e2bc 0b04 803b
000001a0: 8510 9dbb 4689 c43b 704d 253c 2f36 0dba
000001b0: 231a 883b 048a a03b b09d 03bc 3cd5 683c
000001c0: fa57 1939 8443 87bb 48f3 993c 48a2 3a3c
000001d0: 6a1b 943c f3a5 303c 3796 5fbb 4265 8cbb
000001e0: 4b46 fbba c641 3fbc b4c4 6c3c b668 c838
000001f0: 631b f5bc 4746 823c 7a25 d03b a1dd b4bc
00000200: ae61 b2bc edff d43b 0f17 873b 209b 1f3c
00000210: 9eef 923c 5be7 d93b 7179 73bb b87a ed3b
00000220: d4ba e43a b5f2 523c b883 86bb b392 313c
00000230: dbf2 5cbc 858e 78bb 5b62 283c e241 823c
00000240: 8176 833b 9ff7 8d3b 28d5 95bc cdf2 22bc
00000250: 057d 3d3b b3e2 083c 5762 1abc 55ec 71bc
00000260: 6fb8 27bc e073 5abc e4cf 533c 0092 b9ba
00000270: 42d9 1bbc 66ed 15bc 2c61 c93a ded4 a23a
00000280: ad6f bd3a f7a2 393c cfac 0ebc 2c68 f5b9
00000290: c01f ffbb 2bd8 93bb 35ab 123c 3087 63bc
000002a0: a428 7d3c 87d8 953c 4495 6b3c c1a4 a53c
000002b0: 845a ad3c f601 883c 12b5 f5bb 2985 c039
000002c0: d195 8eba 9483 f03b d024 3cbc 32b0 a9bb
000002d0: 7f2a 573c 1690 803c 44aa 3d3c 46bf f63b
000002e0: 1674 cabc a770 b1bb 390b 103c 5d87 81bc
000002f0: 9cab abbb 3c53 72bc f9cd 91bc da67 c83b
00000300: b186 023c 3cce 553c 3319 7b3c 5058 9f3b
00000310: 3678 0ebc 3fe2 983c f2d6 df3b bb29 08bc
00000320: 1308 913c 14f8 193c e167 d3bb d2ee 17bc
00000330: 016e 47bb 2ac7 1b3b 18cf 71b9 224f 5f3a
00000340: a257 f5ba eaff 493c 9cd6 8dbb c4c2 2c3c
00000350: 941b 233c b0d0 9239 cfa0 983b 5a06 2d3c
00000360: 6f98 173c 08ed 1f3c 7e0b d5bb 049f 38bc
00000370: c9fd c93b 61c5 17bd ffb0 023a 3227 b2bc
00000380: d307 5e3b 4146 98bb f613 af3c 4f05 523b
00000390: 9534 2ebc 2d06 ecbb 7cce c4bb be51 803b
000003a0: 141b a1bc 7289 28bc 35d5 03ba b0de 063b
000003b0: 2b63 973c dd83 303b ddae 8f3b cf0b d73b
000003c0: 5f48 27bc 5fd8 8e3b 98b1 bfbc 300e b3bc
000003d0: 1151 2ebc d1e0 08bc 174d 47bc 40ae f7bb
000003e0: e644 dd39 dc37 063c 1526 7a3c f7fa a33c
000003f0: 1e93 96ba 694c ac3a dda7 65bc 0994 e7bb

gat1.lin.weight f4 [256, 49]
0.011715772 0.07649387 -0.11416915 0.10743662 -0.08029991 0.077703305 0.025931286 -0.03580716
0.06740477 -0.06359078 0.044852946 -0.040649362 -0.10956587 0.04847219 0.08927512 0.044335797
-0.08180751 -0.12496245 0.029108232 0.06788601 0.06251937 -0.12181988 -0.11416964 -0.13153303
-0.007098541 -0.02319202 -0.09318952 0.07674566 0.08813504 0.09177437 0.11190209 -0.13451636
0.032636967 -0.011780555 0.00829424 -0.008691292 0.035168976 0.0661503 0.060287867 -0.032904238
0.13382162 -0.019313594 -0.10122354 0.0773444 0.11372236 0.026638735 0.10035775 0.025319243
-0.10135777 0.15342143 -0.12979347 -0.03839254 0.09554937 0.069943175 0.059847854 0.0543726
-0.13119747 -0.0989231 0.1237949 0.09458254 -0.124898665 0.06615461 -0.0036262728 0.06901508
0.13140641 -0.0063343043 0.122078635 -0.0221147 -0.011820975 0.022956567 0.051348027 0.1202876
-0.021532184 0.119499624 0.105472066 -0.112770095 -0.09315654 -0.009716086 -0.09528216 0.10865978
0.0021742096 0.10246085 -0.031188022 -0.0025146594 0.1130931 -0.14612308 0.021693494 -0.13363044
-0.08331678 -0.049737785 -0.0038230675 -0.0427592 0.15246014 -0.07922694 0.08187562 0.07995874
-0.11432567 0.07968614 0.044666212 -0.057901293 -0.031341072 0.072662316 0.036956403 -0.10155995
0.10941562 0.049304347 0.06165883 0.03943682 -0.13901103 -0.12517051 0.023090376 -0.058710415
0.122828305 0.03257077 -0.07440063 0.10936007 0.00044538826 -0.008412447 -0.1208919 -0.1257016
-0.056094434 0.0986748 -0.1293212 -0.058649004 -0.0021630484 -0.056833535 0.067772545 -0.01219862
-0.0425814 -0.092953205 0.054694902 -0.07479858 0.09920401 0.09663237 0.054859642 0.07894331
-0.11212731 -0.08281111 0.04768736 -0.062300038 -0.12629566 -0.095342085 0.05889522 -0.01897605
0.10532835 0.041420694 -0.06831253 -0.12111765 -0.12869987 0.024379676 0.094017774 -0.10037291
-0.030539855 0.03789051 -0.11496052 -0.11641775 0.060844596 0.12765078 0.09391073 -0.057292648
0.10743291 0.053667378 -0.09587708 -0.035740234 -0.12377259 0.11467422 0.09192468 0.10731528
0.003836558 -0.030784227 0.009890739 0.025118826 0.07697899 -0.0132957455 -0.005042272 0.056934062
0.038221173 -0.14849192 -0.08105601 -0.08418972 -0.12873621 0.07685471 0.08924172 0.046739172
0.004463005 0.025203317 0.055346403 -0.11268602 -0.088260755 0.14459895 0.1074511 0.082368046
0.033318255 -1.3622442e-05 -0.1210226 -0.0131272795 0.13557641 -0.021523757 -0.09870592 0.07791736
-0.106354795 -0.0915114 0.11028458 0.011824989 -0.043296423 -0.022685278 0.112466335 0.081860796
0.06658571 0.10743824 0.014334875 0.028438915 0.042297594 -0.050302632 0.044313055 0.10684525
-0.02449743 0.041740056 0.13400204 -0.0018011484 -0.13435395 0.024343956 0.08744481 0.09390632
-0.01672347 0.07935749 -0.08987316 -0.12778902 0.08271016 -0.08628789 -0.07772294 0.1063486
-0.0506516 0.028751252 0.11217454 0.13510297 0.104608454 -0.080868214 0.018309832 0.14893194
0.0043070684 -0.06447458 0.13115788 -0.00077124883 -0.1289328 -0.0067200176 -0.11711664 0.042899996
-0.01290642 -0.11810593 0.037571475 -0.11897846 -0.14107338 -0.04547826 -0.047320373 -0.0863992
00000000: 82f3 3f3c d1a8 9c3d 84d1 e9bd bb07 dc3d
00000010: 4774 a4bd e922 9f3d d96d d43c 87aa 12bd
00000020: 830b 8a3d e23b 82bd b9b7 373d f27f 26bd
00000030: 1264 e0bd c68a 463d e0d5 b63d 7499 353d
00000040: b28a a7bd 50ec ffbd 6374 ee3c d207 8b3d
00000050: 280a 803d b47c f9bd c6d1 e9bd 98b0 06be
00000060: e19a e8bb 31fd bdbc 26da bebd d42c 9d3d
00000070: 2580 b43d 33f4 bb3d ec2c e53d a8be 09be
00000080: 57ae 053d 3b03 41bc 90e4 073c ec65 0ebc
00000090: 580d 103d cf79 873d 69f0 763d 98c6 06bd
000000a0: 8908 093e 8b37 9ebc 4a4e cfbd be66 9e3d
000000b0: 45e7 e83d 7a39 da3c 5d88 cd3d 4d6a cf3c
000000c0: aa94 cfbd 821a 1d3e 94e8 04be 7f41 1dbd
000000d0: 63af c33d 5e3e 8f3d 0623 753d ceb5 5e3d
000000e0: a158 06be 3298 cabd 2e88 fd3d 7eb4 c13d
000000f0: dfca ffbd 117c 873d c3a6 6dbb c757 8d3d
00000100: 678f 063e ff8f cfbb 5d04 fa3d e329 b5bc
00000110: c3ac 41bc 690f bc3c 4f52 523d 5859 f63d
00000120: 4364 b0bc 38bc f43d bd01 d83d 02f4 e6bd
00000130: dbc8 bebd 3830 1fbc 4b23 c3bd 0589 de3d
00000140: 2f7d 0e3b fed6 d13d 067e ffbc fccc 24bb
00000150: 5b9d e73d 4aa1 15be 8eb6 b13c 6bd6 08be
00000160: fda1 aabd d9b9 4bbd 6e8c 7abb 4524 2fbd
00000170: 831e 1c3e bc41 a2bd 68ae a73d 68c1 a33d
00000180: 9423 eabd 7d32 a33d ebf3 363d e829 6dbd
00000190: 7f5f 00bd fbcf 943d 995f 173d aafe cfbd
000001a0: 4c15 e03d 5bf3 493d f88d 7c3d 8188 213d
000001b0: e858 0ebe b32c 00be 0728 bd3c 557a 70bd
000001c0: 688d fb3d ed68 053d 5c5f 98bd 2cf8 df3d
000001d0: 0083 e939 5cd4 09bc 2c96 f7bd ecb7 00be
000001e0: 47c3 65bd 0316 ca3d c76c 04be f039 70bd
000001f0: eec1 0dbb 48ca 68bd 55cc 8a3d b8dc 47bc
00000200: d669 2ebd 405e bebd c307 603d ff2f 99bd
00000210: 792b cb3d 31e7 c53d 81b4 603d 08ad a13d
00000220: 01a3 e5bd df98 a9bd d253 433d 532e 7fbd
00000230: a653 01be b642 c3bd 1d3c 713d a973 9bbc
00000240: 64b6 d73d bfa8 293d 71e7 8bbd 880c f8bd
00000250: e6c9 03be e3b7 c73c 648c c03d 5090 cdbd
00000260: b82e fabc 1433 1b3d 6c70 ebbd 6e6c eebd
00000270: 2f38 793d e3b6 023e 4554 c03d b2ab 6abd
00000280: c905 dc3d 53d2 5b3d 345b c4bd 5a64 12bd
00000290: 7c7c fdbd 51da ea3d 0243 bc3d 1dc8 db3d
000002a0: c36e 7b3b 342f fcbc c40c 223c ffc5 cd3c
000002b0: 29a7 9d3d 66d6 59bc a539 a5bb b133 693d
000002c0: ce8d 1c3d 440e 18be b200 a6bd a96b acbd
000002d0: 6dd3 03be 0166 9d3d 5dc4 b63d 9371 3f3d
000002e0: 663e 923b 3077 ce3c e9b2 623d eec7 e6bd
000002f0: 0ec2 b4bd bf11 143e 530f dc3d 94b0 a83d
00000300: b978 083d f18b 64b7 b2da f7bd cd13 57bc
00000310: 8bd4 0a3e 9752 b0bc 5426 cabd 2393 9f3d
00000320: 8bd0 d9bd 546a bbbd e2dc e13d 99bd 413c
00000330: 9757 31bd 7ad6 b9bc c054 e63d a2a6 a73d
00000340: 175e 883d 9408 dc3d d3dc 6a3c baf8 e83c
00000350: 3e40 2d3d 220a 4ebd 9b81 353d afd1 da3d
00000360: d6ae c8bc 9ff7 2a3d d537 093e 8314 ecba
00000370: 1594 09be fa6c c73c 4416 b33d f551 c03d
00000380: a9ff 88bc 2e86 a23d 6b0f b8bd 20db 02be
00000390: f263 a93d b5b7 b0bd 342d 9fbd 4bcd d93d
000003a0: 0d78 4fbd bf87 eb3c c4bb e53d 6f58 0a3e
000003b0: f53c d63d 3c9e a5bd 80fe 953c 9d81 183e
000003c0: 4f22 8d3b 400b 84bd 404e 063e a22d 4aba
000003d0: f606 04be 9833 dcbb d9da efbd e8b7 2f3d
000003e0: 7375 53bc 86e1 f1bd 8ce4 193d fbaa f3bd
000003f0: 8a75 10be 6947 3abd 02d3 41bd 10f2 b0bd

gat2.att_src f4 [1, 4, 64]
0.21801981 0.16230845 0.048268527 0.25663358 0.078590415 0.22726962 -0.16177826 -0.0542143
-0.039630894 0.21135141 0.038737353 0.12461128 0.2055508 -0.20009497 0.24208184 0.122542955
0.19354503 -0.25265586 -0.25690034 -0.1700126 -0.11051013 -0.01942942 -0.047930744 0.24764967
0.019775586 -0.0841956 -0.17819375 -0.1688164 0.18410787 0.1894901 0.27386558 -0.23137312
0.010812707 0.1613058 0.13383536 -0.038192563 -0.13439542 0.032824807 -0.21668015 0.282343
-0.087693274 0.011452533 -0.22563542 0.042562656 -0.22761853 0.24653362 0.26296782 -0.091907986
-0.0893326 0.17753948 -0.24530147 -0.025482895 -0.061009884 0.12310544 -0.2546995 -0.2825324
0.14130585 0.015881978 -0.10660162 0.1934333 0.22123668 0.22213934 -0.17427547 -0.022420038
0.04224731 0.17377162 -0.07632754 -0.24802007 0.062092215 -0.033318847 -0.0939996 0.11652374
0.18418804 -0.16220844 0.17104776 0.21398143 -0.097200744 -0.19070964 0.28266877 -0.18451011
0.09801007 0.25019914 -0.02593683 -0.21699339 0.17725801 -0.11386582 0.28440315 0.0052839685
0.23427385 -0.113951035 0.23720846 -0.1985995 0.07063587 0.12728077 0.057633296 -0.018447246
-0.25056136 0.016644439 0.107201815 0.23851018 -0.032149736 -0.122311294 0.18577269 -0.20116185
0.2536261 0.27954996 -0.010942964 0.011657145 -0.020096863 -0.20131855 -0.11341605 0.24199273
-0.21643798 0.0020653591 -0.12072781 0.12135821 0.26116982 -0.26992527 0.2017233 -0.18850511
-0.090935126 -0.012174449 0.12205658 0.23100603 -0.048284598 0.260865 0.26181948 0.26287052
-0.049931873 -0.14911301 0.07751993 -0.28068578 0.10490852 0.036488943 -0.24438256 -0.22997554
-0.2886815 -0.1861014 -0.22217034 -0.0069069164 0.06052965 -0.19653699 0.0018658801 0.14994346
-0.17000692 0.20672977 -0.22611946 -0.20863047 -0.23358636 -0.15789574 -0.100025065 0.13968645
-0.2112103 0.13608652 0.23589504 0.002889309 -0.12466464 0.054815874 -0.25421745 -0.18042852
-0.06526422 0.101195596 -0.18211381 0.23991194 -0.2196019 0.07650051 0.015443996 0.01527123
-0.028742874 -0.12726836 -0.12004393 0.15834859 -0.11208582 0.12236643 0.02562048 0.035557438
-0.10226395 0.12811832 -0.19672365 -0.0017364967 -0.22642732 0.17408478 0.05795946 0.12730004
0.19957577 -0.24328911 -0.11925157 -0.17346136 -0.10701778 0.051583588 0.1807563 0.09979279
0.2770197 -0.04709183 0.22962026 -0.23654896 0.09676086 -0.21676743 -0.017320119 0.2674361
-0.033026356 -0.002298985 -0.019783271 0.052334078 0.116314895 0.014912094 0.084122084 0.27309048
0.098472506 -0.24896075 0.25965554 -0.07164638 0.2682899 0.119425446 0.25031942 0.13793196
0.028828692 0.22288248 0.053967774 -0.029300945 0.1205732 -0.23175952 0.13127074 0.18030971
-0.04668406 0.09367826 -0.03249324 0.26675937 -0.26143467 0.10199685 -0.15925933 0.07927085
0.060353234 -0.17948535 -0.17142472 -0.06806532 -0.28464708 0.12503852 0.11819271 0.19904225
-0.21303597 0.111530535 0.21370926 0.26694542 0.24835728 0.17411448 0.2787787 0.11100902
-0.2155271 -0.1561822 -0.17064874 -0.092378564 -0.19378684 0.052021716 -0.23383938 0.13926208
00000000: 9640 5f3e 3034 263e 38b5 453d 7a65 833e
00000010: 03f4 a03d 5eb9 683e 33a9 25be d00f 5ebd
00000020: 0154 22bd 816c 583e 0fab 1e3d 3334 ff3d
00000030: e97b 523e b2e5 4cbe 4de4 773e cdf7 fa3d
00000040: ab30 463e 1c5c 81be 7188 83be c817 2ebe
00000050: 2353 e2bd 722a 9fbc 0753 44bd e097 7d3e
00000060: 6900 a23c be6e acbd 6c78 36be 35de 2cbe
00000070: c686 3c3e b109 423e 1c38 8c3e 13ed 6cbe
00000080: c827 313c 592d 253e 230c 093e ce6f 1cbd
00000090: f49e 09be 4e73 063d 67e1 5dbe 438f 903e
000000a0: 8898 b3bd 68a3 3b3c f90c 67be 2e56 2e3d
000000b0: d514 69be 4f73 7c3e b8a3 863e 413a bcbd
000000c0: 03f4 b6bd e9cc 353e 4f30 7bbe 81c1 d0bc
000000d0: 80e5 79bd b41e fc3d f967 82be 16a8 90be
000000e0: 7bb2 103e ec1a 823c f351 dabd 6113 463e
000000f0: de8b 623e 7f78 633e 4575 32be 3aaa b7bc
00000100: 840b 2d3d 30f1 313e 9d51 9cbd f9f8 7dbe
00000110: 6854 7e3d 5879 08bd dd82 c0bd 00a4 ee3d
00000120: ca9b 3c3e f819 26be 2527 2f3e f31d 5b3e
00000130: 2f11 c7bd 6349 43be f6b9 903e 38f0 3cbe
00000140: 81b9 c83d 1a1a 803e 7a79 d4bc 8433 5ebe
00000150: 2083 353e 7c32 e9bd 4a9d 913e 2425 ad3b
00000160: 7ce5 6f3e 295f e9bd c6e6 723e ab5d 4bbe
00000170: 8aa9 903d e455 023e e410 6c3d ae1e 97bc
00000180: 9449 80be eb59 883c a08c db3d 033c 743e
00000190: 71af 03bd 587e fabd 323b 3e3e 5ffd 4dbe
000001a0: 48db 813e 2c21 8f3e 1e4a 33bc 9cfd 3e3c
000001b0: 2da2 a4bc 7326 4ebe ad46 e8bd f1cc 773e
000001c0: eba1 5dbe fa5a 073b 2440 f7bd a78a f83d
000001d0: 0db8 853e a533 8abe 8e90 4e3e 7c07 41be
000001e0: 323c babd 5777 47bc cdf8 f93d d88c 6c3e
000001f0: 12c6 45bd 1990 853e 340d 863e f796 863e
00000200: 5d85 4cbd 15b1 18be c5c2 9e3d 0cb6 8fbe
00000210: 47da d63d 6e75 153d 6c3f 7abe b57e 6bbe
00000220: 10ce 93be 5e91 3ebe 9f80 63be 6a53 e2bb
00000230: f0ed 773d fe40 49be 8c90 f43a c78a 193e
00000240: 4b16 2ebe f8b0 533e dc8b 67be 3aa3 55be
00000250: 4331 6fbe 6caf 21be f1d9 ccbd f709 0f3e
00000260: 8347 58be 445a 0b3e 788e 713e 905a 3d3b
00000270: 2d50 ffbd 9c86 603d ca28 82be 41c2 38be
00000280: 3fa9 85bd a33f cf3d 0b7c 3abe 7aab 753e
00000290: 52df 60be 4dac 9c3d d008 7d3c 2e34 7a3c
000002a0: 2d76 ebbc a352 02be 98d9 f5bd 2226 223e
000002b0: 408d e5bd 409b fa3d 0ae2 d13c ada4 113d
000002c0: c36f d1bd 7331 033e ed71 49be 299b e3ba
000002d0: 90dc 67be 4843 323e e666 6d3d f15a 023e
000002e0: 975d 4c3e c820 79be 2b3a f4bd db9f 31be
000002f0: 232c dbbd 5049 533d 2e18 393e 2a60 cc3d
00000300: 87d5 8d3e 5de3 40bd 9321 6b3e e439 72be
00000310: 8f2a c63d 48f8 5dbe ece2 8dbc 62ed 883e
00000320: a546 07bd 91aa 16bb 8710 a2bc 425c 563d
00000330: 8136 ee3d db51 743c 3348 ac3d 84d2 8b3e
00000340: f4ab c93d 91ef 7ebe 92f1 843e 56bb 92bd
00000350: 4b5d 893e 5495 f43d de29 803e 093e 0d3e
00000360: 262a ec3c 4e3b 643e 500d 5d3d 8908 f0bc
00000370: 15ef f63d 5e52 6dbe d66b 063e 1ca3 383e
00000380: c937 3fbd 63da bf3d a217 05bd af94 883e
00000390: c4da 85be b9e3 d03d e114 23be c158 a23d
000003a0: f434 773d 02cb 37be f689 2fbe d565 8bbd
000003b0: 43bd 91be 190a 003e 050f f23d bbd1 4b3e
000003c0: 1a26 5abe 1f6a e43d 9ad6 5a3e 12ad 883e
000003d0: 5f51 7e3e 114b 323e 15bc 8e3e b258 e33d
000003e0: 23b3 5cbe 3aee 1fbe 8bbe 2ebe f930 bdbd
000003f0: 0f70 46be b914 553d 9773 6fbe b89a 0e3e

gat2.att_dst f4 [1, 4, 64]
-0.2513361 0.1989124 -0.2516498 0.086454004 0.27115342 0.24011073 -0.27175626 0.09157222
-0.052399244 0.0065920325 0.20702511 -0.032088574 -0.083348274 -0.19300418 -0.09282388 0.104579754
0.036551476 -0.05367077 0.21033365 -0.2309694 0.2738363 -0.23505373 -0.12980236 0.00050847646
0.09209648 -0.112799734 -0.2158287 0.024273494 0.07220585 -0.017365403 -0.16752481 -0.12193108
-0.15020767 0.025409954 0.06400174 -0.20336477 0.07311522 -0.010155681 -0.2613286 -0.116352685
-0.11615152 0.10880372 -0.26298374 -0.04645999 -0.10087416 -0.19449462 -0.24670519 0.13830508
0.014483105 0.12018858 0.2719476 0.011579298 0.24448131 0.046351317 0.09633684 -0.05480244
-0.20025186 -0.19203758 -0.1464716 0.008675991 -0.08295461 -0.21434279 -0.22121486 0.023533968
-0.12044281 -0.004181874 -0.26737246 -0.11216727 0.09504419 0.2058497 -0.20872095 0.10819187
0.10805354 0.07934309 -0.048369348 0.09974543 -0.13757269 0.28262156 -0.261095 -0.04947976
0.08964512 0.23563331 0.14784655 -0.2711885 -0.003344275 -0.24288619 -0.09729326 0.27961662
0.08753533 -0.11699566 -0.021285854 0.22084829 -0.12957919 0.2535059 0.12034762 0.19211167
0.2127913 -0.18121229 -0.17564887 0.016074954 0.05932388 0.021073975 -0.10496938 -0.17334591
-0.23237912 0.2558488 0.1659389 0.15992329 -0.22380653 0.2363099 0.28730318 -0.01392373
0.21857749 0.0752106 -0.077340275 -0.2014646 0.12969914 -0.22826931 -0.110951774 -0.17589143
-0.05071983 -0.12622172 -0.26046136 -0.13710693 -0.00080254616 0.24918559 -0.018073093 -0.08879796
0.24592549 0.072646946 0.25423473 0.119727515 0.0030369575 0.104212135 0.20624651 -0.053071123
0.13816063 -0.2811333 -0.17194319 -0.27249083 0.2406955 -0.065366544 0.1921794 0.01780228
-9.5234456e-05 -0.06867145 0.06454851 0.1362911 -0.19495115 -0.23805831 0.26965222 0.15806466
-0.25725958 0.010879041 -0.07683448 0.1099313 -0.23513052 -0.1343929 0.20891328 0.17515421
-0.08287848 0.2703366 0.08408958 0.029930564 -0.26829726 -0.2726951 0.16924262 0.2647125
0.10910723 0.25062972 0.1267003 0.25809476 0.030137336 -0.05805108 0.15954618 -0.15655205
-0.27823323 0.009889691 -0.02064356 -0.2195199 0.11183974 -0.25523245 -0.030857954 -0.13527569
0.21426556 0.19625251 0.03121424 0.12065905 0.06169672 0.21444319 0.2136005 0.0064903214
0.13649207 -0.25782105 0.08119879 0.09107658 -0.046212967 -0.0049118428 0.21706572 -0.005445094
-0.2739952 -0.011505232 0.15012863 -0.0744996 -0.07602393 0.1640435 0.13661939 0.14990291
0.24421091 0.111130424 0.055705238 0.22118644 -0.14406016 0.056919742 0.0425454 -0.091470815
0.22379585 -0.08272093 -0.035936445 -0.23462227 -0.041699685 -0.01174649 0.27107996 0.21574686
-0.14684393 -0.09281496 -0.06432698 -0.23851833 0.2630239 -0.06344634 0.10383145 0.0026281078
-0.04701287 0.19460616 -0.1424206 -0.12444238 0.07431395 -0.20983343 -0.287289 0.087817
-0.196602 -0.036983848 0.22239661 -0.07141164 -0.12579393 -0.14193715 0.12775204 -0.1740104
-0.046440452 0.18586397 -0.22289857 -0.21373083 -0.27742738 0.24437574 -0.20055276 -0.01448805
00000000: 20af 80be b1af 4b3e 3ed8 80be cc0e b13d
00000010: 9fd4 8a3e 96df 753e a323 8bbe 378a bb3d
00000020: 97a0 56bd fa01 d83b 64fe 533e 4f6f 03bd
00000030: 80b2 aabd e3a2 45be 721a bebd e92d d63d
00000040: 00b7 153d e2d5 5bbd b461 573e 3e83 6cbe
00000050: 4634 8c3e edb1 70be e9ea 04be 474b 053a
00000060: 149d bc3d 8c03 e7bd 3302 5dbe 35d9 c63c
00000070: a9e0 933d e441 8ebc a08b 2bbe 01b7 f9bd
00000080: 0ad0 19be 8928 d03c 5813 833d db3e 50be
00000090: 6fbd 953d 0364 26bc ddcc 85be 514a eebd
000000a0: d9e0 edbd 7cd4 de3d cea5 86be d54c 3ebd
000000b0: 1d97 cebd 9929 47be 49a0 7cbe d99f 0d3e
000000c0: 8c4a 6d3c 6e25 f63d b73c 8b3e 19b7 3d3c
000000d0: 4f59 7a3e e1da 3d3d 404c c53d 8678 60bd
000000e0: d30e 4dbe 80a5 44be a7fc 15be be25 0e3c
000000f0: 1be4 a9bd ad7c 5bbe 2686 62be 4fca c03c
00000100: b8aa f6bd 1a08 89bb 0be5 88be f4b7 e5bd
00000110: 87a6 c23d 44ca 523e f2ba 55be b393 dd3d
00000120: 2d4b dd3d a17e a23d f01e 46bd 5547 cc3d
00000130: dbdf 0cbe c6b3 903e 3eae 85be 4aab 4abd
00000140: dc97 b73d dc49 713e 1665 173e 38d9 8abe
00000150: a02b 5bbb 28b7 78be b041 c7bd e929 8f3e
00000160: b945 b33d 6c9b efbd ac5f aebc 0e26 623e
00000170: 68b0 04be 86cb 813e d078 f63d ecb8 443e
00000180: f6e5 593e b78f 39be 4cdd 33be 9faf 833c
00000190: 99fd 723d 54a3 ac3c 30fa d6bd 9781 31be
000001a0: cbf4 6dbe 9dfe 823e e3eb 293e eec2 233e
000001b0: 8a2d 65be 39fb 713e 6719 933e 5b20 64bc
000001c0: c7d2 5f3e 0408 9a3d 9464 9ebd bc4c 4ebe
000001d0: dacf 043e 6ebf 69be af3a e3bd e21c 34be
000001e0: 99bf 4fbd 4440 01be 315b 85be c265 0cbe
000001f0: f661 52ba 822a 7f3e 060e 94bc b4db b5bd
00000200: e4d3 7b3e ecc7 943d 0e2b 823e b333 f53d
00000210: b107 473b 2c6d d53d 4932 533e 1b61 59bd
00000220: fb79 0d3e b4f0 8fbe e011 30be eb83 8bbe
00000230: e278 763e e5de 85bd adca 443e 16d6 913c
00000240: 9cb8 c7b8 9ea3 8cbd 0232 843d e58f 0b3e
00000250: 46a1 47be 8fc5 73be db0f 8a3e b4db 213e
00000260: 87b7 83be 013e 323c 655b 9dbd a923 e13d
00000270: 0ec6 70be 4b9e 09be 5ded 553e a05b 333e
00000280: 31bc a9bd 8f69 8a3e 2837 ac3d f130 f53c
00000290: 425e 89be b19e 8bbe f04d 2d3e 6688 873e
000002a0: 9d73 df3d 8a52 803e b9bd 013e ff24 843e
000002b0: 93e2 f63c f8c6 6dbd 1360 233e 2e4f 20be
000002c0: 9674 8ebe 5f08 223c af1c a9bc d3c9 60be
000002d0: 3c0c e53d d4ad 82be d2c9 fcbc b685 0abe
000002e0: 6e68 5b3e 6bf6 483e 01b5 ff3c 181c f73d
000002f0: b3b5 7c3d ff96 5b3e 17ba 5a3e c3ac d43b
00000300: 94c4 0b3e 1f01 84be 8d4b a63d 5c86 ba3d
00000310: cf49 3dbd 86f3 a0bb 7a46 5e3e c26c b2bb
00000320: 1949 8cbe 7180 3cbc 52bb 193e 3f93 98bd
00000330: 6fb2 9bbd 05fb 273e f4e5 0b3e 2680 193e
00000340: 6d12 7a3e 5998 e33d 2d2b 643d b37e 623e
00000350: 8284 13be ad24 693d 1644 2e3d 0d55 bbbd
00000360: bd2a 653e 9769 a9bd 1832 13bd d240 70be
00000370: 4acd 2abd 5a74 40bc feca 8a3e bfec 5c3e
00000380: 415e 16be c515 bebd ddbd 83bd 263e 74be
00000390: 12ab 863e 28f0 81bd 95a5 d43d 553c 2c3b
000003a0: 9190 40bd d646 473e b5d6 11be a6db febd
000003b0: ea31 983d 93de 56be 8b17 93be 66d9 b33d
000003c0: 0952 49be 607c 17bd f0bb 633e 4440 92bd
000003d0: 20d0 00be f957 11be 6ed1 023e c82f 32be
000003e0: 5838 3ebd 2053 3e3e 863f 64be 41dc 5abe
000003f0: f60a 8ebe a23d 7a3e b45d 4dbe 495f 6dbc

gat2.bias f4 [256]
-0.021583946 -0.0030655975 -0.00867712 0.0154002635 0.013825945 -0.0008876756 0.0043997313 0.025390362
0.00026780422 -0.0022631253 -0.00054498547 -0.005901317 -0.01859469 -0.024360977 -0.021973897 0.0036382654
0.010870092 0.014985354 -0.020563373 0.013190759 -0.010433377 -0.0037687307 0.0017498395 0.01257842
0.012679614 -0.01877455 0.012307323 0.0056243734 0.004581851 -0.0033838658 -0.01686809 -0.008729988
-0.00279119 -0.005575652 -0.011303658 -0.006458833 0.00031463776 -0.008078685 0.028184468 0.014296382
-0.008232339 -1.6113838e-05 -0.0030651737 0.020458536 0.0051444327 -0.017771129 0.0015536243 -0.009704031
0.0102499155 0.015043227 0.0024319359 0.003275684 0.0035752517 0.010626623 -0.00091252965 -0.024866033
0.02193625 -0.015170899 -0.0068848594 0.0057608425 0.007954494 0.0072837956 0.0069932644 0.0036983974
0.014962491 -0.005307291 -0.0059793894 -0.0069212783 -0.010021726 -0.014554363 -0.02461038 0.010461195
-0.019463418 0.009121119 -0.012903794 0.012727715 -0.01584673 -0.011853584 -0.003254142 0.019249117
0.027275596 -0.01202033 -0.001292306 -0.009335614 -0.011717064 -0.013267736 -0.0070361835 -0.016679395
-0.0124835875 0.0025317005 0.014308279 0.010965282 -0.0011375243 0.009450797 0.0024935105 0.0027289526
0.009361673 0.007883105 0.004320799 -0.0015906163 -0.0014914852 0.008439653 -0.0062674154 0.009755179
-0.000113875016 -0.018252468 0.0037405752 0.009941968 -0.001953671 0.010806389 0.0055455146 0.0054605706
-0.006014496 0.020260612 -0.00082411524 0.019275261 0.0056458428 -0.0037366925 -0.013495577 0.0052560377
-0.0031700958 -0.02214962 0.007329034 -0.0015908447 0.010939904 -0.024190508 0.0012077395 -0.011042885
-0.0034993435 -0.00024152613 0.0006169831 0.023648536 -0.01330157 -0.016190363 -0.0024288918 0.012569657
0.00020858076 -0.00242429 -0.0026096725 0.00030607244 -0.010899157 0.0003891519 -0.004341038 0.016574021
-0.0020398758 -0.014303228 0.014508458 -0.016256105 0.006161015 0.024749663 -0.00537007 0.008130643
-0.0074260742 0.002023083 0.00832251 -0.0058521642 0.012828048 0.00603343 0.00031288769 -0.0051409826
-0.015929174 0.0071570105 0.0066443626 -0.018111961 0.001701565 0.0112988725 0.0031462114 -0.00953363
0.005843206 -0.005797383 -0.012780289 0.010338365 0.004276397 -0.014161793 -0.010428079 -0.0118854875
-0.0017513192 0.016781382 0.013033953 0.0073151533 -0.011023211 -0.012278834 -0.01748617 0.00051767996
-0.0053425785 0.0012295194 0.005849883 -0.005031931 0.011197091 0.008139956 -0.01016711 0.0072130724
0.006571099 -0.02270978 0.006849213 -0.015955167 -0.009339476 -0.02083272 -0.004726819 -0.014639171
0.015411909 0.006950878 -0.0023685915 -0.0022322417 0.0041503236 0.004379461 0.0040896004 -0.004468265
-0.024654737 -0.027166883 0.009058305 -0.014403301 -0.0076169237 0.009692687 0.0051147793 -0.012807034
-0.020897422 -0.0011016577 -0.01495291 -0.0036134962 -0.019915748 0.0015345804 -0.020314906 0.009886846
0.010889115 0.020218598 -9.09755e-05 -0.0032886532 0.007088359 0.013198671 -0.00301679 0.014600442
0.021741007 0.010227341 0.008071927 -0.000470131 0.0033789643 0.0069153598 -0.0077571925 -0.0048151896
-0.01084603 -0.00070893136 -0.011066055 0.0024475472 0.009009301 -0.0109348 0.015484672 -0.0027266042
-0.0011176608 0.0067067444 0.011108253 -0.0042943885 -0.012509702 -0.008537425 -0.019692227 -0.0011071218
00000000: d1d0 b0bc 31e8 48bb 7b2a 0ebc 6351 7c3c
00000010: 3786 623c e7b2 68ba 9f2b 903b 73ff cf3c
00000020: 1368 8c39 f150 14bb 5bdd 0eba d65f c1bb
00000030: e453 98bc ac90 c7bc 9a02 b4bc f76f 6e3b
00000040: 7818 323c 2185 753c 8574 a8bc 0e1e 583c
00000050: c1f0 2abc cffc 76bb df5a e53a b815 4e3c
00000060: 28be 4f3c 16cd 99bc a7a4 493c aa4c b83b
00000070: 5a23 963b d9c3 5dbb f32e 8abc 3908 0fbc
00000080: 66ec 36bb f5b3 b6bb fa32 39bc 9ea4 d3bb
00000090: f7f5 a439 765c 04bc 1de3 e63c 5f3b 6a3c
000000a0: efe0 06bc 342c 87b7 15e1 48bb a998 a73c
000000b0: a192 a83b c294 91bc fba2 cb3a a8fd 1ebc
000000c0: 43ef 273c de77 763c 1d61 1f3b dcac 563b
000000d0: c54e 6a3b 4a1b 2e3c d436 6fba dab3 cbbc
000000e0: a7b3 b33c 5d8f 78bc 639a e1bb 73c5 bc3b
000000f0: 9153 023c e8ac ee3b c127 e53b d060 723b
00000100: 3c25 753c c9e8 adbb c1ee c3bb e4cb e2bb
00000110: 2a32 24bc 6c75 6ebc b59b c9bc 6f65 2b3c
00000120: bf71 9fbc bf70 153c 6f6a 53bc e887 503c
00000130: 00d1 81bc 8935 42bc 7143 55bb 53b0 9d3c
00000140: 1271 df3c ebf0 44bc 9862 a9ba 67f4 18bc
00000150: eef8 3fbc eb60 59bc c98f e6bb 3aa3 88bc
00000160: f687 4cbc e3ea 253b 466d 6a3c baa7 333c
00000170: fb18 95ba 84d7 1a3c 2a6a 233b 3ad8 323b
00000180: b461 193c 2428 013c 7d95 8d3b 3a7c d0ba
00000190: f07d c3ba 7846 0a3c e45e cdbb 30d4 1f3c
000001a0: 2fd0 eeb8 3386 95bc 7024 753b a3e3 223c
000001b0: 2909 00bb 480d 313c 26b7 b53b 96ee b23b
000001c0: 4015 c5bb 95f9 a53c 7009 58ba 27e7 9d3c
000001d0: c300 b93b 4ce3 74bb 8d1c 5dbc d73a ac3b
000001e0: 62c1 4fbb 1f73 b5bc 6528 f03b e483 d0ba
000001f0: 483d 333c 2c2b c6bc 034d 9e3a 37ed 34bc
00000200: 3e55 65bb 2d42 7db9 09bd 213a 93ba c13c
00000210: d4ee 59bc a7a1 84bc 0b2e 1fbb f6f0 4d3c
00000220: 79b6 5a39 d6e0 1ebb 0a07 2bbb 5978 a039
00000230: 6192 32bc 1507 cc39 443f 8ebb 3ec6 873c
00000240: 70af 05bb 1658 6abc e2b4 6d3c 862b 85bc
00000250: 57e2 c93b cebf ca3c 6af7 afbb 6336 053c
00000260: 6d56 f3bb b395 043b 235b 083c 83c3 bfbb
00000270: bc2c 523c 14b4 c53b 130b a439 b075 a8bb
00000280: e67d 82bc 5b85 ea3b f4b8 d93b 895f 94bc
00000290: 0c07 df3a e81e 393c ab30 4e3b f132 1cbc
000002a0: 5d78 bf3b f9f7 bdbb 6b64 51bc 3f62 293c
000002b0: 0521 8c3b dd06 68bc 89da 2abc 59bb 42bc
000002c0: 858c e5ba 1c79 893c 5c8c 553c f4b3 ef3b
000002d0: b39a 34bc 2a2d 49bc 283f 8fbc eab4 073a
000002e0: cc10 afbb d327 a13a 60b0 bf3b e6e2 a4bb
000002f0: 0174 373c 735d 053c f393 26bc a35b ec3b
00000300: 6052 d73b dc09 babc 5d6f e03b 69b4 82bc
00000310: 9a04 19bc 61a9 aabc 6fe3 9abb 22d9 6fbc
00000320: 3b82 7c3c 31c4 e33b 5f3a 1bbb cd4a 12bb
00000330: 70ff 873b 9581 8f3b 0e02 863b 866a 92bb
00000340: bbf8 c9bc 158d debc 4969 143c d3fb 6bbc
00000350: 6397 f9bb 13ce 1e3c e199 a73b 98d4 51bc
00000360: 1231 abbc 8065 90ba 0dfd 74bc 68d0 6cbb
00000370: 5a26 a3bc f923 c93a 726b a6bc 70fc 213c
00000380: 4268 323c 79a1 a53c 1aca beb8 7286 57bb
00000390: 7745 e83b 3d3f 583c 56b5 45bb b136 6f3c
000003a0: 321a b23c 9490 273c 1e40 043c ea7b f6b9
000003b0: 9d71 5d3b 3e9a e23b 0c30 febb bdc8 9dbb
000003c0: 8cb3 31bc 94d7 39ba 664e 35bc 0767 203b
000003d0: bf9b 133c e027 33bc 6cb3 7d3c d4b0 32bb
000003e0: 797e 92ba 40c4 db3b 64ff 353c f1b7 8cbb
000003f0: 7ef5 4cbc 8ee0 0bbc 9851 a1bc d81c 91ba
