Analyses/models/Scenario3_12h/gnn_fixed.pth (torch, 402911 bytes, 15 tensors)

gat1.att_src f4 [1, 4, 64]
-0.088229954 0.00020624386 -0.044210937 0.13169187 -0.15014914 0.022222714 -0.13244784 -0.2317318
-0.0682919 0.04943236 0.06351886 -0.1841758 -0.23313214 0.091932066 -0.015993757 -0.2358738
0.23447083 0.12669149 0.102084816 0.07152486 -0.09358898 -0.09513322 0.22311471 -0.12800318
-0.04401238 0.03449666 0.0048868447 0.21464147 0.120821364 -0.020893112 -0.19759154 0.23759016
0.21651255 -0.10191467 -0.0540948 -0.06955759 0.26548073 0.17803136 0.25102392 -0.241413
0.14181463 0.2599478 -0.1256455 -0.15207061 0.21717647 -0.19170232 -0.025583087 0.056354232
-0.09253631 0.15411676 0.10439041 -0.014382008 -0.043063127 -0.25030828 0.0038304215 -0.16703574
0.14683266 -0.12323984 0.03758236 -0.15849662 -0.26321208 0.18941109 0.26148704 0.0034071212
0.24850494 0.16505569 -0.09825324 0.10366035 0.28434813 -0.0035447567 0.08204793 -0.10535426
0.17478384 0.2650445 -0.24759471 0.025553355 -0.17691486 0.060763575 0.17103438 -0.10032788
-0.064213835 -0.27842322 0.050033346 -0.07919506 -0.19643526 -0.04914691 0.07295626 0.03586738
0.1549286 -0.030518046 0.12933093 0.17600858 0.111996576 -0.08850945 -0.13814552 -0.114175804
0.024192734 0.19390793 0.19402651 0.04054707 -0.13517392 -0.105583616 0.09260959 -0.14725862
0.25662562 -0.2145173 0.13011907 0.2664898 -0.19251132 0.01543981 -0.2577812 0.15866464
0.18906364 -0.01974396 0.024779717 0.07623904 -0.015467447 0.1848377 -0.017894372 0.03441187
0.06096893 -0.23031409 -0.2715808 -0.23542985 -0.24229424 0.09228358 0.24913442 -0.034594588
-0.080056936 -0.03640174 0.056502108 -0.08611904 0.23809768 -0.0022834064 -0.01691686 -0.2131206
0.0664999 0.23242535 -0.15876459 -0.16384579 -0.08049772 0.13053061 0.2216958 0.22688282
-0.13854387 -0.11857518 -0.19357593 -0.00842051 -0.105548225 -0.23769285 -0.20701267 0.18414977
0.13775857 0.111579016 0.17974661 -0.11352987 -0.06782739 0.039097853 0.28676403 0.11002573
0.13434999 -0.044453725 0.025545515 0.14028732 -0.13761945 0.15969975 -0.12188431 -0.202405
-0.015566299 -0.06429469 -0.28028235 0.20683421 0.023468344 0.20644902 0.04186126 -0.23833801
0.14065357 -0.11987839 -0.022577234 0.13509479 -0.09064754 -0.06631962 -0.02011913 0.26824543
0.18903057 0.11831364 -0.21649905 0.14508913 -0.0775483 -0.22805656 0.20067428 0.13033843
-0.033433326 0.09800819 -0.045363244 0.115677066 -0.059531543 -0.08911574 0.059431855 0.17307149
-0.021736648 0.20088266 -0.25757584 -0.091529936 -0.13213745 -0.21854565 -0.24757081 0.21634981
0.13104269 -0.16803105 -0.060019094 -0.04243152 0.13976777 -0.08091825 0.254222 0.11568205
0.021244641 0.042615175 0.03565675 -0.21256803 0.057519145 0.2557894 -0.010078401 0.23231384
0.26652208 -0.13403915 -0.1433138 0.12097915 -0.09988921 0.008705734 0.0010594338 -0.07976615
-0.05941816 0.0040484755 -0.10384313 0.20078845 0.15748349 0.049426086 -0.02393991 -0.08683652
0.03239498 -0.119575955 0.22746243 0.042089056 0.19890438 0.11040973 -0.16918375 0.084127255
-0.0874022 0.14755972 0.014877232 0.1660363 -0.03456246 -0.11733059 -0.09787648 0.0027337135
00000000: e8b1 b4bd 2a43 5839 8716 35bd 3cda 063e
00000010: b2c0 19be 690c b63c 68a0 07be 1a4b 6dbe
00000020: a0dc 8bbd 9679 4a3d 2d16 823d 9598 3cbe
00000030: 31ba 6ebe e146 bc3d 5705 83bc e788 71be
00000040: 1f19 703e 6abb 013e d811 d13d a07b 923d
00000050: 94ab bfbd 35d5 c2bd 2f78 643e 4413 03be
00000060: 5346 34bd 5f4c 0d3d d321 a03b f9ca 5b3e
00000070: 3171 f73d 0828 abbc 7055 4abe d64a 733e
00000080: 77b5 5d3e a3b8 d0bd 8292 5dbd 3674 8ebd
00000090: 17ed 873e da4d 363e 3586 803e f834 77be
000000a0: db37 113e e117 853e 37a9 00be 66b8 1bbe
000000b0: 8263 5e3e 9d4d 44be 9f93 d1bc b2d3 663d
000000c0: ad83 bdbd c9d0 1d3e a4ca d53d 84a2 6bbc
000000d0: f662 30bd 6828 80be cf07 7b3b 6b0b 2bbe
000000e0: 4d5b 163e 2b65 fcbd f6ef 193d f04c 22be
000000f0: bcc3 86be fbf4 413e a1e1 853e 024a 5f3b
00000100: 1478 7e3e 5c04 293e ff38 c9bd e14b d43d
00000110: 1496 913e 264f 68bb bf08 a83d f9c3 d7bd
00000120: 89fa 323e eab3 873e 7889 7dbe 4555 d13c
00000130: 2b29 35be 3ae3 783d a323 2f3e b478 cdbd
00000140: 8b82 83bd 7d8d 8ebe c4ef 4c3d 0531 a2bd
00000150: 5326 49be 454e 49bd 176a 953d ade9 123d
00000160: 9aa5 1e3e fb00 fabc 546f 043e 983b 343e
00000170: 765e e53d 7144 b5bd 0576 0dbe 01d5 e9bd
00000180: d72f c63c cd8f 463e e3ae 463e af14 263d
00000190: 086b 0abe 393c d8bd 19aa bd3d f7ca 16be
000001a0: 6f64 833e 6caa 5bbe ef3d 053e 5a71 883e
000001b0: b021 45be 42f7 7c3c e6fb 83be fc78 223e
000001c0: e699 413e 16be a1bc d5fe ca3c 3723 9c3d
000001d0: 2d6b 7dbc 1846 3d3e 3897 92bc 76f3 0c3d
000001e0: 8fba 793d 75d7 6bbe a30c 8bbe 8614 71be
000001f0: fb1b 78be 2cff bc3d 181d 7f3e 0eb3 0dbd
00000200: e4f4 a3bd fe19 15bd c16e 673d 2e5f b0bd
00000210: e1cf 733e 34a5 15bb 3a95 8abc 493c 5abe
00000220: 1931 883d e900 6e3e 2f93 22be 31c7 27be
00000230: fddb a4bd d1a9 053e 3904 633e f853 683e
00000240: 72de 0dbe 8bd7 f2bd c538 46be 2ef6 09bc
00000250: ab29 d8bd c165 73be 21fb 53be c291 3c3e
00000260: 9510 0d3e 8a83 e43d 7f0f 383e 5982 e8bd
00000270: 16e9 8abd 1225 203d bcd2 923e 2c55 e13d
00000280: 0b93 093e 1c15 36bd d444 d13c 7ba7 0f3e
00000290: 1dec 0cbe 5588 233e 7b9e f9bd 4243 4fbe
000002a0: ca09 7fbc efac 83bd 2b81 8fbe 59cc 533e
000002b0: af40 c03c 5f67 533e b676 2b3d e10e 74be
000002c0: 7d07 103e cd82 f5bd e4f3 b8bc 4a56 0a3e
000002d0: 6ba5 b9bd 95d2 87bd e0d0 a4bc 7757 893e
000002e0: 3b91 413e 6c4e f23d edb1 5dbe 3f92 143e
000002f0: a5d1 9ebd a987 69be 8f7d 4d3e 7077 053e
00000300: 62f1 08bd 85b8 c83d cfce 39bd 19e8 ec3d
00000310: 59d7 73bd 5082 b6bd d16e 733d a739 313e
00000320: 0e11 b2bc 2fb4 4d3e fbe0 83be 0c74 bbbd
00000330: 0a4f 07be 6eca 5fbe 3483 7dbe ce8a 5d3e
00000340: 0e30 063e 5510 2cbe 95d6 75bd accc 2dbd
00000350: 481f 0f3e 78b8 a5bd 6329 823e b6ea ec3d
00000360: 3e09 ae3c 408d 2e3d d00c 123d 6fab 59be
00000370: 3299 6b3d d4f6 823e e11f 25bc aee3 6d3e
00000380: 9575 883e 8f41 09be dac0 12be ebc3 f73d
00000390: b792 ccbd 7fa2 0e3c b3dc 8a3a 6f5c a3bd
000003a0: 7560 73bd 13a9 843b b5ab d4bd 7d9b 4d3e
000003b0: 5a43 213e 0273 4a3d a11d c4bc 58d7 b1bd
000003c0: 99b0 043d 3de4 f4bd e9eb 683e 9365 2c3d
000003d0: 97ad 4b3e 7f1e e23d 813e 2dbe e94a ac3d
000003e0: edff b2bd e519 173e a2bf 733c 6b05 2a3e
000003f0: 5e91 0dbd 054b f0bd 7773 c8bd 1a28 333b

gat1.att_dst f4 [1, 4, 64]
-0.08403256 -0.11254474 -0.17887735 -0.15889516 0.16845533 -0.16319205 0.121384636 -0.029065497
-0.07908033 -0.18113264 0.19262189 0.030696562 -0.12801977 0.100682154 -0.16708286 -0.1710086
-0.14240961 -0.11002751 0.21817099 -0.008993352 -0.2084854 -0.105260745 0.22737032 -0.069092676
0.096809566 -0.012241079 0.2103612 -0.08745889 0.09168881 0.19072229 0.07155087 0.038041968
-0.022937967 0.17729563 0.04261749 -0.044388913 -0.17157015 0.10281663 0.0020359664 0.04997161
-0.001997176 0.15692185 -0.068269916 -0.052611727 0.12953652 0.12446722 0.09632387 0.13211893
-0.19481783 -0.18481278 0.018638883 0.15500173 0.08927253 0.027630763 0.012537325 0.016568715
-0.23117091 0.13035183 0.08020378 -0.03429219 0.037609998 0.07597214 -0.1087039 0.20466883
-0.081616655 -0.17831856 -0.12282521 -0.01657314 0.13616012 0.016909957 0.007274808 0.21459876
-0.14341283 -0.1871027 -0.10893846 -0.24451478 -0.17187433 0.14426039 0.24359067 -0.13833159
-0.0760992 -0.013683026 -0.14281589 -0.23275806 0.08932897 -0.110992774 0.16433695 -0.13879673
0.26628438 0.14071803 0.02056541 -0.007255669 -0.005162273 0.17721449 0.09786694 -0.066112265
0.109590255 -0.16096966 0.14997576 -0.0016807511 -0.14760633 0.2059756 -0.01662527 0.19173984
-0.0679231 -0.2240957 -0.08274648 -0.22366159 0.10157217 0.18249206 -0.30299336 0.06723401
0.089940585 -0.13411103 -0.08788497 0.002087109 0.034109917 -0.25562817 -0.19814934 0.12667322
0.06444252 0.18040138 -0.16627984 -0.06122713 -0.06485249 -0.12609008 -0.20913292 -0.20530632
0.18924339 -0.14156917 -0.19475666 0.19942418 -0.13633724 0.09039472 0.1794755 0.1109635
-0.14505516 -0.23158306 -0.09606755 0.095226556 -0.011184545 -0.21118778 0.017669756 0.2330918
-0.20528841 -0.005753552 -0.033453222 -0.051726356 -0.19663301 0.20863637 0.11122988 -0.16332042
-0.08242029 -0.03460996 0.1709548 -0.2175422 -0.22019127 0.014850146 -0.16768551 0.010865755
-0.2831832 -0.00040952 -0.077092655 0.19169976 0.2160353 -0.107765436 0.19558975 -0.14107649
-0.23836257 -0.005590453 -0.21039674 0.09678796 0.16639802 0.15801881 0.0497638 0.18883868
-0.07238066 -0.13194849 -0.097918235 -0.036396287 0.23927383 0.02966614 -0.14422056 -0.07496266
0.1814137 -0.1814885 0.1663466 -0.15474756 0.21026431 -0.025131756 -0.16845675 0.22396941
-0.21319348 0.16516916 0.0987081 0.14600542 -0.02389937 0.09769334 0.059077725 0.21361451
0.21484056 0.20354038 -0.05633603 0.062876806 -0.016781852 -0.17404549 0.19344445 0.076398715
-0.00024039982 -0.18516114 0.059379216 0.19514552 0.19580185 0.06788606 -0.1386111 0.14825346
-0.19485292 0.1379684 0.011536606 0.18177396 -0.016491072 -0.019622969 0.19309491 -0.03999333
0.1342033 0.18986814 0.017109266 -0.040026955 -0.14776662 0.1331384 0.077398084 0.16955565
-0.17473587 0.041065414 -0.24145733 0.029633246 0.17826246 -0.10941952 -0.037966818 -0.041801978
-0.16553394 -0.031027416 -0.07790568 0.08821676 0.027287781 0.028810356 -0.12845017 0.0059683225
-0.20205452 0.018720336 0.024911089 -0.007859994 0.16059513 0.037593674 -0.22076063 -0.071443014
00000000: 4319 acbd db7d e6bd a02b 37be 6ab5 22be
00000010: 8e7f 2c3e d11b 27be 8298 f83d c41a eebc
00000020: def4 a1bd d67a 39be ac3e 453e 5b77 fb3c
00000030: 9d17 03be 7232 ce3d c517 2bbe e11c 2fbe
00000040: d3d3 11be 1a56 e1bd 3768 5f3e da58 13bc
00000050: 327d 55be f292 d7bd c4d3 683e 7680 8dbd
00000060: 1844 c63d ce8e 48bc ed68 573e a61d b3bd
00000070: 58c7 bb3d b44c 433e 4389 923d e5d1 1b3d
00000080: 67e8 bbbc fc8c 353e ad8f 2e3d 26d1 35bd
00000090: 16b0 2fbe 8691 d23d d96d 053b 08af 4c3d
000000a0: 0ee3 02bb 1fb0 203e 19d1 8bbd 657f 57bd
000000b0: 39a5 043e abe8 fe3d 7345 c53d 2f4a 073e
000000c0: 537e 47be 903f 3dbe 92b0 983c c6b8 1e3e
000000d0: 84d4 b63d e959 e23c 5a69 4d3c 1dbb 873c
000000e0: 11b8 6cbe f37a 053e e141 a43d f875 0cbd
000000f0: f10c 1a3d 4897 9b3d 26a0 debd b594 513e
00000100: a226 a7bd 2499 36be c98b fbbd 65c4 87bc
00000110: 8f6d 0b3e c086 8a3c 8361 ee3b c7bf 5b3e
00000120: d0da 12be da97 3fbe 211b dfbd 1562 7abe
00000130: d3ff 2fbe ffb8 133e d56f 793e cca6 0dbe
00000140: e6d9 9bbd c52e 60bc 543e 12be 2158 6ebe
00000150: 1bf2 b63d 2e50 e3bd f247 283e bb20 0ebe
00000160: 6d56 883e 6318 103e ca78 a83c f7c0 edbb
00000170: 4928 a9bb b777 353e 766e c83d de65 87bd
00000180: db70 e03d 3bd5 24be 3f93 193e a64c dcba
00000190: 1d26 17be 45eb 523e b831 88bc 7357 443e
000001a0: 441b 8bbd 5879 65be fd76 a9bd 8b07 65be
000001b0: 1205 d03d 33df 3a3e f221 9bbe fcb1 893d
000001c0: c532 b83d 6754 09be 09fd b3bd e1c7 083b
000001d0: d7b6 0b3d b2e1 82be a9e7 4abe a0b6 013e
000001e0: 71fa 833d 24bb 383e 4345 2abe 4dc9 7abd
000001f0: 62d1 84bd c21d 01be f126 56be d23b 52be
00000200: 05c9 413e 82f7 10be 4a6e 47be da35 4c3e
00000210: fd9b 0bbe de20 b93d 6dc8 373e d540 e33d
00000220: 5789 14be 1c24 6dbe 10bf c4bd 2406 c33d
00000230: 623f 37bc 9c41 58be 2ac0 903c 9eaf 6e3e
00000240: 2037 52be 4b88 bcbb 3f06 09bd 04df 53bd
00000250: 2a5a 49be c6a4 553e 7ecc e33d 783d 27be
00000260: f8cb a8bd 2cc3 0dbd c60e 2f3e 62c3 5ebe
00000270: d279 61be 074e 733c c0b5 2bbe 4806 323c
00000280: 63fd 90be d8b4 d6b9 c1e2 9dbd f14c 443e
00000290: 5c38 5d3e 20b4 dcbd ae48 483e 5b76 10be
000002a0: 5115 74be 1e30 b7bb 3e72 57be c438 c63d
000002b0: 3e64 2a3e afcf 213e 20d5 4b3d ed5e 413e
000002c0: 503c 94bd 811d 07be 5b89 c8bd 4614 15bd
000002d0: 3304 753e 6806 f33c 8eae 13be 0686 99bd
000002e0: 83c4 393e 1fd8 39be c356 2a3e 2576 1ebe
000002f0: 874f 573e 1de1 cdbc ed7f 2cbe 3d58 653e
00000300: 644f 5abe 1b22 293e 7927 ca3d 7282 153e
00000310: 9dc8 c3bc 7213 c83d 7cfb 713d c3bd 5a3e
00000320: 2aff 5b3e e46c 503e 9cc0 66bd 8ec5 803d
00000330: 187a 89bc fb38 32be 4d16 463e ee76 9c3d
00000340: d613 7cb9 e29a 3dbe 9f37 733d 3ad4 473e
00000350: 4880 483e d907 8b3d 11f0 0dbe c1cf 173e
00000360: 8687 47be 9747 0d3e 0804 3d3c f422 3a3e
00000370: 4918 87bc 59c0 a0bc acba 453e 0cd0 23bd
00000380: 976c 093e cb6c 423e bb28 8c3c 4ef3 23bd
00000390: 2250 17be 6f55 083e e382 9e3d ff9f 2d3e
000003a0: f6ed 32be 3534 283d 9740 77be 6cc1 f23c
000003b0: 6f8a 363e 5717 e0bd 1883 1bbd 8d38 2bbd
000003c0: bb81 29be 352d febc 038d 9fbd fdaa b43d
000003d0: a08a df3c b203 ec3c 7188 03be eb91 c33b
000003e0: 61e7 4ebe 645b 993c 5712 cc3c 34c7 00bc
000003f0: 0d73 243e d3fb 193d 130f 62be b750 92bd

gat1.bias f4 [256]
-0.035198115 0.019773472 0.015761934 0.012402906 0.0023083503 0.002792321 -0.030062491 0.05197441
0.009089833 0.027140325 -0.011937755 -0.0061896024 -0.041460063 0.03656776 -0.01907879 0.0011047026
-0.018710708 0.011305631 -0.013617341 0.01689923 -0.011942424 0.0039551263 -0.013801284 -0.0010814854
-0.057060007 0.0022824167 0.010032431 0.026113896 0.0106460955 0.0012961846 0.026576111 -0.018060386
0.026461601 0.04160969 0.0044438234 -0.016915737 0.018959066 0.030957872 0.011144041 0.044604592
-0.014104328 -0.0149289975 -0.015773052 0.022039695 0.015210292 0.0031113527 0.007097705 0.01015638
0.026539298 -0.005786638 0.026793338 0.012141872 0.0011421267 0.0053889994 0.02552861 0.0344427
-0.025890408 0.023717942 -0.038269527 0.0014993113 0.015650403 0.058432594 -0.006326113 0.027780108
0.01608641 0.017407076 0.03173432 0.019947737 -0.0003238616 0.013519061 -0.07109264 0.0109910965
0.0004929112 -0.024033437 -0.006750708 0.026822178 -0.054411776 0.007817713 -0.022108458 0.0058748685
0.014745808 -0.023488088 0.07260076 -0.035513002 -0.0037688238 0.008406141 -0.049207155 -0.0001675398
0.015802065 0.01857198 0.017538568 0.047566473 0.0052359835 0.012000863 -0.004593349 -0.015669858
-0.014424702 -0.046323296 0.027371924 0.012171351 -0.020171233 0.021568073 -0.0043016057 0.04755695
-0.0024813863 -0.009273728 0.023439502 0.014630639 -0.015039887 -0.03321963 0.0024706374 0.030707404
0.003565197 -0.015744474 -0.014255507 0.035366252 0.00746899 0.03649623 0.06119174 0.0040895087
-0.0048084036 0.050318815 -0.009862228 0.047867745 -0.008377289 0.015001158 -0.0032225605 -0.049728133
-0.0066267527 -0.017505344 0.0012330074 -0.02188311 0.007130048 -0.010631228 -0.042430826 0.07206456
-0.0046723867 0.007396452 0.037098553 0.031043323 0.0008540217 -0.002124985 0.023813086 -0.07228056
-0.009496905 -0.033630196 0.030845637 -0.012993715 5.1948613e-05 0.0028604963 0.034843363 -0.0054076244
-0.053835988 0.030590173 0.005478967 -0.0010918076 0.0060267774 0.0065180566 -0.008716679 -0.03591452
0.017952615 0.050279815 0.028450292 0.066800006 -0.015727391 0.033780444 0.018287072 0.008636946
0.008147728 0.031777784 0.038274255 0.0026535722 -0.036102127 -0.0107376855 0.015621392 0.017949212
0.022817006 -0.017842993 0.03278354 0.029592682 0.02321042 -0.032741897 -0.014039702 -0.018780872
0.044419557 -0.0006733408 -0.017758738 -0.02707772 0.011524538 -0.006182035 0.007590843 -0.058970023
0.0066425977 0.003088387 0.0037214577 0.0057158936 0.056160998 0.03654507 0.008420259 0.007931147
0.03966919 -0.0140410345 0.0209373 -0.008050397 0.048661634 -0.008317277 -0.010086885 -0.03535628
0.030193526 0.0002786432 0.035850283 0.017689893 -0.0023028518 -0.010408275 -0.018582411 -0.013512482
-0.013272822 0.0001269812 -0.014506502 0.0035828247 0.020497082 0.031376798 0.029259143 -0.013460094
0.0026628375 -0.009034254 -0.00955274 0.05754714 0.01056215 0.030147973 -0.05463375 0.0262959
0.006825007 0.026965078 -0.009561138 0.025870398 0.022576336 -0.033537216 0.018008016 0.010572151
0.002660831 -0.0016001328 -0.0061266324 -0.02464089 0.015800428 -0.0060471315 0.015665192 0.036691036
0.032795157 -0.016654316 0.06022285 -0.017667057 0.03138663 0.0064243004 0.0076877438 0.04487562
00000000: e62b 10bd fafb a13c 2c1f 813c 8f35 4b3c
00000010: b147 173b 5fff 363b 9d45 f6bc 1ee3 543d
00000020: 86ed 143c 6355 de3c 9396 43bc 26d2 cabb
00000030: 07d2 29bd 13c8 153d 1f4b 9cbc abcb 903a
00000040: 3347 99bc 413b 393c 451b 5fbc 4170 8a3c
00000050: 28aa 43bc 019a 813b c81e 62bc a1c0 8dba
00000060: c1b7 69bd 9994 153b 115f 243c cfec d53c
00000070: f66c 2e3c bde4 a93a 25b6 d93c 60f3 93bc
00000080: 00c6 d83c ec6e 2a3d 7e9d 913b df92 8abc
00000090: 0b50 9b3c 5d9b fd3c 7f95 363c 4eb3 363d
000000a0: d715 67bc c198 74bc 7d36 81bc 978c b43c
000000b0: 9734 793c d6e7 4b3b dd93 e83b f266 263c
000000c0: f168 d93c d69d bdbb b47d db3c b4ee 463c
000000d0: 6ab3 953a 3496 b03b 6021 d13c ca13 0d3d
000000e0: 1f18 d4bc 214c c23c 82c0 1cbd 8a84 c43a
000000f0: 4635 803c 0457 6f3d 484b cfbb 1c93 e33c
00000100: a6c7 833c 4999 8e3c d9fb 013d 7069 a33c
00000110: f8cb a9b9 0d7f 5d3c 0599 91bd 0014 343c
00000120: b636 013a c5e1 c4bc 0b35 ddbb 2fba db3c
00000130: e2de 5ebd dd15 003c cc1c b5bc f881 c03b
00000140: 6798 713c 176a c0bc b5af 943d 1576 11bd
00000150: 5ffe 76bb e9b9 093c 718d 49bd 9fad 2fb9
00000160: 5573 813c 4424 983c 0bad 8f3c 10d5 423d
00000170: 9d92 ab3b 459f 443c ce83 96bb 135e 80bc
00000180: 9655 6cbc 7fbd 3dbd 163b e03c 596a 473c
00000190: 243e a5bc 87af b03c 7cf4 8cbb 14cb 423d
000001a0: c19e 22bb d6f0 17bc 3304 c03c 59b5 6f3c
000001b0: dc69 76bc 4f11 08bd 6bea 213b 188e fb3c
000001c0: 15a6 693b 8efa 80bc ee8f 69bc 34dc 103d
000001d0: 6ebe f43b 127d 153d 31a4 7a3d 4901 863b
000001e0: d08f 9dbb 1a1b 4e3d 2f95 21bc f810 443d
000001f0: e640 09bc 6bc7 753c 9831 53bb baaf 4bbd
00000200: 3b25 d9bb 5e67 8fbc dd9c a13a 3544 b3bc
00000210: 2da3 e93b 9a2e 2ebc f2cb 2dbd 9696 933d
00000220: d21a 99bb f05d f23b a7f4 173d 914e fe3c
00000230: 6de0 5f3a 5543 0bbb a913 c33c d507 94bd
00000240: e898 1bbc d1bf 09bd fdaf fc3c 97e3 54bc
00000250: 66e3 5938 2a77 3b3b eab7 0e3d 7132 b1bb
00000260: 2083 5cbd 3e98 fa3c e888 b33b fc1a 8fba
00000270: 467c c53b 6c95 d53b 67d0 0ebc 1b1b 13bd
00000280: 5d11 933c 35f2 4d3d 9610 e93c 71ce 883d
00000290: bbd6 80bc 5d5d 0a3d c5ce 953c fa81 0d3c
000002a0: 0c7e 053c 6c29 023d 77c5 1c3d 8ee7 2d3b
000002b0: d3df 13bd 1eed 2fbc def0 7f3c 3a0a 933c
000002c0: bbea ba3c 782b 92bc 0948 063d 5a6c f23c
000002d0: c723 be3c 5e1c 06bd c706 66bc 58da 99bc
000002e0: 48f1 353d 2383 30ba c67a 91bc 18d2 ddbc
000002f0: 6ad1 3c3c ab92 cabb 9bbc f83b 8d8a 71bd
00000300: 26aa d93b 8966 4a3b b3e3 733b 644c bb3b
00000310: 1309 663d 49b0 153d 20f5 093c a4f1 013c
00000320: 297c 223d 5e0c 66bc b384 ab3c d0e5 03bc
00000330: 6c51 473d 3045 08bc 7643 25bc bfd1 10bd
00000340: 6a58 f73c db16 9239 bfd7 123d 65ea 903c
00000350: 71eb 16bb 7887 2abc 243a 98bc 7563 5dbc
00000360: 4076 59bc 4226 0539 aeac 6dbc d3cd 6a3b
00000370: 7fe9 a73c f584 003d dfb0 ef3c ba87 5cbc
00000380: 0083 2e3b 6804 14bc 1883 1cbc 8db6 6b3d
00000390: de0c 2d3c e2f8 f63c a4c7 5fbd 806a d73c
000003a0: 4fa4 df3b dee5 dc3c 52a6 1cbc 28ee d33c
000003b0: 02f2 b83c 525e 09bd 8c85 933c d136 2d3c
000003c0: 5661 2e3b 8cbb d1ba ebc1 c8bb b1db c9bc
000003d0: e66f 813c 0427 c6bb 4a54 803c 5749 163d
000003e0: 3754 063d a26e 88bc 3cac 763d 81ba 90bc
000003f0: 448f 003d f082 d23b 78e9 fb3b 80cf 373d

gat1.lin.weight f4 [256, 49]
0.042813316 -0.08532004 0.059291728 0.12524602 -0.09041779 0.104951605 -0.056603946 0.07062116
0.07488361 -0.080326 0.09605788 0.014040487 0.08168827 -0.08408673 0.09990162 0.0015796187
0.00645306 0.112448305 -0.065348394 -0.07250065 0.025022125 -0.03451745 0.10682395 -0.012632286
0.09751355 -0.124117136 0.0867571 0.033099145 0.012831364 -0.05084445 -0.06951765 0.056880422
0.0022280389 0.041119676 -0.1204764 -0.13067994 0.019398544 0.008981914 -0.0016921367 0.07400756
0.056454476 -0.0087019745 0.0970908 -0.03324856 -0.03318503 0.034150094 -0.0010420986 -0.010403085
-0.0004460502 0.050909925 0.051229764 -0.09776786 0.026910743 0.050371185 -0.10545101 0.10352753
0.10499141 0.07547524 0.019100457 0.117323 -0.05329824 -0.03237622 -0.09464052 0.04873903
-0.12327389 -0.0787071 0.076177806 -0.017021462 0.059510212 -0.11812753 -0.012873652 -0.119583
-0.11262251 -0.012136251 0.008189062 -0.052974638 -0.056141432 0.06963931 -0.03241771 0.10514455
0.044430904 -0.040874176 -0.0046680355 -0.047385372 -0.09142635 0.07533979 -0.14428654 -0.030546267
0.04619339 -0.08192342 -0.025907485 -0.14068213 -0.11405518 0.1278432 0.1386168 0.11966802
-0.022301588 0.03282682 0.006842914 0.050570335 -0.080632724 -0.10820595 0.12893152 0.019575635
0.09463633 -0.03073432 -0.14472035 -0.11560866 -0.021398824 -0.05276802 -0.09483708 0.12589225
0.08239721 -0.10885577 0.005593406 0.08678933 -0.04988686 0.111891665 0.052200906 -0.090676054
0.03519655 0.022290234 -0.12075509 -0.041283343 -0.035418116 0.08525289 0.040970583 -0.0595519
0.041410815 -0.052578885 0.11815465 0.05784114 -0.07408473 -0.037785713 0.10521815 0.0884016
-0.09959901 -0.11979921 -0.22259727 -0.08388601 0.10077417 -0.11197814 -0.08523419 -0.060804415
-0.06261551 -0.029695349 0.13091153 -0.14602508 -0.11279186 -0.081535384 0.051733073 0.103053026
-0.06316568 -0.0073695597 -0.04677814 0.044511795 -0.10698355 0.081962116 0.08453007 -0.012906112
-0.02023595 0.08108417 0.046408083 0.104974896 -0.03189165 -0.015887598 -0.13168475 -0.104470655
-0.06955556 -0.0099046705 0.08222026 0.119353645 0.033835154 0.058550257 -0.014903851 0.03554284
0.080698155 -0.032620855 -0.010517187 0.061207358 -0.020211225 0.005631018 -0.0025559731 0.11399809
-0.15722261 0.029349925 -0.12010181 -0.18709762 0.0530153 -0.024818199 -0.20817748 0.054407988
-0.08889836 -0.10765609 0.029325658 -0.11506179 -0.040502038 -0.011131103 0.09719072 0.02764334
-0.06547289 -0.08334752 0.08711576 -0.035198234 0.07690386 -0.11498748 -0.039120667 -0.07880419
0.116554916 0.12700143 0.10423275 0.030620428 -0.12148138 -0.051809646 0.07822311 0.03728662
-0.06092412 0.09831769 0.03150759 -0.13515449 -0.0031180093 0.008424957 -0.06968106 0.027144494
0.034969017 -0.084837236 0.038969256 -0.12501548 0.04639779 -0.064904675 -0.11162596 -0.0066145747
-0.021875096 -0.11195268 -0.036087897 -0.010418366 -0.15453456 -0.034267504 -0.032137368 -0.0973818
0.027417295 0.06310915 0.013237286 0.13499397 0.013016366 -0.05255151 -0.09066741 -0.08456924
-0.0264198 0.056207284 -0.007754077 -0.12311134 0.07880162 -0.006927358 -0.11117325 -0.15836263
00000000: 045d 2f3d 46bc aebd e2db 723d 7e40 003e
00000010: f62c b9bd def0 d63d 8ad9 67bd d4a1 903d
00000020: 945c 993d f581 a4bd feb9 c43d 120a 663c
00000030: 2e4c a73d aa35 acbd 3899 cc3d 350b cf3a
00000040: 3174 d33b 4c4b e63d 61d5 85bd 397b 94bd
00000050: 33fb cc3c 2b62 0dbd 84c6 da3d a6f7 4ebc
00000060: 2fb5 c73d 2031 febd b5ad b13d f892 073d
00000070: a43a 523c 4542 50bd 455f 8ebd 72fb 683d
00000080: 4a04 123b 1b6d 283d 55bc f6bd f6d0 05be
00000090: b2e9 9e3c e128 133c b0ca ddba 4791 973d
000000a0: cf3c 673d ba92 0ebc 8bd7 c63d a42f 08bd
000000b0: 07ed 07bd f8e0 0b3d 0797 88ba b371 2abc
000000c0: d8db e9b9 ed86 503d 4dd6 513d 843a c8bd
000000d0: eb73 dc3c 0452 4e3d b3f6 d7bd 3e06 d43d
000000e0: bd05 d73d c392 9a3d 9078 9c3c 0b47 f03d
000000f0: 414f 5abd ed9c 04bd e4d2 c1bd 94a2 473d
00000100: 0577 fcbd 3031 a1bd 1c03 9c3d 9870 8bbc
00000110: fbc0 733d d9ec f1bd 03ec 52bc efe7 f4bd
00000120: a1a6 e6bd 20d7 46bc 6a2b 063c effb 58bd
00000130: 8ff4 65bd 0e9f 8e3d 6fc8 04bd 0756 d73d
00000140: 2efd 353d ae6b 27bd 52f6 98bb 2a17 42bd
00000150: bd3d bbbd bf4b 9a3d dabf 13be 2a3c fabc
00000160: 4835 3d3d 77c7 a7bd ef3b d4bc fa0e 10be
00000170: c395 e9bd 54e9 023e 90f1 0d3e 8214 f53d
00000180: d2b1 b6bc 6a75 063d 863a e03b d722 4f3d
00000190: c522 a5bd 159b ddbd a006 043e 155d a03c
000001a0: b1d0 c13d 8ac6 fbbc 9231 14be 3cc4 ecbd
000001b0: 964c afbc 4823 58bd f139 c2bd e6e9 003e
000001c0: debf a83d c6ef debd e448 b73b 9bbe b13d
000001d0: 2a56 4cbd 7527 e53d 9ed0 553d 5eb4 b9bd
000001e0: 422a 103d 029a b63c 724e f7bd b918 29bd
000001f0: 9612 11bd 1199 ae3d c5d0 273d b1ec 73bd
00000200: 639e 293d f55c 57bd 11fb f13d d5ea 6c3d
00000210: bcb9 97bd 31c5 1abd 9d7c d73d e60b b53d
00000220: 91fa cbbd 4a59 f5bd 8af0 63be 6ecc abbd
00000230: b062 ce3d cc54 e5bd 438f aebd 0d0e 79bd
00000240: 8f3c 80bd a943 f3bc ac0d 063e 9987 15be
00000250: 6bff e6bd 06fc a6bd 0fe6 533d 770d d33d
00000260: 025d 81bd 597c f1bb 6f9a 3fbd 0052 363d
00000270: 311a dbbd c1db a73d 1a1e ad3d 2874 53bc
00000280: ddc5 a5bc 750f a63d 6716 3e3d 14fd d63d
00000290: d2a0 02bd b526 82bc 5ed8 06be b6f4 d5bd
000002a0: 2573 8ebd 3347 22bc 1863 a83d af6f f43d
000002b0: bb96 0a3d 65d2 6f3d 482f 74bc 5e95 113d
000002c0: 1345 a53d 729d 05bd 4850 2cbc 91b4 7a3d
000002d0: 0392 a5bc 6784 b83b 1d82 27bb d577 e93d
000002e0: f7fe 20be 416f f03c f0f7 f5bd 8596 3fbe
000002f0: 9226 593d 894f cbbc 7a2c 55be e9da 5e3d
00000300: 5810 b6bd cc7a dcbd 5d3c f03c 84a5 ebbd
00000310: 77e5 25bd 3b5f 36bc ee0b c73d 4974 e23c
00000320: a716 86bd 1bb2 aabd bf69 b23d 062c 10bd
00000330: c57f 9d3d 8e7e ebbd fe3c 20bd 1764 a1bd
00000340: 58b4 ee3d aa0c 023e fb77 d53d b1d7 fa3c
00000350: 3bcb f8bd 5a36 54bd 7033 a03d dbb9 183d
00000360: 928b 79bd c95a c93d 1a0e 013d f065 0abe
00000370: 8457 4cbb d508 0a3c f2b4 8ebd 215e de3c
00000380: ac3b 0f3d 25bf adbd 3a9e 1f3d 0f04 00be
00000390: 9c0b 3e3d beec 84bd 279c e4bd 13bf d8bb
000003a0: 6733 b3bc 7247 e5bd e7d0 13bd cbb1 2abc
000003b0: 4f3e 1ebe 155c 0cbd 79a2 03bd 1c70 c7bd
000003c0: 3c9a e03c 5f3f 813d 34e1 583c dc3b 0a3e
000003d0: 9942 553c 4140 57bd d6af b9bd a332 adbd
000003e0: 566e d8bc 9c39 663d ea15 febb cc21 fcbd
000003f0: be62 a13d e4fe e2bb cdae e3bd d029 22be

gat2.att_src f4 [1, 4, 64]
0.14981018 0.00878884 -0.0767434 0.25422847 -0.11963848 0.2398425 -0.24465558 0.11971235
0.1457037 0.10130313 -0.23449397 -0.1509662 -0.026269827 -0.22038801 -0.08410584 0.19410717
-0.24524711 -0.21788971 0.09425264 -0.10437147 -0.16223697 -0.23536083 -0.14171696 0.1438747
0.08510833 0.13861632 0.08642134 -0.1564338 -0.087873586 -0.22658506 0.050611116 -0.019278213
0.13647233 0.17258121 0.008625299 -0.21170239 0.14293635 0.084509306 0.11641542 -0.21242686
0.007668487 0.22494088 -0.066853195 -0.1202241 -0.04144278 -0.0019015842 -0.094800256 -0.23350221
-0.11371705 -0.15525576 -0.110796265 -0.09175234 0.24123465 -0.24246457 -0.018361138 0.00031252552
-0.103801034 0.2154173 -0.1940323 -0.07321375 -0.096899964 -0.011049462 -0.19367982 0.1962058
-0.16609804 -0.03536609 0.12545006 -0.1924285 -0.14172916 -0.21615687 0.017381819 -0.21727353
0.028141795 0.07509118 -0.13540187 -0.25073588 0.1552313 -0.011882294 -0.18315879 0.08124565
0.13752772 -0.17403279 -0.041318186 0.110397324 0.0500145 -0.18583629 0.09763664 0.062116224
-0.07736589 0.14582443 -0.07991475 0.2164779 0.052504685 -0.24774912 0.14819057 -0.1361076
0.20641801 0.030049963 0.06847334 -0.03311372 -0.23117886 0.05679691 -0.086466536 -0.019427234
-0.1123884 -0.22853291 -0.01665805 -0.04230347 0.04996776 -0.22313985 0.016461195 0.13847381
0.24266222 -0.15657212 0.19634089 -0.085249424 0.17620245 -0.03740322 -0.14581738 -0.077554986
0.16443199 0.07610503 0.18865122 0.16441557 -0.03570271 -0.23213613 0.07017647 0.09109375
0.16913576 -0.2731657 -0.030802112 0.116634026 -0.1528322 -0.19308734 0.20512336 -0.21962918
0.027943898 0.07159846 -0.13317238 0.18283488 0.03419588 -0.03605445 0.054510362 0.0072743488
-0.25390086 -0.1380018 0.12616198 0.19901147 0.10179634 -0.037639204 -0.017372116 -0.2063486
0.048552044 -0.1503246 0.13330828 0.057641644 -0.21780647 -0.13791111 -0.06432323 -0.05780604
-0.17973074 -0.11005459 0.2146536 -0.12327153 0.07535322 0.043792993 -0.12203571 0.06656362
0.2114268 0.17491889 -0.2101581 -0.15095043 -0.14839153 0.24405974 -0.19651206 -0.10328966
0.06263903 0.2031021 0.2538056 0.04821791 -0.03649085 -0.20069903 0.11599924 0.06906231
-0.13200848 0.020907653 0.07799426 -0.13270038 -0.027667927 -0.022317622 -0.23210661 0.20183107
0.030473696 -0.13010226 0.1576622 -0.22391263 -0.24230196 0.2641665 -0.06701292 0.18478125
-0.20484811 -0.0031434016 -0.028018262 -0.2156693 -0.19595417 -0.13528684 -0.014507685 -0.085268356
-0.104695395 0.056700554 0.18384953 0.20577645 -0.07586801 -0.26658306 -0.25589496 0.0029606065
-0.1280112 -0.14041267 -0.050255895 0.14223155 -0.10152488 -0.000333683 -0.049802452 -0.100222714
0.18098599 0.15528361 0.034624603 0.0017656314 -0.17164186 -0.052207343 0.16343026 0.2413093
-0.0013156764 0.22905608 0.07893597 0.045925125 0.013472723 0.19727427 -0.16349015 0.10301966
-0.10916861 0.15350586 0.03539848 0.0099677155 -0.06985533 0.2194164 0.15321937 -0.079531014
0.18133359 0.16315597 -0.08926245 -0.2461997 0.1496116 -0.12882945 0.23395568 -0.0019723165
00000000: d767 193e 11ff 0f3c a52b 9dbd 3c2a 823e
00000010: 0505 f5bd 4699 753e fe86 7abe c02b f53d
00000020: 5a33 153e 0478 cf3d 301f 70be e296 1abe
00000030: d233 d7bc 65ad 61be af3f acbd 08c4 463e
00000040: 0f22 7bbe 7b1e 5fbe 8707 c13d b6c0 d5bd
00000050: 7321 26be 6e02 71be 401e 11be e453 133e
00000060: 474d ae3d 70f1 0d3e acfd b03d 2f30 20be
00000070: 11f7 b3bd ea05 68be 9a4d 4f3d 58ed 9dbc
00000080: 67bf 0b3e 21b9 303e 2051 0d3c 83c8 58be
00000090: e85d 123e 3713 ad3d 356b ee3d 6d86 59be
000000a0: ee47 fb3b e756 663e 54ea 88bd 0e38 f6bd
000000b0: e8bf 29bd 943e f9ba a326 c2bd 341b 6fbe
000000c0: 7ce4 e8bd 5efb 1ebe 27e9 e2bd a7e8 bbbd
000000d0: 3706 773e a248 78be 196a 96bc 77da a339
000000e0: a395 d4bd 5a96 5c3e 67b0 46be 17f1 95bd
000000f0: 7d73 c6bd cd08 35bc 0154 46be 2cea 483e
00000100: 9b15 2abe 08dc 10bd fb75 003e fa0b 45be
00000110: 7321 11be 3a58 5dbe 5164 8e3c f47c 5ebe
00000120: 9f89 e63c 68c9 993d caa6 0abe 7460 80be
00000130: f4f4 1e3e f4ad 42bc fa8d 3bbe 1f64 a63d
00000140: 11d4 0c3e a735 32be 423d 29bd fe17 e23d
00000150: 01dc 4c3d de4b 3ebe b8f5 c73d 956d 7e3d
00000160: 0272 9ebd 0053 153e 58aa a3bd 62ac 5d3e
00000170: 270f 573d f2b1 7dbe 45bf 173e ca5f 0bbe
00000180: 3e5f 533e 572b f63c c03b 8c3d 41a2 07bd
00000190: 27ba 6cbe e0a3 683d 5e15 b1bd dd25 9fbc
000001a0: e42b e6bd 8804 6abe 7676 88bc 6746 2dbd
000001b0: feaa 4c3d c67e 64be a1d9 863c 14cc 0d3e
000001c0: 727c 783e 7154 20be 960d 493e 4097 aebd
000001d0: 6a6e 343e 1e34 19bd 2751 15be 26d5 9ebd
000001e0: dc60 283e f4dc 9b3d c92d 413e 8e5c 283e
000001f0: 013d 12bd 18b5 6dbe aeb8 8f3d 5c8f ba3d
00000200: ed31 2d3e 60dc 8bbe b654 fcbc d2dd ee3d
00000210: 0b80 1cbe b0b8 45be dc0b 523e 79e6 60be
00000220: 9aea e43c 37a2 923d 575e 08be 1139 3b3e
00000230: fb10 0c3d d5ad 13bd 4246 5f3d a95d ee3b
00000240: 4bff 81be 5850 0dbe 9b30 013e aac9 4b3e
00000250: 997a d03d 912b 1abd f84f 8ebc 0c4d 53be
00000260: 82de 463d b1ee 19be f781 083e a519 6c3d
00000270: a908 5fbe 9238 0dbe e6bb 83bd 07c6 6cbd
00000280: 560b 38be 4d64 e1bd 27ce 5b3e c975 fcbd
00000290: ca52 9a3d 4860 333d dced f9bd 8252 883d
000002a0: 4480 583e f01d 333e af33 57be c092 1abe
000002b0: f3f3 17be ccea 793e 753a 49be 8789 d3bd
000002c0: e448 803d fff9 4f3e cff2 813e 2580 453d
000002d0: 6e77 15bd 0c84 4dbe 0291 ed3d 8a70 8d3d
000002e0: 3b2d 07be 8746 ab3c 74bb 9f3d 9ce2 07be
000002f0: d9a7 e2bc 72d3 b6bc 5bad 6dbe ceac 4e3e
00000300: f9a3 f93c 8739 05be 3372 213e 5a49 65be
00000310: 011e 78be d540 873e 123e 89bd 4c37 3d3e
00000320: b4c3 51be 8701 4ebb 8e86 e5bc 6ad8 5cbe
00000330: 36a8 48be a288 0abe a4b1 6dbc 2da1 aebd
00000340: 8a6a d6bd d73e 683d 0d43 3c3e 10b7 523e
00000350: b060 9bbd 937d 88be aa04 83be bc06 423b
00000360: 5e15 03be 57c8 0fbe 20d9 4dbd 26a5 113e
00000370: 47ec cfbd 2df2 aeb9 a8fd 4bbd 9141 cdbd
00000380: 6454 393e ab02 1f3e 87d2 0d3d c26c e73a
00000390: e2c2 2fbe 5ed7 55bd 435a 273e c919 773e
000003a0: c672 acba ad8d 6a3e 2fa9 a13d fc1b 3c3d
000003b0: b2bc 5c3c 4402 4a3e f669 27be f9fb d23d
000003c0: cb93 dfbd a430 1d3e fffd 103d a14f 233c
000003d0: 5010 8fbd b1ae 603e 8ae5 1c3e 28e1 a2bd
000003e0: 83af 393e 5c12 273e 3bcf b6bd c61b 7cbe
000003f0: c933 193e deeb 03be 1492 6f3e fb41 01bb

gat2.att_dst f4 [1, 4, 64]
-0.22776696 -0.20754683 0.11775644 -0.2121854 -0.1324102 -0.036912054 -0.17747615 0.2242664
0.15086795 -0.034650404 -0.24549504 0.20826755 -0.028381912 0.21864478 0.06910916 -0.11925513
-0.124351144 0.05297754 -0.18646689 0.13696384 0.09260276 0.14847714 -0.003833373 0.0980839
0.060050745 0.0074977926 -0.070262045 -0.17218329 -0.11451636 0.08866986 -0.085933104 0.042468153
0.0048394473 0.14246058 0.25039503 0.21693228 0.21167514 -0.19434609 0.10997479 0.06671182
-0.16464789 0.21349277 -0.23591252 -0.14180058 -0.20974237 -0.16811919 -0.012567507 -0.03617242
0.007452092 -0.09355978 0.1931067 0.22865494 -0.058050387 -0.25139853 0.09349089 0.24520731
0.11993631 0.19648613 -0.12803358 0.096256346 -0.1958226 -0.21409112 0.18228163 0.18799965
0.2598102 0.25350136 0.04599021 0.031136034 -0.052788496 0.103970535 -0.11330457 -0.18307589
0.034502946 -0.02147832 -0.06672193 -0.18456587 -0.13885224 0.14261284 -0.13681693 0.010505977
0.22377984 -0.23201814 0.12781633 0.2300988 0.0140630165 -0.116227135 0.25244996 0.12950838
0.2056682 0.12482911 0.2680392 -0.1606523 -0.12313171 -0.010935426 -0.07380656 0.21940443
-0.18878423 -0.083055265 -0.043563414 0.019510668 -0.101112485 0.24045599 0.09080696 -0.1548152
0.21127233 -0.22147387 0.1201651 0.0061983974 -0.06948603 0.23725018 -0.24103248 -0.162833
0.039739277 0.1224802 0.1251968 0.14571282 0.13355386 -0.2228241 -0.036674336 -0.15749213
0.18062682 0.22833665 -0.20100625 0.25331336 -0.04544728 -0.038375776 0.14425205 0.17437892
0.09490122 -0.09320917 0.0984678 -0.11648974 -0.083482735 -0.19470295 0.1472045 -0.25680307
-0.04941302 0.030037386 0.025268218 -0.0060161753 -0.054322816 0.24797332 -0.028144805 -0.2809585
0.23373847 -0.021178216 -0.013930887 -0.14925791 0.10994683 -0.031352434 0.16945772 -0.20298329
0.14759845 0.23905478 -0.10597979 0.13484962 -0.14134203 -0.16814713 -0.07674264 -0.12938417
-0.20495075 0.22622667 0.23073928 0.25490087 -0.105856754 0.1277088 -0.094731934 -0.005284125
-0.19868827 0.0117038395 -0.006087927 0.096033424 0.06566167 -0.119267225 -0.17286578 0.1054775
-0.22377327 0.13514054 0.13394392 -0.13002078 -0.14675522 -0.23225555 0.0030111354 0.21596166
-0.24414882 0.28082046 0.12455218 -0.12552185 0.24545184 -0.023425091 -0.01727822 0.12159712
-0.07818334 -0.065280475 -0.007447923 0.055279385 -0.007664798 0.11009956 -0.083151005 0.037411984
0.22934486 -0.26145354 -0.019305982 -0.10072313 0.13840275 -0.13225998 -0.15099762 -0.1498941
0.11733396 0.1440843 0.14467472 0.23399988 0.21536227 -0.21624233 0.09972354 -0.12695004
-0.2272598 0.038889337 0.10104624 -0.21097513 -0.1302431 0.1050928 0.114937104 0.22489354
0.09120297 -0.08220405 -0.2200536 0.05063628 0.09191048 -0.1202816 0.21522337 -0.022578038
0.11449791 -0.14821336 -0.06885854 -0.13244165 -0.25806955 -0.09145239 0.16433902 0.011406256
-0.027460663 0.1631196 -0.022722831 0.13256912 0.2395636 -0.157361 0.20545281 0.24299504
-0.05019437 -0.0012549554 -0.17160442 -0.03403092 -0.06253276 -0.12491198 -0.1640458 -0.22642703
00000000: be3b 69be 2887 54be 4a2a f13d 2147 59be
00000010: 8a96 07be 1831 17bd 4fbc 35be 17a6 653e
00000020: 217d 1a3e 95ed 0dbd 0d63 7bbe 1744 553e
00000030: 2f81 e8bc 6be4 5f3e 1a89 8d3d 093c f4bd
00000040: d0ab febd fafe 583d 2df1 3ebe 4040 0c3e
00000050: 84a6 bd3d 640a 183e 5439 7bbb 36e0 c83d
00000060: c5f7 753d 0bb0 f53b 8ce5 8fbd d150 30be
00000070: 8e87 eabd 8b98 b53d b2fd afbd 16f3 2d3d
00000080: 3a94 9e3b 30e1 113e c733 803e 7f23 5e3e
00000090: 5ec1 583e a902 47be 763a e13d 35a0 883d
000000a0: 7599 28be d99d 5a3e 0d93 71be 2c34 11be
000000b0: b4c6 56be 7027 2cbe f2e7 4dbc 8829 14bd
000000c0: ae30 f43b 459c bfbd c3bd 453e 8524 6a3e
000000d0: 3ec6 6dbd 4fb7 80be 2778 bf3d a017 7b3e
000000e0: 2ba1 f53d a933 493e 3c1b 03be 0c22 c53d
000000f0: b885 48be b43a 5bbe 09a8 3a3e fb82 403e
00000100: d805 853e eeca 813e 3b60 3c3d ff10 ff3c
00000110: c038 58bd 81ee d43d 3a0c e8bd 3f78 3bbe
00000120: f652 0d3d 4df3 afbc 82a5 88bd d6fe 3cbe
00000130: 482f 0ebe 1a09 123e bd19 0cbe 4321 2c3c
00000140: 8b26 653e 2a96 6dbe 49e2 023e 059f 6b3e
00000150: 9168 663c 7e08 eebd 1f41 813e d89d 043e
00000160: af9a 523e 68a6 ff3d 6f3c 893e 0982 24be
00000170: 7a2c fcbd 802a 33bc e527 97bd 8eab 603e
00000180: a750 41be e118 aabd 8d6f 32bd d6d4 9f3c
00000190: 1014 cfbd 183a 763e 00f9 b93d e087 1ebe
000001a0: c657 583e 0cca 62be 1f19 f63d ed1b cb3b
000001b0: b14e 8ebd b6f1 723e 38d1 76be b2bd 26be
000001c0: a7c5 223d e6d6 fa3d 9733 003e be35 153e
000001d0: 58c2 083e 002c 64be d437 16bd 9e45 21be
000001e0: 3df6 383e 15d1 693e 95d4 4dbe 4ab2 813e
000001f0: ed26 3abd eb2f 1dbd cfb6 133e 6390 323e
00000200: 925b c23d 73e4 bebd 7ca9 c93d 2c92 eebd
00000210: fff8 aabd 3660 47be c7bc 163e b17b 83be
00000220: 4f65 4abd f710 f63c 4bff ce3c 5623 c5bb
00000230: 9a81 5ebd b8ec 7d3e ef8f e6bc cbd9 8fbe
00000240: 2359 6f3e f07d adbc 603e 64bc 11d7 18be
00000250: ce2b e13d 696b 00bd 5386 2d3e dada 4fbe
00000260: 0c24 173e c7ca 743e ef0b d9bd 0516 0a3e
00000270: f7bb 10be c32e 2cbe 3f2b 9dbd 497d 04be
00000280: 9cde 51be f7a7 673e eb46 6c3e 5e82 823e
00000290: 6dcb d8bd 18c6 023e d102 c2bd 7426 adbb
000002a0: f074 4bbe 76c1 3f3c 3c7d c7bb 2cad c43d
000002b0: a079 863d 6042 f4bd ba03 31be 9604 d83d
000002c0: d224 65be 4862 0a3e 9828 093e 2b24 05be
000002d0: 0047 16be 66d4 6dbe 7856 453b 0e25 5d3e
000002e0: 2602 7abe b3c7 8f3e 3715 ff3d cd88 00be
000002f0: ba57 7b3e fae5 bfbc 0e8b 8dbc e907 f93d
00000300: 961e a0bd c5b1 85bd b50d f4bb a36c 623d
00000310: fc28 fbbb e17b e13d 134b aabd 4f3d 193d
00000320: 61d9 6a3e 3ddd 85be 9427 9ebc ee47 cebd
00000330: 73b9 0d3e 296f 07be 1f9f 1abe d77d 19be
00000340: ca4c f03d d68a 133e 9c25 143e aa9d 6f3e
00000350: ed87 5c3e a16e 5dbe db3b cc3d 31ff 01be
00000360: cbb6 68be 6d4a 1f3d 55f1 ce3d dd09 58be
00000370: 725e 05be e53a d73d 2564 eb3d 7e4a 663e
00000380: 9fc8 ba3d 995a a8bd bb55 61be fd67 4f3d
00000390: 903b bc3d 3356 f6bd 8463 5c3e 94f5 b8bc
000003a0: e17d ea3d 3ec5 17be b505 8dbd c99e 07be
000003b0: b121 84be 644b bbbd 7d48 283e 4ee1 3a3c
000003c0: 2ff5 e0bc d308 273e 3b25 babc 33c0 073e
000003d0: 2950 753e 3e23 21be 3962 523e b1d3 783e
000003e0: 9d98 4dbd 517d a4ba 12b9 2fbe 0264 0bbd
000003f0: 2d11 80bd dad1 ffbd 9ffb 27be 7ddc 67be

gat2.bias f4 [256]
0.012135737 0.026449434 0.007606162 0.0049880967 -0.007045416 0.00980154 -0.029516302 0.02470187
0.013637657 -0.00787431 0.023086587 0.017275035 0.0033932282 -0.051995452 0.029560227 -0.03092639
0.007220802 0.026822312 -0.009983528 0.007859767 0.0052526756 -0.016257768 0.006321949 0.012689934
-0.0037996245 -0.028507166 0.04877212 -0.023363449 -0.01219747 0.016720746 -0.019195499 0.054365445
-0.03014322 -0.007549318 0.009034576 -0.013548868 -0.0275642 0.009587358 -0.011468037 -0.026229875
0.017772222 -0.021438634 -0.014947868 0.036665507 0.021310342 0.0011559251 -0.006561175 -0.060127445
0.012952874 0.003620898 0.0046730754 0.0038194612 0.037345476 0.01019783 -0.016891865 -0.022502204
0.0122680785 0.0054767607 0.022285867 0.0098104505 1.5249352e-05 0.020147357 0.007978302 0.017952237
7.00749e-05 -0.03366147 -0.013130632 -0.010025216 0.00012748537 -0.000613316 0.021092653 -0.040153958
0.0073690484 0.025894351 -0.058188554 0.023109432 -0.017510107 0.01683012 -0.00086117623 0.00917164
0.015789151 0.027431298 0.0040389188 -0.017283665 0.011721546 0.025361132 0.01586032 -0.008309274
0.0285394 -0.04070854 -0.020914063 0.025836943 0.025778241 0.020200707 -0.039873846 -0.0017260963
0.016934237 -0.012338708 0.0053055612 0.012333586 0.021417715 0.016609944 0.030556247 -0.022303874
-0.058882963 0.011306445 0.02147098 0.059456214 0.0060642087 -0.03793594 -0.021131726 -0.0055098706
0.009157501 0.01670925 0.021846637 -0.022403393 -0.011962935 0.02863189 -0.033378087 -0.0073019736
0.008042879 0.0025468715 -0.026220998 0.018466795 0.0138819665 0.018618075 -0.040663194 -0.024451654
-0.02596556 -0.00665662 0.034757 -0.011424001 -0.056385025 0.017384592 -0.0014381346 0.0035420049
-0.030797912 0.015294632 0.02016544 -0.032204866 -0.0033013911 -0.031054715 -0.041337017 0.012038242
0.001630994 0.015884737 0.01956915 -0.019453717 0.015744416 0.015967226 0.0073232967 -0.0006401453
-0.043500904 -0.003498825 -0.003912973 -0.026402067 0.0019079766 -0.0025993304 0.012103145 0.059822783
-0.029508157 0.005706133 0.016688406 -0.058336686 0.009257253 0.0027919987 -0.04285457 -0.004325504
-0.026763208 -0.01633361 0.018740322 0.0061710174 0.001417891 0.002195285 -0.009148465 0.027064145
0.015462416 0.041982897 -0.02423498 0.0011247155 -0.020379534 0.012243752 0.013949308 0.019010449
-0.023861367 -0.026478652 0.0036482117 -0.000927943 0.02066079 -0.012833242 0.014422736 -0.050730042
-0.00816722 0.006976083 -0.044981387 0.026381325 0.017418012 0.03435908 -0.029117668 0.018932935
-0.01189257 0.0012544406 0.00980592 -0.001229613 0.004543012 0.015074128 0.03277573 -0.01520567
-0.0017425352 -0.058853094 -0.037935533 0.01540475 -0.0060225897 0.012858856 -0.01600668 0.013629483
-0.012585446 0.016217405 0.025341166 -0.05294027 0.021927774 -0.02989346 0.0018958475 0.012829995
-0.01739668 -0.03107074 -0.018874833 0.013018541 0.012364895 0.01041446 -0.031619396 -0.019322848
-0.007414908 0.018094964 0.0096235955 0.021049934 -0.00787224 0.0025423376 -0.02590219 -0.020531315
-0.022191228 0.026335893 0.007649522 -0.009128735 -0.021912787 -0.011386098 4.15898e-05 -0.0073502995
-0.00028853148 0.021582939 0.026918737 0.00026531 0.029953199 0.011624543 0.0077798553 0.0046553565
00000000: f8d4 463c 7cac d83c 1d3d f93b 3073 a33b
00000010: 3cdd e6bb a396 203c 2ccc f1bc 935b ca3c
00000020: 7b70 5f3c 4003 01bc 1520 bd3c 6084 8d3c
00000030: ec60 5e3b 2ff9 54bd 4a28 f23c 5759 fdbc
00000040: 7a9c ec3b 77ba db3c f491 23bc 41c6 003c
00000050: a31e ac3b 032f 85bc 5a28 cf3b 71e9 4f3c
00000060: 1f03 79bb dc87 e9bc 46c5 473d b464 bfbc
00000070: e6d7 47bc f2f9 883c e13f 9dbc 4dae 5e3d
00000080: eaee f6bc 4560 f7bb c205 143c 12fc 5dbc
00000090: 51ce e1bc 4b14 1d3c 6fe4 3bbc 09e0 d6bc
000000a0: 0d97 913c 13a0 afbc e7e7 74bc 922e 163d
000000b0: 0793 ae3c 6982 973a 20ff d6bb 3248 76bd
000000c0: 4b38 543c 964c 6d3b 9920 993b ed4f 7a3b
000000d0: 92f7 183d cd14 273c cf60 8abc 8b56 b8bc
000000e0: 0d00 493c 6676 b33b da90 b63c 03bc 203c
000000f0: 78d7 7f37 120c a53c 6db7 023c 9210 933c
00000100: 2df5 9238 9ce0 09bd dd21 57bc ce40 24bc
00000110: 98ad 0539 f1c6 20ba 80ca ac3c 7a78 24bd
00000120: 0f78 f13b 6420 d43c 1f57 6ebd fe4f bd3c
00000130: 5b71 8fbc 52df 893c 8fc0 61ba a544 163c
00000140: 4058 813c 9ab7 e03c e858 843b 7996 8dbc
00000150: ba0b 403c 26c2 cf3c 80ed 813c 9f23 08bc
00000160: 76cb e93c ffbd 26bd f853 abbc ffa7 d33c
00000170: e42c d33c f47b a53c c252 23bd 2e3e e2ba
00000180: abb9 8a3c 4b28 4abc 46da ad3b cf12 4a3c
00000190: 3474 af3c 9411 883c 1851 fa3c 9db6 b6bc
000001a0: 432f 71bd ab3e 393c e9e3 af3c 5c88 733d
000001b0: 45b6 c63b b762 1bbd 711c adbc 258c b4bb
000001c0: 5809 163c d6e1 883c b8f7 b23c 5287 b7bc
000001d0: 3000 44bc 6d8d ea3c 76b7 08bd 6545 efbb
000001e0: 48c6 033c 6ae9 263b 6bcd d6bc ad47 973c
000001f0: 3071 633c ef84 983c 738e 26bd d64e c8bc
00000200: bab5 d4bc c71f dabb 5b5d 0e3d bc2b 3bbc
00000210: fcf3 66bd 226a 8e3c ca7f bcba fb20 683b
00000220: e74b fcbc 5696 7a3c fe31 a53c 40e9 03bd
00000230: 275c 58bb 7566 febc 0151 29bd 0c3c 453c
00000240: 14c7 d53a b520 823c 7b4f a03c 675d 9fbc
00000250: 6ffa 803c b3cd 823c 44f8 ef3b 6dcf 27ba
00000260: 012e 32bd 8b4c 65bb 6638 80bb 2649 d8bc
00000270: 1215 fa3a 8759 2abb 454c 463c bc08 753d
00000280: 17bb f1bc 83fa ba3b 20b6 883c 73f2 6ebd
00000290: bcab 173c f7f9 363b 4688 2fbd f5bc 8dbb
000002a0: 843e dbbc 10ce 85bc 4e85 993c 3f36 ca3b
000002b0: 87d8 b93a c5de 0f3b 71e3 15bc a0b5 dd3c
000002c0: 1356 7d3c 42f6 2b3d 7088 c6bc 316b 933a
000002d0: fbf2 a6bc 059a 483c a38b 643c cdbb 9b3c
000002e0: ea78 c3bc c2e9 d8bc d616 6f3b 3341 73ba
000002f0: d140 a93c 8542 52bc 574d 6c3c 4eca 4fbd
00000300: cecf 05bc a097 e43b 673e 38bd a61d d83c
00000310: 38b0 8e3c 1bbc 0c3d 2d88 eebc 3e19 9b3c
00000320: 0ed9 42bc 0b6c a43a 02a9 203c f72a a1ba
00000330: 8cdd 943b 7af9 763c d83f 063d 3421 79bc
00000340: c765 e4ba f10f 71bd 4a62 1bbd 3464 7c3c
00000350: 2559 c5bb f3ad 523c 7120 83bc 324e 5f3c
00000360: 3033 4ebc 5dda 843c 4798 cf3c e6d7 58bd
00000370: e0a1 b33c 21e3 f4bc 167e f83a e634 523c
00000380: 7b83 8ebc 1188 febc 659f 9abc b84b 553c
00000390: 2196 4a3c 69a1 2a3c 5783 01bd f34a 9ebc
000003a0: c2f8 f2bb e43b 943c 49ac 1d3c e970 ac3c
000003b0: 91fa 00bc 599d 263b d430 d4bc 4a31 a8bc
000003c0: 61ca b5bc 5fbe d73c d7a8 fa3b b190 15bc
000003d0: 7282 b3bc c28c 3abc b570 2e38 c8da f0bb
000003e0: 0a46 97b9 b4ce b03c af84 dc3c 4e19 8b39
000003f0: 6960 f53c de74 3e3c 28ee fe3b f68b 983b
