models/Scenario2_6h/gnn.pth (torch, 407323 bytes, 15 tensors)

gat1.att_src f4 [1, 4, 64]
000000 68 35 97 bd a4 75 1d be b2 83 89 3d f6 a3 48 be
       -0.07383233 -0.15376908 0.06714572 -0.19593796
000010 83 44 96 3d 91 7d 14 bd 25 d5 0d 3d 32 9a bc 3d
       0.07337286 -0.036252562 0.0346271 0.09209098
000020 93 cd 2e 3e 3d 2e 76 3e 19 36 87 3e a3 30 61 be
       0.17070608 0.24041076 0.2640846 -0.2199121
000030 46 dd 8a be 75 61 f2 3d b5 1b c6 3d c4 da 81 be
       -0.27121943 0.11834995 0.096732534 -0.25362217
000040 8c 69 a7 3c 3c 9b 33 be 82 20 55 be cc 6f 81 3e
       0.02043607 -0.17539686 -0.20813182 0.25280607
000050 df 3f ab bd 8d b0 c9 bc 3c b8 98 bc 7b ab 86 be
       -0.08361792 -0.024620319 -0.018642537 -0.26302704
000060 ff a8 62 bd ba aa 33 be 89 1a d3 bd 40 69 73 3d
       -0.05533695 -0.17545596 -0.103077956 0.059426546
000070 ac bf 50 3d f6 7d d3 3d 42 8b 2c be 3b 8b 07 3e
       0.050964043 0.103267595 -0.16849998 0.13236706
000080 f0 6f 04 3e a0 7b 08 3d 13 b0 d7 bc 8d 97 15 3e
       0.12933326 0.033321023 -0.026329076 0.14608593
000090 f9 9d 5a be 84 a9 30 3e 97 b7 db bc 59 85 86 3d
       -0.21349324 0.17252165 -0.02682094 0.06568403
0000a0 bc 94 36 bd 37 5f 92 3e 08 e0 59 bc 3b c2 22 3e
       -0.044575438 0.28588268 -0.013298042 0.15894406
0000b0 a8 41 4f be 57 cc 1e be ca 95 24 be 23 92 9b 3d
       -0.2023989 -0.15507637 -0.16072765 0.07596233
0000c0 67 54 0b be ea 91 ec 3d 58 30 c1 bd 63 a7 15 3e
       -0.13606416 0.115512684 -0.09433049 0.14614634
0000d0 42 66 22 bd 31 0b bf 3d 17 44 5c be 62 23 92 bd
       -0.039648302 0.093283065 -0.21510349 -0.07135655
0000e0 f7 d1 4e be 8c 89 00 be 6b 6b 22 3e de 29 73 3e
       -0.20197283 -0.1255247 0.15861289 0.2374644
0000f0 42 3e 78 3d b7 7f d2 3c 6c ed 71 be f0 45 85 3d
       0.06060625 0.025695665 -0.23625726 0.0650748
000100 59 62 56 3e df 86 22 3c bb 77 66 3e 2d eb 7d 3e
       0.20935954 0.009919851 0.22506611 0.24796744
000110 43 2c 06 3e a7 58 82 3e bf 1a 61 3e 67 04 0b 3d
       0.13102822 0.2545826 0.21982859 0.033939745
000120 a2 23 80 3e 65 d0 cd 3c 0c 9d 20 3e 9c 78 fb 3d
       0.25027186 0.025123784 0.15684909 0.12278864
000130 7a 0a 0d be 23 a6 28 3e 5e 30 d1 bc 18 d1 a8 bd
       -0.13773528 0.16469626 -0.025535759 -0.082430065
000140 64 6d 2d bd d1 69 f6 bc 2d 8a 6d 3c 4d 35 f2 bd
       -0.04234065 -0.030079754 0.014498276 -0.118265726
000150 0d 92 1f be df d4 20 bd 9e 69 c8 3d b8 1f dd bc
       -0.15583058 -0.03926551 0.0978577 -0.026992664
000160 8e da 5a 3e 4b f1 7a 3e 64 5b 7e 3e 3e 50 98 3e
       0.21372434 0.24506108 0.2483955 0.2974872
000170 88 b2 87 be 06 ac 89 3e 85 df 43 be 57 c3 8c be
       -0.26503396 0.26889056 -0.19128235 -0.27492782
000180 e4 f5 83 3e ea df 86 3e a8 76 b4 bd 19 e1 cf 3d
       0.25773537 0.26342708 -0.088116944 0.10150356
000190 40 fe ef 3d 50 ba 5e be cb 59 83 3e 91 ea 71 3d
       0.11718416 -0.2175076 0.25654444 0.05906159
0001a0 eb 20 c7 3d 99 6f f4 bd 25 d2 10 3e 22 c3 be 3c
       0.097230755 -0.11935348 0.14142664 0.023286406
0001b0 39 b4 4b bd 0d 9c 10 be 28 4d 54 be 5e a5 61 3e
       -0.04973242 -0.14122029 -0.20732558 0.22035739
0001c0 6b 77 8d bd 63 9f 8d 3e 31 33 07 3e 9d 94 82 3d
       -0.06907543 0.27660665 0.13203122 0.06376002
0001d0 09 5e 8f 3e 39 30 89 be a4 42 2c 3e 3f 3b 00 be
       0.2800143 -0.26794603 0.16822296 -0.125226
0001e0 89 2f be 3c ed ec 90 be f9 e5 60 bc ee 43 61 3d
       0.023216026 -0.2830576 -0.013726705 0.054996423
0001f0 a3 28 ad bd 21 02 94 3d fd 59 ad bd 19 15 85 be
       -0.084550165 0.072269686 -0.084644295 -0.2599266
000200 24 9b 82 3e 22 83 e1 bc b1 31 2f 3d 7c 39 3c be
       0.25508988 -0.02752835 0.042772 -0.18381304
000210 29 09 2d 3e 0d 87 66 3e 28 1b 4f 3e e2 11 20 3c
       0.16898026 0.22512455 0.20225203 0.009769889
000220 1f 20 75 be ff cc 8d be 19 5a 78 bc 5e be b8 3d
       -0.23938034 -0.27695462 -0.0151582 0.09020685
000230 53 4d 19 3e f0 c6 61 3e 55 2d cb bd 06 19 a6 3d
       0.14970903 0.22048545 -0.09920756 0.081102416
000240 1a cf 7a be 31 6d 9d 3e cb 46 ea bd 8a 79 4d 3d
       -0.24493065 0.3074737 -0.11439284 0.050164737
000250 28 47 83 be 7f 06 6b 3e 4b 5e 9a be 0d 6b 1d 3e
       -0.25640225 0.22951697 -0.30150065 0.15372868
000260 c1 b6 7a bd 9e 13 3c bd 84 c4 85 be f2 34 72 3d
       -0.061209444 -0.045917146 -0.26126492 0.059132524
000270 61 7d da bd a0 c1 4b be c0 08 cc bd dc 7a 11 be
       -0.106684454 -0.19898081 -0.099626064 -0.14207023
000280 8f a5 c1 bd 7c 51 fa bd ef ab 91 3e ec 75 5c 3e
       -0.09455406 -0.12222573 0.28451487 0.21529359
000290 76 56 92 bd dc 3b 15 3e 33 57 12 be bb 68 2a be
       -0.07145397 0.14573616 -0.14291076 -0.16641514
0002a0 ef 5e 24 3e 18 1e 58 3e d2 ed 1a 3e 7c 19 2b 3e
       0.1605184 0.2110523 0.15129784 0.1670894
0002b0 7b 6b 9b bd c1 e2 38 3e 95 17 eb 3d aa 06 91 bd
       -0.0758886 0.1805525 0.11479107 -0.07081349
0002c0 44 d9 a3 be b5 97 4f 3e 99 87 ab 3d 82 0b 4e 3e
       -0.32001698 0.20272715 0.083754726 0.20121577
0002d0 8c 24 8d bd b3 7d bf bc ed 06 53 be 66 8c 71 be
       -0.068917364 -0.023375368 -0.2060811 -0.23588714
0002e0 9c 98 8a 3e 1c 1f 0d 3d 0e 9d 2f 3e 11 de 62 bd
       0.27069557 0.034453496 0.17149755 -0.05538756
0002f0 e0 6e bd 3d db 10 2f be 91 3a 86 3e f5 87 14 be
       0.09249663 -0.17096274 0.26216558 -0.14504988
000300 31 71 b4 3d d6 49 c9 bd 39 d5 d9 3d 20 40 f3 3d
       0.08810652 -0.09828536 0.10636372 0.11877465
000310 e2 c4 b8 3d 32 04 e8 bd 45 47 fa 3d 98 5b 25 be
       0.090219274 -0.11328925 0.12220625 -0.16148221
000320 92 23 e6 bd 04 4b a9 3d 08 65 b3 bd 5a cd 21 be
       -0.11237253 0.08266261 -0.087595046 -0.15800992
000330 dc 84 c1 3d 08 33 2a be 61 34 39 3e 7a 86 9a be
       0.09449169 -0.1662103 0.18086387 -0.30180722
000340 54 b7 58 be ce f1 8d be d9 c7 09 be 39 2f 04 3d
       -0.21163684 -0.27723545 -0.13455142 0.032271598
000350 e5 00 84 be eb ad 53 3e 64 07 fd bd 10 22 ec 3d
       -0.25781932 0.20671813 -0.12354925 0.115299344
000360 1a 47 ba 3d 33 9d d9 3d fc 99 c6 3d c0 7f 2f 3e
       0.09095593 0.106256865 0.09697339 0.17138577
000370 74 5c 59 be 4c d8 35 3e 8c e0 2b bd f8 15 7f be
       -0.21226674 0.17758292 -0.04196219 -0.24910724
000380 a8 3c de 3c ad 61 7f 3e 51 53 1f 3e 1d 60 53 be
       0.027128533 0.24939604 0.15559126 -0.20642133
000390 7e c1 0b bd 03 25 6b bd 93 a4 bc bd ab e0 9a bd
       -0.034120075 -0.057408344 -0.092110775 -0.07562383
0003a0 f0 e6 20 be b5 f6 6f 3e 84 17 bd 3a 45 2d 12 be
       -0.15713096 0.23433955 0.0014426564 -0.14275081
0003b0 42 14 6d be 39 61 38 be 44 db 12 3d 33 77 be bd
       -0.23152259 -0.18005838 0.03585364 -0.09300079
0003c0 be 25 20 be f5 93 9e 3d 27 ab 67 3e 9d db a1 3d
       -0.15639398 0.07743064 0.22623883 0.07903216
0003d0 b4 19 6c be c0 06 d4 3c 45 65 0b be f4 fc 5d bd
       -0.2305668 0.025882125 -0.1361285 -0.054196313
0003e0 90 bf 17 3d db eb 49 3d f6 07 c3 3c f0 3c c5 ba
       0.037047923 0.049297195 0.023807507 -0.0015048068
0003f0 5a da a8 bd 09 d8 df 3d 6f 37 88 bd 36 4b bc 3d
       -0.08244772 0.10929877 -0.06651198 0.09194033

gat1.att_dst f4 [1, 4, 64]
000000 38 51 62 be ac 5f 19 be 1e 20 50 bc 5b 21 a1 3d
       -0.22101295 -0.14977902 -0.01270297 0.0786769
000010 30 88 40 3e 3f 22 a6 bd c5 de 81 be f6 87 fa bd
       0.18801951 -0.08112001 -0.25365272 -0.12232964
000020 af 61 69 bd 03 cb 10 3e 41 ce d3 3d 25 ca 51 be
       -0.056977924 0.14139943 0.10342074 -0.20487268
000030 15 0e 06 3d ae 8f b7 3d f1 b9 ff 3d 40 11 27 be
       0.032728273 0.089629516 0.124866374 -0.16315174
000040 ec 3b cf bd 70 af 2b bd e6 55 48 be 59 b6 18 be
       -0.10118851 -0.041915357 -0.19564018 -0.1491331
000050 01 24 ce 3d 28 87 15 3e c7 be 4e 3c c2 84 83 bd
       0.10065461 0.1460234 0.012618727 -0.06421806
000060 ac 3d 39 bd 80 84 bc bd cd 5d 72 be 2b 37 4b 3e
       -0.04522483 -0.0920496 -0.23668595 0.19845264
000070 63 ac 7d 3e 6b af 82 bd 85 aa eb 3c ef 0e 24 3e
       0.24772792 -0.063811146 0.028767833 0.16021322
000080 8f 61 33 3e 1d 08 82 be 8e 04 bc 3d 98 a4 cc 3d
       0.17517684 -0.25396815 0.09180556 0.09992331
000090 6b f5 39 be bf 87 15 3d 9c f2 6f be d2 c4 9e 3d
       -0.18160026 0.03650641 -0.23432392 0.07752384
0000a0 9c ab fb 3c d8 fe 5d 3e a6 91 63 3b 23 a9 ac 3c
       0.030721478 0.21679246 0.0034724264 0.021076744
0000b0 68 46 50 3e 55 cd 1a 3d 56 53 54 3e 68 ca e1 bd
       0.20339358 0.037793476 0.20734915 -0.11024934
0000c0 e0 dc 2e be ed 82 c8 3b b2 87 8f bd 08 73 84 be
       -0.17076445 0.006119123 -0.07008304 -0.25869012
0000d0 41 a1 e6 3d a8 40 94 3d a1 2f 64 bd b2 f1 81 bd
       0.112612255 0.07238895 -0.055709485 -0.06344928
0000e0 5d 99 8c 3e 63 b4 77 3e fa 94 38 3d d7 b3 6b be
       0.27460757 0.24189906 0.04506395 -0.23017822
0000f0 80 cc 37 3d ae 94 33 bd 57 f5 62 3e 9f 96 48 be
       0.04487276 -0.043842964 0.22163902 -0.19588707
000100 cb 96 89 3e 7f 96 79 3e 10 f8 d7 bd 07 8f 85 be
       0.26872858 0.24373816 -0.10545361 -0.26085684
000110 84 9c e0 bd 55 7c 82 bd 81 c7 19 be bc bf 2b 3e
       -0.10967353 -0.06371371 -0.15017511 0.1677236
000120 63 8a 57 3d 48 37 9d bd f6 df 23 be 2b 8c 43 3d
       0.05262221 -0.0767656 -0.16003403 0.047741096
000130 79 da 77 be 09 9c ed bd dc e1 74 3e 31 04 63 3d
       -0.24204434 -0.11602027 0.23914284 0.05542392
000140 a7 60 1a 3e 66 79 ac bd 2e 83 96 bd 7c af 60 3e
       0.15075932 -0.084215924 -0.07349239 0.21941942
000150 81 20 8c be a5 40 59 3e 0e 88 f0 bc 04 5f 18 bd
       -0.2736855 0.21216066 -0.02936175 -0.03719999
000160 2b 41 0b be b8 a9 51 be c7 28 95 bd e7 dd 81 3d
       -0.13599078 -0.20474899 -0.07283168 0.06341153
000170 9e 30 2a bd 5d 1b 4f be 4e 87 d3 3a 78 e3 2f be
       -0.04155027 -0.20225282 0.0016138346 -0.17176616
000180 90 8b b4 bd 92 46 e8 bd c6 63 69 3e a8 2e 34 3e
       -0.08815682 -0.11341585 0.22791967 0.17595923
000190 80 4d 81 3e 67 c4 ca bd 32 d2 f6 3d 37 45 2e 3e
       0.2525444 -0.09900742 0.1205181 0.17018591
0001a0 92 9f 26 be 4f e9 27 be 26 64 1f 3e 68 1f 76 3e
       -0.16271809 -0.16397594 0.15565547 0.24035418
0001b0 b9 c6 9e 3d ae 9b f2 bd 81 39 45 be d5 1f 2f 3e
       0.07752747 -0.118461 -0.19260217 0.17101987
0001c0 cf fc 5b 3e 61 84 7d bd af 6a 45 3d d1 28 dc 3d
       0.21483158 -0.061893824 0.048197445 0.107499726
0001d0 ec d4 54 be 50 37 10 3e 1e 7e 27 be aa ca 34 be
       -0.20784348 0.140836 -0.16356704 -0.17655435
0001e0 c7 53 ef bc 92 5e 6b 3d 46 fe e0 bb 2d ee 29 3e
       -0.029214753 0.057463236 -0.0068662493 0.16594763
0001f0 da ec 1f be 7a 9a 74 3e 39 1b 47 3e 51 4a 70 3d
       -0.15617695 0.23887053 0.19443978 0.058664624
000200 79 c4 18 3c 09 5f 7c bd c8 98 16 3e b9 ca 0f 3e
       0.0093241865 -0.06161407 0.14706719 0.14042176
000210 90 19 82 bc 32 5a 55 be 64 d1 be bc e6 93 88 3e
       -0.01588133 -0.20835188 -0.023293205 0.26675338
000220 a3 f4 fe bd 66 1c 72 be 25 7f df bc b2 aa 6f be
       -0.124490045 -0.23643646 -0.027282307 -0.23404959
000230 0e 1b 2e 3e 67 9d 1d be a0 33 2d 3e c1 2d 84 3e
       0.17002508 -0.15392075 0.16914225 0.25816157
000240 2a fa 5e bd 1f 08 83 be cf 7c d3 3b d5 76 03 bd
       -0.054437794 -0.25592133 0.0064540873 -0.03209575
000250 7b 61 82 be cc c5 16 3e 70 d7 70 3e e8 5a c3 3d
       -0.25464997 0.14723891 0.23519683 0.09538823
000260 47 51 08 3e 3f 80 08 bd 30 45 0d be 80 43 75 3e
       0.13312255 -0.03332543 -0.13795924 0.2395153
000270 ca db 5e be d4 84 82 bc cd e1 78 3e 70 80 f3 bd
       -0.2176353 -0.015932478 0.24304886 -0.11889732
000280 80 57 83 3e 55 96 ea bd 52 36 1b 3e b6 29 d3 bd
       0.25652695 -0.11454455 0.1515744 -0.1031069
000290 cb d6 3b 3e a0 21 96 3b 1c fc 67 be 73 e4 07 bd
       0.18343656 0.004581645 -0.22654766 -0.03317685
0002a0 cc ef 0e 3d c3 8d 88 3e ab a2 84 3d 23 44 67 be
       0.034896657 0.26670656 0.06476339 -0.22584586
0002b0 2f 4d 7a 3e eb 2c 3e bc de 08 2e be 82 f9 34 bd
       0.24443506 -0.011607389 -0.1699557 -0.04418326
0002c0 81 00 5e 3e 9b ef 34 3e 49 74 a7 bc 00 d2 43 be
       0.2167988 0.17669527 -0.020441191 -0.19123077
0002d0 fa eb 84 be 5c 5b 11 be ad 41 17 3e 61 21 d4 3d
       -0.25961286 -0.14195007 0.14771147 0.10357929
0002e0 23 0a 66 3e 61 03 7e 3e e6 87 fc 3d 44 b2 97 bd
       0.22464804 0.24805976 0.12330608 -0.07407048
0002f0 f6 8f f5 bb c2 67 5d be ff 71 24 3e 2e 1b 05 3e
       -0.007493968 -0.21621612 0.16059111 0.1299865
000300 75 35 4c be cd 73 7b 3e 34 73 29 be 5d 2a 51 bd
       -0.19942267 0.24555893 -0.16547853 -0.05106579
000310 21 a1 14 3c 16 4c 0a be fd 68 86 be 47 7b 64 3e
       0.009071619 -0.13505587 -0.26251975 0.22312652
000320 7a cd 7c 3d ae 78 3d 3e 9b 71 d2 bd 70 98 1c 3e
       0.061719395 0.18503067 -0.10275575 0.15292525
000330 e2 c1 10 3e f9 12 a6 3d eb bd 84 bb bd 21 d9 bc
       0.1413646 0.081090875 -0.0040509603 -0.026505345
000340 83 eb 86 3e db 39 ca bb 96 28 36 3c 3a 19 9c bd
       0.26351556 -0.0061714477 0.011118075 -0.07621999
000350 bf b2 98 bd 04 57 29 be 0b 7b 53 3d 96 56 82 3e
       -0.07455968 -0.165371 0.051631015 0.25456685
000360 32 e7 0b 3e f4 45 89 3e f5 a2 48 3e a6 ee 3d 3d
       0.13662413 0.26811182 0.19593413 0.04637017
000370 60 ac 2b 3d ee 39 2f 3e 35 7a fb 3d f3 7f 94 3e
       0.041912436 0.17111942 0.122791685 0.29003868
000380 a6 2a 47 3c 86 64 7b 3e 9e 21 cc 3d 7c d9 23 3e
       0.012156164 0.24550065 0.099673495 0.16000932
000390 88 07 dc 3d 40 4f d8 3d 55 64 67 3e d0 87 77 3e
       0.10743624 0.10561991 0.22596867 0.24172902
0003a0 d8 72 ed bd 3a 46 5c be 72 c8 e0 bd 92 07 2d 3b
       -0.1159417 -0.21511164 -0.10975732 0.0026402217
0003b0 e4 51 a5 bd d1 5b 5e be 90 4a ce bd 2d 4e 8e 3d
       -0.0807226 -0.21714713 -0.100728154 0.069485046
0003c0 24 75 af 3c 6e ab af bd f1 22 ca 3d 1b bf 58 be
       0.021418162 -0.085776195 0.09869946 -0.21166651
0003d0 b1 03 4f be ac bc f9 bc 7a e8 34 be 7b b6 22 be
       -0.20216252 -0.030485474 -0.17666808 -0.15889923
0003e0 fa c2 88 3d 7b 99 db bd 49 93 27 be ff 5e 73 bd
       0.06677814 -0.107226335 -0.16364779 -0.059416767
0003f0 4c 2d a0 3d c2 6e 39 3e bb aa 2d 3e 3a a1 3e be
       0.0782114 0.18108657 0.1695966 -0.1861619

gat1.bias f4 [256]
000000 ef e0 1c bb c9 ec a6 3b d9 ac 5a 3b 87 a3 2d bc
       -0.0023937782 0.005094145 0.0033367185 -0.01059807
000010 ec 39 d2 bc 3c 34 8b ba 52 42 8b bb aa ff 57 3a
       -0.025662385 -0.0010620425 -0.0042498494 0.0008239696
000020 76 e5 7a bc 36 2c 51 3c f3 2c 6e bc e3 05 f7 bb
       -0.015313497 0.012766888 -0.014537084 -0.0075385435
000030 66 81 3f b9 4a 09 65 39 cb 00 a2 bb c0 d6 e3 3a
       -0.00018263384 0.00021842602 -0.004943942 0.0017382726
000040 9c e6 44 bb 7f 90 46 bc dc 31 70 bb d9 dd f0 3c
       -0.003004468 -0.0121194115 -0.0036650812 0.02940266
000050 7f 6d 4d bc 8c 70 d9 3a 75 52 b6 3b 62 c4 a6 3b
       -0.012538313 0.0016589328 0.005564029 0.0050893286
000060 28 d4 b9 3b b5 35 92 bb 70 d7 a6 b9 2c 2b df ba
       0.005671043 -0.004461969 -0.000318225 -0.0017026416
000070 9d 91 02 bc 97 45 b0 b9 f9 67 fb bb d3 a8 2a ba
       -0.007969287 -0.00033621184 -0.0076723066 -0.0006510142
000080 ea d5 ac 3a 07 4b f3 bb a0 d8 98 bb 15 8b 0e 3b
       0.001318631 -0.0074247154 -0.0046644956 0.002175038
000090 7e 69 e4 bb 5e 16 25 bc 21 e1 af ba 24 d8 8c ba
       -0.0069705835 -0.0100761335 -0.0013418534 -0.0010745567
0000a0 37 7a 29 bb 50 ff bd 39 ef c3 91 3b 00 75 5f bc
       -0.00258602 0.00036239112 0.004448406 -0.013638735
0000b0 fe 44 86 ba e1 95 8c ba 45 1a b8 3a 7f 08 0f bb
       -0.001024395 -0.001072582 0.0014045915 -0.0021825132
0000c0 51 83 95 3b 24 95 14 bc d4 9f 28 3b 68 c1 5a bc
       0.0045627733 -0.009068761 0.002573003 -0.013351776
0000d0 20 99 81 3c 54 89 1c 3b fb 73 b1 bb 42 f6 46 bc
       0.015820086 0.0023885565 -0.0054154373 -0.012143673
0000e0 e3 65 c8 bc 52 99 71 bc e3 22 38 3c 08 b9 db bb
       -0.024462646 -0.014746027 0.011238786 -0.006705407
0000f0 41 f7 c5 3c a7 2f 67 3b 76 2a 88 3c 56 16 1b 3c
       0.024165751 0.0035276206 0.01662181 0.0094657745
000100 3f 66 3d 3b fd 60 ca bb a8 24 06 bc ac 1b 47 3c
       0.0028900055 -0.0061761127 -0.0081874505 0.012152594
000110 9d 04 f8 3b ed ff 20 bc 13 f5 b9 3b c1 64 57 bb
       0.0075689093 -0.009826642 0.005674967 -0.003286645
000120 ee d5 83 bc 25 8b 07 bb 5d ca 8e bb c9 4f 1c 3c
       -0.01609322 -0.0020682302 -0.0043576197 0.009540507
000130 1b 8c 62 bb ab ad e4 b9 a7 34 fa 3a fa 39 80 3c
       -0.0034568373 -0.00043616942 0.0019089178 0.015652645
000140 4b 4b 84 b9 d0 2e 5c 3c c2 b5 04 bc 1e 0b 5c bc
       -0.000252331 0.013438895 -0.008099975 -0.013430385
000150 77 2e 21 bc bf b3 96 3b a5 9b 16 3c 79 43 9c 3c
       -0.009837738 0.004599064 0.009192382 0.019075142
000160 7b 5b 87 3c ce 76 38 3c aa 59 f5 3a 9b 67 42 3c
       0.016523113 0.011258794 0.0018718739 0.011865522
000170 7a e8 94 3c 53 e8 b3 ba f1 17 41 ba 68 27 69 38
       0.01817726 -0.0013725854 -0.0007365933 5.558823e-05
000180 8e a8 5c bc 42 90 01 bc a8 72 b8 3b c1 15 a8 bb
       -0.013467921 -0.007907929 0.0056289025 -0.0051295464
000190 e7 57 cb 3b d3 0e 04 3c 99 13 ce ba 9c 63 cd bc
       0.006205547 0.008060175 -0.0015722393 -0.025071912
0001a0 16 c2 af 3c 4c ba 96 3c 04 4e 6d 3c 28 7c e2 bc
       0.021454852 0.01839938 0.014483932 -0.027647093
0001b0 c9 da a6 3b 57 2b ff 3b d9 53 98 bc 7b 61 48 3c
       0.005091999 0.007787149 -0.01859467 0.012230272
0001c0 f8 0d dd 3c c0 37 22 3b 0d 6e 2b bc 45 ec 8e bc
       0.0269842 0.0024752468 -0.01046325 -0.017446646
0001d0 00 53 c1 3b 2f c7 23 3c 7c 51 eb 3a bb 95 15 bc
       0.005899787 0.00999622 0.0017953361 -0.009129937
0001e0 c8 71 d9 bb f1 66 99 3b e8 29 ae 3b 66 b5 11 bc
       -0.0066358782 0.004681461 0.005315054 -0.008893346
0001f0 0a 8e 27 3c e4 7a ab bc 4c 2a 92 3c 81 45 29 bb
       0.010226736 -0.020932622 0.017842434 -0.002582878
000200 8a 32 b1 3c 82 99 f8 ba da 95 7d 3c 71 23 3f 3a
       0.021630544 -0.0018966647 0.015477622 0.0007291353
000210 7f 8d e5 b9 77 9f 44 3c 8c 5d f7 ba 7c af 54 bb
       -0.00043783706 0.01200091 -0.0018872484 -0.003245323
000220 8c 84 38 bb 0a 61 d3 bb e1 37 7c 3c 4a 8e f5 3b
       -0.0028155176 -0.006450777 0.015394182 0.007493769
000230 a1 0e 62 3b e3 ad 67 bc d6 5c 88 3b e1 42 01 bc
       0.0034493583 -0.014140579 0.0041614575 -0.00788948
000240 80 14 1f 3c 99 1f 17 3c 30 5b a0 bb 8e 34 f5 3b
       0.009709477 0.009223842 -0.004893683 0.0074830716
000250 8d 3c a3 3b 48 99 1c bb b6 72 08 bb 63 91 1e 3c
       0.0049815834 -0.0023895074 -0.0020820326 0.009678218
000260 ac 18 f2 bb 1c 70 68 3c b5 02 0e 3b 6a d8 20 3c
       -0.007388195 0.014186885 0.0021669094 0.009817222
000270 eb 49 8f 3b 0d d6 29 bc 81 f0 ed 3b ed 6a b0 3b
       0.0043728254 -0.010365975 0.0072613363 0.0053838403
000280 03 4a ce bb 77 87 10 3b f7 76 cc bb fc e8 46 bc
       -0.006295444 0.00220534 -0.0062397677 -0.012140509
000290 20 96 12 bc bd e1 0a bb b3 73 da 3a 3e 68 85 bc
       -0.008946925 -0.002119168 0.0016666561 -0.016285058
0002a0 e2 aa 55 bb bc d0 44 b9 9f b3 ba 3b 3f d1 33 3b
       -0.0032603075 -0.00018769776 0.005697682 0.0027437953
0002b0 b8 f1 e3 3c 58 ac 2e ba 7b ab 51 3b b0 3a 64 3c
       0.027825221 -0.00066632545 0.003199308 0.013930008
0002c0 e9 d9 89 39 c6 49 d7 3b 5b 06 60 3b 25 80 6b bc
       0.00026293032 0.006570074 0.0034183476 -0.014373814
0002d0 45 cf 47 3c d6 b0 ae bb a7 8d ba 3b 06 7d 15 3c
       0.012195413 -0.005331139 0.005693156 0.009124046
0002e0 41 8c 85 ba 85 f0 a0 bc dc df 2b bb ae e1 6b 3b
       -0.0010188894 -0.019645939 -0.002622596 0.003599267
0002f0 c9 8f 86 3c 2c 52 e9 3b 41 eb 15 3b 0b ea 64 3b
       0.016425984 0.0071203914 0.0022875818 0.003492954
000300 8c 12 39 bc 05 3f 09 3b 8f 8e 14 bc 23 3c 49 3b
       -0.011295926 0.0020942104 -0.009067192 0.003070601
000310 94 57 59 3a 15 1c 63 3c 62 ca 21 bc 17 6e 3e 3a
       0.0008290943 0.013861676 -0.009874912 0.00072643295
000320 e1 01 54 ba e3 20 b4 3b bf 12 1e 3a c8 c4 c9 bb
       -0.0008087438 0.0054970845 0.0006030015 -0.0061574914
000330 82 a2 37 3b dd e1 0f 3c 81 55 a4 3c db 70 f3 3b
       0.0028020446 0.008781877 0.020060303 0.007429225
000340 90 17 3e 3b 12 ef b4 3a 84 a8 9d bc 6f 47 e9 bb
       0.0029005744 0.0013804159 -0.019245394 -0.0071191113
000350 be dc 5d 3b 1c b5 14 3b 38 34 4f bc cd c3 a0 bc
       0.0033853496 0.0022690957 -0.012646727 -0.019624615
000360 84 c7 b3 bc 3f 33 b6 bb d8 8a be 3b b4 e0 2c bc
       -0.021945722 -0.005560308 0.0058148913 -0.01055162
000370 b3 86 3e bc 97 83 2b 3c 26 f0 2b bb bf e3 63 bc
       -0.0116287945 0.010468385 -0.002623567 -0.013909279
000380 bf 71 b3 bb ef fe 01 bc 92 d9 01 bc 44 fd 9d ba
       -0.005476206 -0.007934316 -0.007925408 -0.0012053628
000390 58 14 0a bd 54 db 5f bb 04 0d 9c 3a d8 3f 3e 3c
       -0.033710808 -0.003415783 0.0011905734 0.011611901
0003a0 ec 32 a7 3b dc f6 48 bb 48 7e 34 3c f9 98 43 3b
       0.005102506 -0.0030664718 0.011016436 0.0029845817
0003b0 31 21 21 3c cf 9c 94 bc 95 31 a7 bb 94 8e af 3a
       0.009834574 -0.018141178 -0.005102346 0.0013393932
0003c0 c3 02 4e 3b 90 e2 8a 3b 97 2f f0 3a d2 be 2b bc
       0.0031434752 0.004238434 0.001832473 -0.010482507
0003d0 43 ec 60 bc 2c 78 7a 3c 6d 3d aa 3b ca 1b bf bc
       -0.013728204 0.01528744 0.005195311 -0.02332868
0003e0 97 d7 0a bb b0 8b 9e bc ef 54 86 bb a8 90 4f bc
       -0.002118563 -0.019353718 -0.0040994803 -0.012668766
0003f0 cc 97 26 3b 5e 34 86 bc 88 62 a9 bc ea 8b 72 ba
       0.0025420068 -0.016382392 -0.020676866 -0.0009252416

gat1.lin.weight f4 [256, 52]
000000 f2 0d 90 bd 35 b5 07 be 00 98 7a 3c 74 46 03 3e
       -0.0703391 -0.13252719 0.015295029 0.12819844
000010 cf 56 9d bd 34 fb 07 3d 4c ca c6 3c e4 c9 a6 3d
       -0.07682573 0.03319855 0.024266385 0.08143976
000020 51 f0 bc bd f2 7e e0 bd fa 1a 56 3d 51 2c b9 3d
       -0.09225524 -0.10961713 0.05227182 0.09041656
000030 65 ab 8f 3c bc 42 95 bd 22 c7 bb bd 15 7d ff 3d
       0.017537782 -0.07288119 -0.09168841 0.124750294
000040 9f 91 d9 3d 6f 3f 99 bd fa 83 0b be 24 81 10 be
       0.10623478 -0.07482802 -0.13624564 -0.14111763
000050 9c 04 09 be 85 90 59 3c d6 c2 ca 3d 90 79 8c 3d
       -0.13380665 0.013279085 0.09900443 0.06859124
000060 fa 29 cf 3d 1e 15 a6 3d 32 f0 7a 3d 10 b9 88 3d
       0.10115428 0.081094965 0.061264224 0.06675923
000070 46 b3 a0 3d 7e e6 62 3c e8 ca c2 3d bf a1 9d 3d
       0.07846694 0.013848899 0.095113575 0.07696866
000080 e1 a0 89 3d bc 64 f8 3c ae 29 59 3d 01 f5 9b bd
       0.06720138 0.030321471 0.053018264 -0.0761509
000090 65 53 9b bd 77 03 f6 3c c6 dd 08 3d e8 df 5a 3d
       -0.075842656 0.030030949 0.033414625 0.05343619
0000a0 21 75 1d bd 4b d5 14 be 91 d4 95 3d b7 ac 17 be
       -0.03844178 -0.1453449 0.073159344 -0.14811979
0000b0 2a e6 db bd 17 23 e6 bd be 95 6d bb a6 52 07 be
       -0.1073726 -0.112371616 -0.0036252583 -0.13215122
0000c0 6c 7a 87 bd 9c 8a d1 bc c7 61 a2 3c 4b c4 89 bd
       -0.06615147 -0.02557879 0.019822014 -0.06726893
0000d0 c1 21 bc bc 3f 49 c2 3d 2d d9 1c 3d 66 2f 07 3e
       -0.022965314 0.09486627 0.038293052 0.13201675
0000e0 35 57 dc 3c df 12 13 3d 2c 19 93 bc dd cb 6c bd
       0.026897052 0.03590667 -0.017956339 -0.057811607
0000f0 f3 d2 d6 3d 1e ac d0 3d a3 e1 e3 bd 45 8e dc bd
       0.10489454 0.10189079 -0.11127021 -0.10769323
000100 9c 1e bd 3b f5 85 1c bd c1 cf 10 3e cd 0c 05 3e
       0.005771471 -0.03821369 0.14141752 0.12993164
000110 0c 3b 54 bd 1c 13 d7 bd c3 37 ef bd 42 dd d6 bc
       -0.051814124 -0.10501692 -0.116805576 -0.02622855
000120 35 c6 e2 bd 8a a1 fa bd 5c f7 d3 bd 2a e3 ed bd
       -0.11072961 -0.122378424 -0.103499144 -0.11615594
000130 6b 66 0b 3e 8e cc 30 3d c0 ca 1d 3b d8 1e 62 3d
       0.13613288 0.04316383 0.0024077147 0.055205196
000140 ba 99 0d 3d fa 5e d2 3a c5 cd 11 bb c1 91 ff bd
       0.034570433 0.0016050034 -0.0022247892 -0.12478972
000150 6a e5 10 3e c0 a6 f9 bd d0 15 14 bd d8 48 5b bd
       0.14150015 -0.12190008 -0.036153615 -0.053536266
000160 24 49 bd ba 11 04 b4 3a 9c 85 fc bc cc 2d a0 bd
       -0.0014441353 0.0013734122 -0.030825429 -0.07821235
000170 51 38 1a 3d 8c e9 93 bd 79 3f e1 bd 4c 75 9a bc
       0.037651364 -0.0722228 -0.109984346 -0.01885476
000180 63 2d a9 bd 8e b3 1d be 39 67 a8 3d 3a 38 b2 3c
       -0.0826061 -0.15400526 0.08222813 0.021755327
000190 13 7f 1f 3c 56 7e 0d 3e d5 15 ef 3d 98 8a e0 3d
       0.009734887 0.13817725 0.11674086 0.10963935
0001a0 3e 6e ab 3d 5f e4 3d 3d 60 b3 5f bd 47 f3 02 be
       0.083706364 0.04636037 -0.054614425 -0.12788115
0001b0 f1 ce af 3d fc 02 14 bd 9f b5 eb bd d5 f6 14 bd
       0.08584393 -0.03613566 -0.11509251 -0.03636821
0001c0 56 73 2d bc ff 45 e5 bd 34 43 1d 3d a1 07 a2 3d
       -0.01058658 -0.11194991 0.038394168 0.07911611
0001d0 4f 0b 39 3d b0 4b b8 b9 b0 f3 c9 3d 22 00 00 3e
       0.0451768 -0.00035151606 0.09860933 0.1250005
0001e0 7b b7 78 bd 9f 9e 6e 3d 4b 33 e8 3d b7 11 23 3d
       -0.060721856 0.05825674 0.11337908 0.039811816
0001f0 c0 f1 1e 3d 6e 2a fd bd e1 ec 04 3d 58 06 02 3e
       0.03880477 -0.123616084 0.032452468 0.12697732
000200 1c 85 11 bd 2c 97 fd bc 28 28 5e 3d 19 b4 7c 3d
       -0.035527334 -0.030955873 0.054237515 0.061695192
000210 b0 f1 e3 3d 91 d4 c7 3d 3f 26 16 3d 92 ae 22 3d
       0.111300826 0.09757341 0.036657568 0.039717264
000220 e3 78 16 bd 05 d1 b4 3d 81 36 3b bd 2b a1 8f bd
       -0.03673638 0.0882893 -0.045706276 -0.07013162
000230 c1 37 50 bd 42 92 9d bd 34 f6 65 bd 4b 99 07 bd
       -0.05083442 -0.07693912 -0.056143 -0.033105176
000240 42 dd 0b 3e 4c ab b4 3d ce 24 ad bd 4b f8 07 3e
       0.13658622 0.08821735 -0.084542856 0.1327831
000250 60 3d b9 3b af 8e dd 3d f2 04 8e 3d b6 ec d7 bd
       0.0056530684 0.1081823 0.06934537 -0.10543196
000260 c3 7a e2 3d 31 ab de bc c3 3e 3a bb 8d be e4 3d
       0.11058571 -0.02718124 -0.0028418757 0.11169157
000270 d0 16 42 bd ab 6b 9e bb 86 2d b2 bd a0 1e c5 bd
       -0.047385037 -0.0048346124 -0.08700089 -0.09624982
000280 1f 8b 09 3c f4 23 da 3c 0d 2d ec 3c fe c1 c1 3d
       0.008394985 0.026628472 0.028830076 0.09460829
000290 b1 12 cb bb d3 1a bd 3d cb cd f5 bd c5 5c cb bb
       -0.0061972965 0.09233632 -0.120021425 -0.0062061273
0002a0 a2 c8 56 bd 61 bc 9d 3c 66 22 9d bd 5b 88 aa bd
       -0.052437432 0.019254865 -0.076725766 -0.08326789
0002b0 2f 8f 4e 3c 91 fe 1d 3c f6 bb aa bd 4c db cd bd
       0.01260738 0.009643213 -0.08336632 -0.10051593
0002c0 a9 a7 01 3d 43 f6 a0 3d 78 35 d3 bb 67 7f b5 3d
       0.031654034 0.07859471 -0.006445583 0.08862191
0002d0 b2 8b 30 3d c5 bf 8e bd 51 23 21 bd 8a fb 8d 3d
       0.043101974 -0.06970171 -0.03934032 0.06932743
0002e0 47 53 a2 bd 73 f7 c1 3d f5 82 57 3b e5 b7 98 3c
       -0.0792604 0.09471025 0.0032884453 0.018642375
0002f0 11 90 de 3d 27 22 08 3b a4 12 ff bd a2 f2 00 be
       0.10867322 0.002077231 -0.12454727 -0.12592557
000300 d1 84 af bd 47 d8 97 3d be 82 06 be f4 22 e9 3d
       -0.085702546 0.074142985 -0.13135812 0.1138362
000310 16 5d 8c bb a7 8e e8 3d 77 5e 02 3e e9 eb 01 be
       -0.0042835576 0.11355334 0.12731348 -0.12687649
000320 c6 79 4b 3d 4e a3 d8 3d ae 73 2d 3d f7 5a cb 3d
       0.04967668 0.10578023 0.04234665 0.099294595
000330 73 cc b2 3c 51 c4 a4 bd 58 2b 26 3d 4d a4 44 bd
       0.021826005 -0.08045257 0.04056868 -0.048008252
000340 89 a3 f0 3d c6 ff 80 3d 22 4f 2f bd a4 cf a1 3d
       0.11749942 0.06298785 -0.042800076 0.079009324
000350 b6 94 59 3d b3 c5 97 bc 3e e7 06 bb 09 37 c7 bc
       0.053120337 -0.018526888 -0.0020584608 -0.024318235
000360 4d fa 90 bd fb b6 af bd 16 16 44 3d e1 08 11 bd
       -0.07078991 -0.08579823 0.047872625 -0.03540886
000370 f0 6e b0 bd d4 de bb 3d 1f e3 97 bd 00 7c 05 3d
       -0.0861491 0.091733605 -0.07416367 0.03258896
000380 c7 20 8d 3c 71 56 35 3d d5 b8 9b 3d 3b e9 f0 bd
       0.017227544 0.04427189 0.07603613 -0.11763235
000390 c2 59 fd bd a3 d0 df 3d f0 bf 2c 3d e6 2f cb 3d
       -0.123706356 0.10928466 0.042175233 0.09921245
0003a0 91 07 f8 bd 41 1e c0 3d 93 f9 05 3d 34 5b bd 3c
       -0.12110818 0.093807705 0.032708716 0.023114778
0003b0 e1 99 71 bd 78 be be bc c8 88 02 3e 09 45 0d 3d
       -0.05898464 -0.023284182 0.1274749 0.034489665
0003c0 9f 71 04 3b d6 4f 5c 3c d6 6d 53 bd 92 68 46 3d
       0.0020209325 0.013446769 -0.05161842 0.04843957
0003d0 c1 61 b6 bd b8 d2 91 bd 44 61 80 3d fc f8 a8 3d
       -0.08905364 -0.071202695 0.06268552 0.08250615
0003e0 b4 cb 32 bc 9e 7d 9d bc cf c5 21 bd aa 7f e3 bd
       -0.010912824 -0.019224938 -0.039495286 -0.11108334
0003f0 e9 73 2f 3d 9f 36 db 3d e4 ab f1 3d 96 50 cd 3d
       0.04283515 0.107037775 0.11800364 0.10025136

gat2.att_src f4 [1, 4, 64]
000000 7f 49 d9 bd 96 7b 32 be 54 0f 27 be e1 48 9b bd
       -0.106097214 -0.17429957 -0.16314441 -0.0758226
000010 36 fb 3b bc 8a dd 16 3e 40 51 18 be 34 35 49 3e
       -0.011473468 0.14732948 -0.14874744 0.19649202
000020 0e 74 92 be fc 5d 50 bc 86 66 40 3e 87 3a ae 3d
       -0.28604168 -0.01271772 0.1878911 0.08507257
000030 d8 b1 40 be 74 e2 71 3e 2e 34 ee bd 95 53 86 be
       -0.18817842 0.23621541 -0.11631046 -0.26235643
000040 45 ef 8b 3e 33 3c 4c be 2c d4 d6 3d 9b e5 00 be
       0.27330986 -0.19944839 0.10489687 -0.12587588
000050 d3 ca 7f 3e 31 8a 46 be db 11 90 3e de 8a 66 be
       0.24979715 -0.19388653 0.28138623 -0.22513911
000060 bd 75 12 3e 58 08 94 be bc 4b 5f be 09 5e 0a be
       0.14302726 -0.28912616 -0.21806234 -0.13512434
000070 1d 21 f5 3c 2b ff 3e be 36 66 3c be 3a 13 a3 bd
       0.029923016 -0.18652026 -0.18398365 -0.079626516
000080 89 c1 61 be 3c 09 41 bb a0 fd f2 bd 2c 00 7d be
       -0.22046484 -0.0029454967 -0.118647814 -0.24707097
000090 49 c3 21 3e 56 15 03 be a4 7f 94 3d 85 ef 60 3e
       0.15797152 -0.12801108 0.07250908 0.2196637
0000a0 df 30 53 3e 0d 77 69 3e 40 96 59 be f6 62 48 be
       0.20624112 0.2279932 -0.21248722 -0.19569
0000b0 f2 63 01 3e 32 82 5f be 95 e3 9f bd f2 d2 4e 3d
       0.12635782 -0.2182701 -0.0780708 0.050494142
0000c0 f8 7e 3e be 4f dc 5c be 62 17 b5 3d e0 4a 25 3e
       -0.18603122 -0.21568416 0.088423505 0.16141844
0000d0 3a 0c c0 3d 61 4e 43 be d1 c2 e4 bd f1 4b 90 3e
       0.09377332 -0.19072868 -0.11169971 0.2818294
0000e0 65 03 31 be 8a 22 67 be 8a 41 1b bd 06 20 ae 3d
       -0.17286451 -0.2257177 -0.0379043 0.08502202
0000f0 14 b8 71 3e 81 ce 87 3d bb bd 60 bd 71 89 d6 3d
       0.23605376 0.06631184 -0.05486844 0.104754336
000100 97 13 eb 3d 1b 10 4b 3c ac b7 e1 3d fb 2e 0b be
       0.11478346 0.012393977 0.11021361 -0.1359214
000110 08 ad 8b be f0 50 22 bc 5f 69 1b be a3 0e 03 be
       -0.2728045 -0.009906992 -0.15176915 -0.12798552
000120 e3 4b 10 3e 95 99 55 3e 21 6b 56 be 20 de 41 3d
       0.14091448 0.20859368 -0.20939304 0.047330976
000130 b4 97 9c 3d 2a ae aa 3d 17 72 cf 3c 84 d1 89 3e
       0.076461226 0.083340004 0.025322957 0.2691766
000140 04 bb 3e be 33 8d 55 be 45 09 d2 3d ab 01 65 3e
       -0.18626028 -0.20854644 0.10255674 0.22363918
000150 f0 8d 1e 3e c9 26 3c be cb 1e 9e 3d 31 e7 a3 3d
       0.15483832 -0.1837417 0.07720717 0.08003081
000160 86 d3 a4 bd aa 7e 6f be 6f 96 2d 3d 6a 02 4c 3e
       -0.080481574 -0.23388162 0.042379793 0.19922796
000170 70 ae 8e be 56 c4 8f be 8a 99 07 3e dd 7f 8a 3e
       -0.2786746 -0.2807948 0.13242164 0.27050677
000180 04 f2 db bd 92 22 cc bc 71 e8 4d 3e 15 d9 2c 3e
       -0.1073952 -0.024918828 0.201082 0.16879685
000190 4d d1 74 be 28 8c 3c 3d 27 ec 52 3e 04 5e d8 3d
       -0.23907967 0.0460321 0.20597897 0.10564807
0001a0 d3 17 a5 bc da 72 b2 39 a0 5d 3c be 06 59 4e be
       -0.020152962 0.00034036377 -0.1839509 -0.20151147
0001b0 61 e8 da bd 29 e1 84 be 78 e6 c2 3d 5b b3 28 3e
       -0.10688854 -0.25953034 0.09516615 0.16474669
0001c0 ca 84 ba bc 3d fb 2f be 58 b0 29 be 9b b7 81 3e
       -0.022768397 -0.17185684 -0.16571176 0.25335392
0001d0 bb 57 7e 3e 89 2e b9 bd 0d 99 27 3e 3d 51 7d bc
       0.24838154 -0.09042079 0.16366978 -0.015461263
0001e0 d3 02 13 be 9e 01 d2 3d 4c 92 e4 bd 92 ec 5f 3e
       -0.14356546 0.10254215 -0.111607164 0.21867588
0001f0 07 ac 14 bd 9d 05 d7 bc 9a db a4 3d 3d 4b c0 bd
       -0.03629687 -0.026247794 0.08049698 -0.093893506
000200 9d 41 92 bc c2 c9 8d be db d5 99 3d 7d b3 2a 3e
       -0.017853552 -0.27692991 0.07511493 0.16670032
000210 25 2a 14 3c 19 3e 38 bd cb c5 25 3e 66 b9 13 3d
       0.009043251 -0.044981096 0.16188733 0.03606548
000220 31 ff 74 be e9 f1 b8 3d ba fb 93 3e 72 8b 95 be
       -0.23925473 0.09030516 0.2890299 -0.2920795
000230 6c f4 68 be 68 14 22 be 0e 04 2a bd df 7e 85 3e
       -0.2274949 -0.15828097 -0.041507773 0.26073357
000240 47 62 46 3e db a4 93 be a6 17 6b 3e 4d 0e 65 bd
       0.19373427 -0.28836712 0.2295824 -0.05592184
000250 6b 96 ed 3c 11 34 8d be b6 45 15 3e c7 e4 52 3e
       0.029002389 -0.27578786 0.14577374 0.20595084
000260 bb 6d 18 be 0b 47 af bc 11 c8 ad 3d 20 ca 82 3d
       -0.14885609 -0.02139618 0.08485425 0.063862085
000270 21 b4 ac 3d bc 5b 26 bd 03 e5 5e bd 72 a0 73 be
       0.08432794 -0.04061483 -0.05441762 -0.23791674
000280 a3 a4 04 be 98 e0 51 be 7f b5 52 3e 77 3c cd bd
       -0.12953429 -0.20495832 0.20577048 -0.100212984
000290 90 e8 3f be b0 7c 3c be 56 8d 14 3e 77 1f 6e 3e
       -0.1874106 -0.1840694 0.1450704 0.2325419
0002a0 2b b1 8b be 7e 0d 4c 3c 9f d2 63 bd c4 76 1a be
       -0.27283606 0.012454389 -0.055620786 -0.15084368
0002b0 cc ae 43 bb 37 d0 7b 3d 03 5a 04 3e e0 dc 73 be
       -0.0029858826 0.061477866 0.12924962 -0.23814726
0002c0 fb 27 90 bd 55 5b 34 bc ef 18 38 be 43 ec 53 3e
       -0.07038876 -0.011008103 -0.17978261 0.20695595
0002d0 d5 75 8d be 37 7b 92 3e 30 ac f2 bb 6a 0f 15 3e
       -0.2762896 0.2860963 -0.0074057803 0.14556661
0002e0 ad 90 31 3e 33 72 b0 3d b2 c1 48 bd 26 fa c3 ba
       0.17340346 0.08615532 -0.049012847 -0.0014951869
0002f0 83 fd dc bd 7d f1 0f 3e 4b 64 be 3d 5c 15 75 3e
       -0.10790541 0.14056964 0.09296473 0.23933929
000300 4f 30 14 3e 7e d0 f5 bd 79 30 84 bd 3f 94 13 3e
       0.14471553 -0.12002657 -0.06454558 0.1441202
000310 4d 9b f4 bd 03 84 4a be 4f 8a 37 be a1 10 8f be
       -0.11943684 -0.19776921 -0.17923854 -0.27942374
000320 2a 39 34 be 85 30 62 be c3 4c 2e 3e c7 44 99 3e
       -0.17599931 -0.22088821 0.1702147 0.29935285
000330 60 0d 2b be 5e 5b 37 3e 79 93 a4 bd 90 4f 8f be
       -0.16704321 0.17905948 -0.08035941 -0.2799039
000340 38 45 a6 3d f2 d8 84 bc d0 06 83 3e 75 f5 3e 3e
       0.08118671 -0.016216729 0.25591135 0.18648322
000350 9b 44 24 be 48 60 1c be 13 2c 17 be e8 83 62 3d
       -0.16041796 -0.15271103 -0.14762907 0.055301577
000360 c0 fb 02 be e9 b6 ca 3d cd 77 04 be 03 a7 7d 3e
       -0.12791348 0.098981686 -0.12936325 0.24770741
000370 4e fd 34 3e 42 8a 90 3e e6 91 50 3e bb a3 74 3e
       0.17674753 0.28230482 0.20368156 0.23890583
000380 db fc 50 be d9 b1 bf 3d 81 10 6a 3e 1a 6b 61 be
       -0.20408957 0.093600936 0.22857858 -0.22013512
000390 73 0d 8f be bd 7e 39 be 10 a1 6f be b7 fb 50 3e
       -0.27939948 -0.18114753 -0.23401284 0.20408522
0003a0 6e 50 92 3d 89 22 15 3e d7 95 79 be 33 39 33 be
       0.07144247 0.14563955 -0.24373566 -0.17502289
0003b0 e6 b7 80 3e 9a 51 77 be 38 95 12 be 57 43 4d 3e
       0.25140303 -0.24152222 -0.14314735 0.2004522
0003c0 55 00 a3 bd 74 ed cc bd 05 e6 14 3d e4 0d 49 3e
       -0.07959048 -0.10006228 0.036352176 0.19634205
0003d0 68 e2 91 3c ab 91 d6 bd 8a f9 30 3e ab d8 17 be
       0.017808154 -0.10477003 0.17282692 -0.14828746
0003e0 79 50 1a 3d 87 1e 33 be 03 34 25 3e 83 d4 0c be
       0.0376744 -0.17492114 0.16133122 -0.13752942
0003f0 fb dd 5d 3e 14 a8 f2 3d b8 ef 8c 3c 30 a1 b9 bd
       0.2166671 0.118484646 0.01720415 -0.09063947

gat2.att_dst f4 [1, 4, 64]
000000 31 b4 73 3e 3e 8f 7b bc e9 07 60 3d c6 50 f0 bd
       0.23799206 -0.015353976 0.054695044 -0.11734156
000010 62 7c 8b 3e ae 39 23 bc 34 13 53 be 2f 06 0a 3e
       0.27243334 -0.009962482 -0.20612794 0.13478921
000020 4d 54 46 3e 00 f7 fa 3d 7f 40 5d 3e 35 ce d6 bd
       0.19368096 0.12254143 0.21606635 -0.104885496
000030 c5 1d 54 3e 09 42 b9 bb f6 6c 64 be f5 6f f7 3c
       0.20714481 -0.005653624 -0.2230719 0.030204752
000040 c7 6c 93 3e b5 bc 0f be 2f 94 28 3d 8a 71 d1 3d
       0.28793928 -0.1403683 0.041156944 0.10226734
000050 b9 fb 81 be 26 ba 5c bd a8 9f ca bd 92 04 8c bc
       -0.25387362 -0.053888462 -0.09893733 -0.017092023
000060 c5 4a 04 be 88 bb 86 bb 43 fb 19 3e d4 5e 76 3d
       -0.12919147 -0.004111711 0.15037255 0.06014903
000070 a1 2d 9a bd 5a b6 fd 3d ae 86 82 3e 21 7d 80 bd
       -0.07528234 0.123882964 0.25493377 -0.062738664
000080 d2 ae 82 be d3 05 28 3d 0e 7f 95 3e a4 ce 3f bd
       -0.25524002 0.04102118 0.29198498 -0.046827927
000090 f6 c3 8b bd 2c a0 19 be 1b 23 58 be 53 ad 31 3d
       -0.06824486 -0.15002507 -0.21107142 0.043378185
0000a0 49 91 2a 3e 22 da 3e 3e 2f 2f 6f 3d a3 29 7e 3e
       0.16656984 0.18637899 0.058394607 0.2482057
0000b0 a4 00 65 be 28 aa 43 3e b2 59 72 3c 3f 3b b2 bd
       -0.22363526 0.19107878 0.014791893 -0.087027065
0000c0 68 05 07 3e d5 8e 29 be 8f 4d 4c 3e a0 8d 61 3e
       0.13185656 -0.16558392 0.19951461 0.22026682
0000d0 08 1a 83 3e bc 46 6a bd 7c 6d a5 38 28 0a 1d be
       0.25605798 -0.057196364 7.888206e-05 -0.15335906
0000e0 4c bc 7f 3e c0 3f dd bc e9 3d 63 3e fb b6 30 be
       0.24974173 -0.027007937 0.22191586 -0.17257302
0000f0 4c 4c 51 3e f5 01 ba 3d c5 15 8b 3e 57 c1 8f be
       0.20439261 0.090824045 0.27165046 -0.28077194
000100 46 91 63 3e d2 86 32 3c 44 b5 80 be 5d b8 19 bd
       0.22223386 0.0108964015 -0.25138295 -0.03752934
000110 c9 89 f7 bd c7 54 c0 bd 7e 87 55 3d 61 aa 4b be
       -0.12086827 -0.0939117 0.05213117 -0.19889213
000120 4f c8 8f be 2d 50 80 3e 60 0e 55 3d 12 7f 88 3d
       -0.2808251 0.2506117 0.052015662 0.06664862
000130 2e f9 62 3e de c1 97 bd 00 40 02 3e a4 2e c0 bd
       0.22165367 -0.07410024 0.12719727 -0.09383896
000140 6c 3a a5 bd 22 7a b6 3d c0 5e 3c 3e 4c e9 3b 3e
       -0.08067784 0.08910014 0.1839552 0.18350714
000150 4c 8f 67 3c 7d 17 ed 3d d5 34 b7 3c 70 4f 39 be
       0.014133286 0.11576746 0.02236406 -0.18096709
000160 d3 d0 2a be a3 8e 90 bd b4 2a f1 3d 40 9d 74 3e
       -0.16681223 -0.07058456 0.11775723 0.23888111
000170 2c e1 8d 3e b3 98 be 3d 60 16 42 3e 84 52 cd bd
       0.27710855 0.09306469 0.18953848 -0.10025504
000180 64 41 30 3d d9 63 9e 3d eb cb 4f 3e 69 fa 33 bb
       0.04303111 0.07733888 0.20292632 -0.0027462489
000190 a1 3e 7e be 97 a6 50 be 28 d0 83 3e a7 9e 42 3e
       -0.24828579 -0.20376049 0.25744748 0.19005834
0001a0 da 2c 7a 3e 2b bf 38 be 7b c8 11 be 07 18 eb 3d
       0.24431172 -0.18041675 -0.14236633 0.11479192
0001b0 b2 da 84 be ec 58 59 3e 6b a1 15 3e f3 eb 0f be
       -0.259481 0.21225327 0.14612357 -0.14054851
0001c0 3a 57 66 3e a0 83 96 be 76 d3 98 bc 27 ba 89 3e
       0.22494212 -0.29397297 -0.01865552 0.26899835
0001d0 36 24 84 3e 7f 06 fd 3d 45 05 ec bd e0 f2 dc 3d
       0.25808877 0.12354755 -0.115244426 0.10788512
0001e0 d7 c0 63 3e bd 81 e6 3d c6 78 eb bb d9 17 42 be
       0.22241531 0.11255214 -0.007186028 -0.1895441
0001f0 71 6b 3f 3e 02 d5 96 3e ad 40 a8 bd 9d 17 7a be
       0.1869333 0.29459387 -0.08215461 -0.2442307
000200 5e 76 0f be 94 91 5e be f0 3f 24 be 11 a7 40 bd
       -0.14009997 -0.21735221 -0.16040015 -0.047034327
000210 58 e7 91 3d 44 58 3c be c7 64 14 be 51 af 85 3e
       0.071242034 -0.18393046 -0.14491569 0.26110318
000220 69 65 18 3e 5d 91 1f be 78 0d 90 bd a5 02 08 3e
       0.14882435 -0.15582795 -0.07033819 0.13282259
000230 f2 8c 21 3c 8e ab ce 3c 69 06 2a 3d f9 b5 36 be
       0.009860264 0.025228288 0.04151002 -0.17842855
000240 aa e9 53 3e 85 f9 65 3e a8 f3 de bc c6 54 c9 bd
       0.20694605 0.22458465 -0.027215794 -0.098306224
000250 b8 5c fa 3d 84 aa c2 3d de cc 53 be 1f ff 72 3e
       0.12224716 0.095051795 -0.2068362 0.23730133
000260 dd 47 83 be 84 5d 06 be 26 ee 85 bc 3e 20 a6 3d
       -0.25640765 -0.13121611 -0.01634891 0.081116185
000270 cc 2b 61 3e a8 b5 7f 3e 2d 2c 92 bd 6d a1 94 be
       0.21989363 0.2497164 -0.07137332 -0.29029408
000280 b5 7a 45 3e 57 74 8a be 10 96 8a be 5a 1c 90 bd
       0.1928509 -0.27041885 -0.27067614 -0.07036658
000290 93 84 91 bc 39 0b 4f 3c a8 29 38 be 87 f8 0e 3e
       -0.017763412 0.012636953 -0.1798464 0.13961993
0002a0 7f d4 86 be 0b 93 f9 bd 08 bc 02 3e b1 9a a0 bd
       -0.26333997 -0.12186249 0.1276704 -0.07842005
0002b0 af 31 41 3e 15 5b 86 be 32 a6 34 bc b2 8a 55 3d
       0.18866609 -0.26241365 -0.011025952 0.052134223
0002c0 1f b6 91 3d 86 70 b3 3c 95 9e e6 3c c4 1f 85 be
       0.07114815 0.021904241 0.02815179 -0.26000798
0002d0 0b 3d ac bd 50 3f 3e 3e 6c f9 d1 3d c9 7b 6d 3d
       -0.084100805 0.1857884 0.102526516 0.05797938
0002e0 24 68 63 be 19 51 6d bd aa ee 8d bd 63 22 3b be
       -0.22207695 -0.05793867 -0.06930287 -0.18274836
0002f0 3d f3 62 be c5 b3 e9 3d 63 e9 fb 3d 80 25 8d bc
       -0.221631 0.114112414 0.12300374 -0.017229795
000300 51 08 0a be 36 09 f5 bd 1e 94 65 bd 59 64 4a 3e
       -0.13479735 -0.119646475 -0.05604946 0.19764842
000310 7c 2c 32 be ee fa 40 be 2f bd 7c 3e a3 cc 7e be
       -0.17399782 -0.18845722 0.24681543 -0.2488275
000320 37 f5 44 bb ca 53 eb bd 01 34 1f bd df cc e1 3d
       -0.0030053386 -0.11490591 -0.038867954 0.11025404
000330 69 28 17 bd 72 f8 5d 3c e3 a5 aa 3d 5b b1 8a be
       -0.036903773 0.0135480035 0.08332422 -0.27088436
000340 4a c2 95 bd b5 de 8c bd c9 fa 3a 3e a0 b6 f0 bd
       -0.07312448 -0.068784155 0.1825973 -0.11753583
000350 16 c4 60 be fe 7a a3 3c 32 5f 31 bb 77 36 91 3e
       -0.21949801 0.019956108 -0.0027064797 0.28361866
000360 8f c8 99 3d d5 6e 0c 3d cb 28 f1 bd 8a 8f 7f be
       0.07508957 0.034285385 -0.11775359 -0.249571
000370 9b fb 09 3e 72 b2 02 bd 67 fb 84 3e 40 ef 45 bd
       0.13474886 -0.03190846 0.25973055 -0.04832387
000380 67 86 58 be 27 43 17 bd 67 b8 81 3e 5d 70 c4 bd
       -0.2114502 -0.036929276 0.25336 -0.09591744
000390 34 9b 81 be 61 67 12 3e 5c 72 5e be 6b ba 01 bd
       -0.25313723 0.14297248 -0.21723312 -0.031671923
0003a0 96 0d 86 bd 65 c3 d7 bd 4d 01 73 3e 53 52 fc bd
       -0.0654556 -0.105353154 0.23730965 -0.123203896
0003b0 89 ca 02 be b7 6d bd 3d b6 2a 39 3e c7 2d 07 3e
       -0.12772574 0.09249442 0.18082699 0.13201056
0003c0 cd 8e 07 be f9 73 78 3e 49 d3 4c be df 1b 95 3d
       -0.13238068 0.2426299 -0.20002474 0.072807066
0003d0 8f 62 22 3e 8a 36 0c be 2b 6a ff bd 08 88 0d be
       0.1585791 -0.1369268 -0.12471422 -0.13821423
0003e0 ee 8a 10 be 5c e1 72 3d 97 22 83 bd 15 ba 10 be
       -0.14115497 0.05929695 -0.06403082 -0.14133485
0003f0 8e cf 7e 3e b2 3f d4 bd 82 97 97 bd c3 5f 0a be
       0.24883863 -0.103637114 -0.07401945 -0.13513093

gat2.bias f4 [256]
000000 39 0e 8d bb d8 81 99 bb bf ce 00 3c 68 9b 54 bc
       -0.004304674 -0.004684668 0.007861792 -0.012976505
000010 ab 16 3f bb ee 2a c3 bc 9b 1b 82 bc f5 f3 95 bb
       -0.0029157798 -0.023824181 -0.015882304 -0.004576201
000020 b0 4b d8 bb e2 37 95 3b 42 b2 ea 3a f9 99 0b 3c
       -0.0066008195 0.004553781 0.0017905908 0.008520597
000030 76 e2 31 bc a2 db 09 bc 82 b0 a9 3b 6d 74 e7 3a
       -0.010857215 -0.008414181 0.005178512 0.0017658599
000040 53 06 78 bb 00 c3 00 bc 91 4a c0 3b 84 ea 66 3b
       -0.0037845566 -0.007858992 0.005868264 0.0035234997
000050 f8 20 28 bc be 3f ba ba e8 03 66 bc 33 97 bc 3c
       -0.010261767 -0.001420967 -0.014039017 0.023021316
000060 31 73 52 bb ce 02 0d bc 18 39 45 3b 19 78 c4 3b
       -0.0032112116 -0.008606626 0.0030093845 0.005995762
000070 c0 cc b0 ba da d4 69 3b 8b 49 6b 3c 28 06 f7 ba
       -0.0013488755 0.0035679848 0.014360796 -0.0018846439
000080 8e 03 80 3c c9 d9 b2 ba 7a 35 0e 3c c4 6b 7c ba
       0.015626695 -0.0013645227 0.008679742 -0.00096290954
000090 25 53 d9 3b 01 84 aa 3b 12 b0 2c bc fc 2d 41 3b
       0.006632226 0.0052037244 -0.010540025 0.0029476872
0000a0 96 7a 64 3a 29 e5 18 bc 91 ab 6a 3c c0 24 c9 bb
       0.00087157765 -0.00933198 0.014323131 -0.006138414
0000b0 fa d8 b9 bb 7d d7 11 3c 52 29 e1 3b 89 e3 bd bc
       -0.0056716176 0.008901474 0.006871381 -0.023179786
0000c0 32 5d 79 3c 5a a4 d9 bb 1f ba f9 3a b9 e9 5e bc
       0.015219973 -0.0066419067 0.0019052661 -0.0136055285
0000d0 ec 10 e9 bb 22 d0 8e 3c e1 47 8c bb cb 87 d3 bb
       -0.007112613 0.01743323 -0.0042810296 -0.006455397
0000e0 ab 8e 36 3c 09 a6 4f 3c e9 4c 55 3c 0f 11 df bb
       0.011142413 0.012673863 0.013018825 -0.0068074535
0000f0 2a 01 30 3c 9d 92 0e bb b4 89 dc bb 69 5a 1d 3c
       0.010742465 -0.0021754869 -0.0067302827 0.009604075
000100 69 04 95 bc dd c7 8d 3c 69 e7 b6 bb 1c b1 0d bc
       -0.01819058 0.017307216 -0.0055817855 -0.008648183
000110 02 eb 1e bc 0f e3 4b 3b 5c 19 15 bb 52 63 56 3c
       -0.009699585 0.003111068 -0.002275071 0.013085203
000120 ca c1 8f 3c fa e9 1e 3c dc 70 2f bc ed cb 7a bc
       0.01754846 0.009699339 -0.01070806 -0.015307409
000130 43 85 b1 3c 93 6f c4 3a e7 b9 b1 3c 8c cc 6d bb
       0.02166999 0.0014986865 0.02169509 -0.003628525
000140 ae d7 d1 bc c4 51 88 3c 75 f6 28 bc 44 24 ac bb
       -0.02561554 0.016640551 -0.010312666 -0.0052533466
000150 79 18 99 3a 21 a2 b9 ba 99 c5 19 bc 59 d3 02 3c
       0.0011680267 -0.0014162698 -0.00938549 0.0079849595
000160 d4 97 21 bc 79 cb 75 3c f4 73 07 bc fd ea ce ba
       -0.009862859 0.015002125 -0.0082673915 -0.0015786585
000170 f6 3d 1f 3c 84 5a 40 bb fc e4 d7 3b f9 11 25 bb
       0.0097193625 -0.0029350827 0.0065885764 -0.0025187714
000180 7b d4 f3 ba f9 06 f5 bb 8a 24 24 3c 34 d2 f4 bb
       -0.0018602753 -0.007477638 0.010018477 -0.007471347
000190 c7 40 a4 bc 6b 70 6e 3b e0 88 63 3b 85 88 07 bc
       -0.02005042 0.0036382924 0.0034719035 -0.008272295
0001a0 9d d8 1e 3c 04 ef af 3b 88 20 6a bc 74 51 e1 bb
       0.009695199 0.005369069 -0.014289983 -0.006876165
0001b0 69 40 b0 3c 33 87 9b 39 ca a5 c0 bc 18 1a 03 3b
       0.021515088 0.00029664635 -0.023516554 0.0020004567
0001c0 ff 83 45 ba 02 92 87 3b 6c 7e 39 3a 11 51 ba bc
       -0.00075346226 0.0041372785 0.0007076028 -0.022743734
0001d0 f6 e4 7b 3b f8 e8 83 bc fa be 13 b7 dc c3 c4 3b
       0.0038436032 -0.0161023 -8.806348e-06 0.0060047936
0001e0 f6 46 a8 b9 1d b6 04 3b 23 ca b7 bb 22 95 9f 37
       -0.00032096327 0.002025015 -0.0056088134 1.9023722e-05
0001f0 71 c6 98 b9 e8 2d 84 3b e8 b6 a5 3b 08 41 37 bc
       -0.0002913955 0.0040337928 0.0050572045 -0.011184938
000200 cd c1 9f 3b c0 5a ad 3c 21 a5 08 3c 9f 4a 15 bc
       0.004875398 0.021161437 0.008340151 -0.009112029
000210 94 18 61 bc e3 16 c4 3c 4e 83 1a 3c ed 3d 87 bc
       -0.01373877 0.023936694 0.00943072 -0.01650902
000220 f2 b0 9e 3c 84 a4 8b 3c 1b c9 c5 3c d9 b3 e8 3b
       0.019371483 0.01704622 0.024143746 0.0071015176
000230 c4 be 80 3c f2 10 9c bb ba 2a ef bb cf 25 16 bc
       0.015715964 -0.004762762 -0.0072987946 -0.009164288
000240 39 8e 39 bc 94 75 f3 bb 54 f2 d1 3c b1 0e 15 3b
       -0.011325412 -0.007429788 0.025628246 0.0022744352
000250 c3 51 90 3c e0 f7 18 3c 5f 09 b4 bb 82 ed 21 3c
       0.017617112 0.009336442 -0.005494281 0.009883286
000260 30 f1 46 3b 76 49 bb 3b f2 76 71 3c c6 a4 2d 3c
       0.0030356161 0.0057155443 0.014737831 0.010598367
000270 dc 87 81 bc 10 e9 31 3c d0 9f 31 bc 3d da e9 39
       -0.015811853 0.010858789 -0.010841325 0.00044603823
000280 76 e3 e4 ba 11 64 09 3c 21 94 0c 3c 64 34 13 3c
       -0.0017462808 0.008385674 0.008580239 0.008984659
000290 6a 83 a0 3a 2d 8c f1 3a 6f b9 92 bb 9d 22 e3 bb
       0.0012246196 0.0018428616 -0.004477672 -0.0069316165
0002a0 a8 22 61 bc 13 14 20 bc 31 6c aa 3b 64 95 91 3c
       -0.013741173 -0.009770411 0.0052008857 0.01777143
0002b0 9f 62 24 bc 90 30 0a 3b 60 fa 22 bc 61 4e 15 3c
       -0.010033279 0.0021086074 -0.009947389 0.009112925
0002c0 b5 6b d8 3b a7 d6 8b 3b 88 4a a8 3b 22 da 03 3c
       0.0066046366 0.004267532 0.005135838 0.008047612
0002d0 bc f1 b3 bc 01 b6 9c 3b 2d cc 32 3c a2 e9 0a 3c
       -0.021965854 0.0047824387 0.010912937 0.008478554
0002e0 b5 72 0f bc 36 79 06 3c 6e e5 9d bc fe 21 07 3c
       -0.008755376 0.00820761 -0.01927444 0.00824785
0002f0 10 cc b6 bb 6d 30 c7 bb e6 5a 32 3c 5d d1 3f 3c
       -0.0055785254 -0.006078771 0.01088593 0.011707631
000300 10 96 e0 3a 06 95 9a 3b f6 a3 ad bb 2b 2f 1b bc
       0.0017134566 0.004717472 -0.0052990867 -0.009471695
000310 bf 0c b9 3c 9a 65 2e bc ab 5c 4a 3b 1a 28 db bb
       0.022589086 -0.010644341 0.0030877988 -0.00668813
000320 da 3a 0b 3c 9e a9 df bb f3 8b 7f bc 5d b2 1d 3c
       0.008497918 -0.00682564 -0.015597331 0.009625045
000330 5a ed 51 3c 65 0a 96 3b 35 96 cd 3b fb a7 a1 bb
       0.012812937 0.004578876 0.0062740096 -0.004933355
000340 7f 33 37 bb 0c fc 05 3a 6c ea 5a 3a 65 b6 63 bc
       -0.0027954278 0.0005111105 0.00083509716 -0.013898467
000350 f2 a3 48 3c 7b 18 15 bb ea cf 8b bb 79 cc 1c bc
       0.012246119 -0.0022750187 -0.0042667286 -0.009570234
000360 ef 53 86 bb af 74 2d 3c 5c 61 a3 bb 05 3d 18 bc
       -0.004099361 0.010586902 -0.0049859714 -0.009291892
000370 58 31 54 3b 88 f6 6e 3c 45 ec 23 ba 56 d8 02 bc
       0.0032378044 0.014585145 -0.00062531634 -0.007986149
000380 8e ed a0 3b 47 fc 89 bb 86 4a 33 bc ae 65 cb bb
       0.004911131 -0.004210982 -0.010943061 -0.0062071895
000390 a3 46 80 3a 32 2e f4 3b 09 89 8d bc 0f 9d eb b9
       0.0009786676 0.007451796 -0.017277258 -0.0004493971
0003a0 a6 07 41 bc 4e 15 86 bc 0a df 5a 3c cc 72 dc 3b
       -0.011781609 -0.01636758 0.013358841 0.006727552
0003b0 cf 0a 98 ba 80 6e ab 3c ed 2f 45 bc 11 8c 56 3c
       -0.0011599901 0.020926714 -0.012035352 0.013094918
0003c0 13 ff 28 bc f0 ae b1 ba 95 01 49 bc 96 de 51 bc
       -0.010314721 -0.0013556164 -0.012268444 -0.012809416
0003d0 f2 9e 93 bb cd e6 ff 3b 8a d7 29 3c 1e 19 76 bc
       -0.0045050317 0.007809496 0.01036633 -0.015020637
0003e0 30 40 ea bb 6d 56 66 3b af 37 90 3c 94 5a 75 3c
       -0.007148765 0.0035146729 0.017604677 0.014975209
0003f0 db a5 aa 3c f4 ed 89 bc ca 81 c9 3b 2a a5 ca bb
       0.02083104 -0.016837098 0.0061495053 -0.00618424
