Analyses/models/Scenario1_1h/gnn.pth (torch, 410651 bytes, 15 tensors)

gat1.att_src f4 [1, 4, 64]
0.1341179 -0.21093112 0.21664236 -0.21652785 -0.20173824 -0.009565783 -0.22686449 0.2144926
-0.115177535 0.28528848 0.24815165 0.25418395 -0.11282135 -0.20937291 -0.073814295 0.06694749
-0.23172276 0.2052866 -0.15627243 0.018809333 0.11023595 -0.24042867 -0.23662612 0.12718202
-0.19360256 0.004028207 0.0074838484 0.16835277 -0.020146878 0.11878328 -0.18754764 0.27661398
-0.2192778 0.19835387 -0.20032121 0.12658732 -0.0036043602 -0.034795217 0.23513444 -0.008650354
0.013224085 0.20780557 0.07780325 0.09440025 0.09225288 -0.10453383 -0.08779699 -0.011311782
-0.05493181 -0.06957997 0.23375866 -0.0778719 0.06799221 -0.22246101 0.18680294 -0.15546392
-0.16684557 0.039896447 0.23245175 -0.06365308 0.14795794 -0.0002823296 -0.17653129 -0.25723803
-0.014238862 -0.23579913 -0.16457626 -0.26501405 0.21893427 -0.18126847 0.06642805 -0.24139962
0.30152678 -0.1277888 0.22118554 0.15126441 -0.12981428 0.20976312 -0.23136996 -0.12971236
-0.26185307 0.0798487 0.26675436 -0.13248086 0.1295134 0.24484448 -0.103469074 0.04926597
0.18372166 0.23441184 -0.06235371 0.238841 0.0024366581 -0.0073764636 0.20302586 -0.005301641
-0.27571 0.09480288 -0.17914987 0.025457956 -0.17510593 0.25768062 0.04523639 -0.041761678
0.22504534 0.21925922 0.22916363 0.25997075 0.1916138 -0.04272896 -0.03570861 -0.07286429
0.1203071 0.15341468 0.25789392 -0.28524882 0.17909585 0.16682751 0.2753088 -0.09111759
-0.04947719 -0.033824567 -0.11151912 0.19597 0.18615195 -0.11023027 0.01765094 0.15594634
0.24350253 -0.03955539 -0.14173459 0.26862615 0.14294818 0.08924494 0.23042572 -0.20192125
-0.034261897 -0.10467322 -0.038565736 -0.18486361 0.15649287 -0.03560878 -0.12421044 -0.07665739
0.20316307 0.021702299 -0.014268361 0.027763607 0.24011481 -0.029256374 -0.24057963 -0.12521268
0.2151492 -0.23564471 0.25718006 -0.11819451 -0.2562025 -0.1796806 -0.10794561 0.05450623
0.03795419 0.28792182 0.2766707 -0.2506343 -0.04318946 -0.19218569 -0.09053102 -0.22315578
0.13425596 -0.14355963 0.2027353 0.12158641 -0.23024704 0.24054308 0.23038708 -0.07278411
0.18075615 0.20622136 0.2606913 -0.13190617 -0.24177454 -0.042215616 0.22654882 -0.20628344
0.17633963 0.20973456 0.052598167 0.26576057 0.094980225 0.22893006 0.1959417 -0.027511425
-0.07243345 -0.004177038 0.035240006 0.018192073 -0.23308346 0.1835543 -0.21889083 0.20748568
0.10164014 0.1404063 0.054117415 -0.019019922 0.0024321335 -0.09645072 0.12372132 0.24849312
0.24059147 -0.018679306 0.061862823 0.19712766 0.092691004 -0.08999088 -0.08175646 0.1461705
0.23386028 -0.16013493 -0.19509457 0.17512575 -0.09591136 -0.23199907 0.15260595 -0.13450256
0.15787354 -0.15741277 0.26151708 0.024229873 0.26697177 -0.2346461 -0.19055271 -0.0019238521
-0.18942344 -0.15722886 -0.18135062 0.2740323 -0.23942295 0.008860121 0.18851127 0.14505704
-0.16954513 0.12385646 0.15702099 0.097943 0.09945204 0.15357034 -0.09058953 -0.16654497
-0.03629588 -0.2267713 -0.14129034 0.23339885 -0.058909766 -0.11651134 -0.0860237 0.08280188
00000000: 3456 093e 54fe 57be 7fd7 5d3e 7ab9 5dbe
00000010: 7894 4ebe cdb9 1cbc 2a4f 68be f3a3 5b3e
00000020: 33e2 ebbd 5511 923e 771b 7e3e 6624 823e
00000030: e10e e7bd da65 56be f32b 97bd c41b 893d
00000040: bb48 6dbe a736 523e e105 20be 0816 9a3c
00000050: 63c3 e13d ef32 76be 1e4e 72be 013c 023e
00000060: c03f 46be 0dff 833b 123b f53b ab64 2c3e
00000070: 110b a5bc a644 f33d 7d0c 40be 59a0 8d3e
00000080: 5c8a 60be 471d 4b3e 0121 4dbe 1ba0 013e
00000090: 2137 6cbb 6e85 0ebd 15c7 703e 37ba 0dbc
000000a0: d5a9 583c fcca 543e 4f57 9f3d eb54 c13d
000000b0: 14ef bc3d d515 d6bd e9ce b3bd 0d55 39bc
000000c0: 2d00 61bd f17f 8ebd 6e5e 6f3e 4d7b 9fbd
000000d0: 803f 8b3d d2cc 63be 4549 3f3e ef31 1fbe
000000e0: 91d9 2abe 756a 233d d507 6e3e 8c5c 82bd
000000f0: 4982 173e a305 94b9 9ec4 34be b4b4 83be
00000100: 1e4a 69bc 5475 71be ae86 28be ecaf 87be
00000110: 4e30 603e 719e 39be 6e0b 883d 7631 77be
00000120: b861 9a3e 11db 02be 767e 623e 0fe5 1a3e
00000130: 09ee 04be 25cc 563e 3fec 6cbe 51d3 04be
00000140: 9b11 86be b787 a33d 0794 883e 10a9 07be
00000150: 299f 043e 83b8 7a3e 98e7 d3bd 1dcb 493d
00000160: 8821 3c3e a809 703e 9b66 7fbd bc92 743e
00000170: 57b0 1f3b 43b6 f1bb 03e6 4f3e 63b9 adbb
00000180: dc29 8dbe 0328 c23d 1073 37be 348d d03c
00000190: f84e 33be b7ee 833e cb49 393d 4b0e 2bbd
000001a0: 4972 663e 7d85 603e dfa9 6a3e e31a 853e
000001b0: 6836 443e 9004 2fbd 3143 12bd df39 95bd
000001c0: 9263 f63d bd18 1d3e ac0a 843e 220c 92be
000001d0: e764 373e d5d4 2a3e 46f5 8c3e dc9b babd
000001e0: 98a8 4abd a18b 0abd 2364 e4bd 5cac 483e
000001f0: 9e9e 3e3e 68c0 e1bd b498 903c 66b0 1f3e
00000200: ba58 793e d504 22bd df22 11be 5e89 893e
00000210: 0261 123e 0dc6 b63d b8f4 6b3e 72c4 4ebe
00000220: 3456 0cbd ea5e d6bd 1bf7 1dbd e34c 3dbe
00000230: ab3f 203e 83da 11bd 0b62 febd 8dfe 9cbd
00000240: fb09 503e 05c9 b13c d8c5 69bc 8170 e33c
00000250: a8e0 753e 10ab efbc 825a 76be c137 00be
00000260: 1250 5c3e d94c 71be 1bad 833e f70f f2bd
00000270: f92c 83be 31fe 37be 9712 ddbd ed41 5f3d
00000280: da75 1b3d 7d6a 933e c8a7 8d3e 2453 80be
00000290: 6ee7 30bd 53cc 44be 5468 b9bd f382 64be
000002a0: 657a 093e 4c01 13be d899 4f3e 4c02 f93d
000002b0: e1c5 6bbe ed50 763e 97ea 6b3e d60f 95bd
000002c0: 2418 393e b12b 533e 5479 853e 6912 07be
000002d0: bf93 77be 48ea 2cbd 6afc 673e f73b 53be
000002e0: 6092 343e a8c4 563e 2d71 573d c511 883e
000002f0: fe84 c23d a46c 6a3e f1a4 483e a45f e1bc
00000300: fd57 94bd 89df 88bb d357 103d 8b07 953c
00000310: 6ead 6ebe a9f5 3b3e eb24 60be 2077 543e
00000320: b528 d03d abc6 0f3e 39aa 5d3d abcf 9bbc
00000330: 6e64 1f3b f587 c5bd 9a61 fd3d fb74 7e3e
00000340: 9c5d 763e 5805 99bc df63 7d3d d5db 493e
00000350: c8d4 bd3d 234d b8bd ee6f a7bd b8ad 153e
00000360: 1279 6f3e 69fa 23be dfc6 47be 2a54 333e
00000370: 2d6d c4bd 2a91 6dbe bc44 1c3e 0abb 09be
00000380: 9aa9 213e d030 21be 91e5 853e ba7d c63c
00000390: 86b0 883e 1147 70be 4020 43be c429 fcba
000003a0: 38f8 41be 9a00 21be fab3 39be f64d 8c3e
000003b0: 4a2b 75be 0a2a 113c 1909 413e d589 143e
000003c0: 3d9d 2dbe 75a8 fd3d 1cca 203e 5796 c83d
000003d0: 83ad cb3d 8b41 1d3e 0187 b9bd c48a 2abe
000003e0: fdaa 14bd bc36 68be 6aae 10be 1c00 6f3e
000003f0: 5e4b 71bd 7f9d eebd 322d b0bd 0894 a93d

gat1.att_dst f4 [1, 4, 64]
0.23185584 -0.07163571 -0.18353333 -0.16289495 0.09044586 0.092843376 0.20710881 -0.20266078
-0.05245081 -0.11513471 0.250065 -0.22154376 -0.13880804 0.042859524 0.20285343 -0.12849517
0.037778817 -0.18382722 0.23172286 0.2207066 0.010589406 0.1018019 -0.24443685 -0.158971
-0.0025417302 0.14054972 0.22064057 -0.02064218 -0.1101098 -0.13167726 0.11386636 0.24847715
-0.21717957 -0.14076471 -0.19279791 0.20683168 0.053575464 0.17924072 0.066063076 0.014228252
0.21435367 0.2242783 0.14619121 -0.22382064 0.06865561 -0.18137401 0.24111184 0.09332641
-0.21820784 0.19016668 0.036938913 0.041552637 0.008433904 -0.24748285 -0.133369 0.009934956
-0.25109118 -0.23382069 0.15192294 -0.026154827 -0.17123795 0.06910161 -0.19122298 -0.14808747
-0.08878526 -0.08984607 0.12266772 -0.20492946 -0.080632985 -0.023717778 -0.12619518 -0.16638678
0.2749796 0.25821528 -0.28581366 0.047338177 -0.1936377 -0.024171382 0.11038831 -0.17441984
0.08508857 -0.25463176 -0.20794126 0.20299879 0.16573592 0.10005926 0.009038413 -0.18133493
0.07509074 0.0013363835 0.2531298 0.06736252 -0.10731968 0.25226024 -0.24130571 -0.037047993
0.28630066 0.08952286 -0.1760932 0.21093936 -0.27454257 0.030310296 0.085389666 0.16331096
0.14035758 0.10601553 0.24713066 0.058741845 -0.21158618 0.17877679 -0.12951438 -0.11097047
0.15361287 0.005017766 0.06832075 -0.16717628 0.0869606 -0.10913331 -0.08729867 -0.13629827
0.22383386 -0.26339763 -0.14152338 0.13973878 0.103596814 -0.06481458 -0.1766471 0.17324163
-0.01656876 -0.10275991 0.12878132 -0.02848073 0.029707719 -0.2229388 0.025974128 -0.13217421
-0.13302867 -0.23810978 0.14156136 0.15554245 0.23768361 -0.07902448 -0.12461564 -0.0738015
-0.032329537 0.11573226 0.15648338 0.053136256 -0.079842664 0.07763371 -0.07250803 0.14704438
-0.20069024 0.08058796 -0.08204593 0.10813713 -0.185697 0.23864299 0.03858094 -0.24854493
-0.19840014 0.008908952 0.10876072 0.03529531 -0.08516789 -0.096786804 0.09666732 0.0027713822
-0.037127458 0.0730127 0.15318018 -0.17931275 0.19721282 -0.14315152 0.1726972 -0.11867658
-0.04093747 -0.092546746 -0.025599618 0.14587122 0.094101466 -0.007309034 0.10256088 -0.17536952
-0.25478002 -0.20794629 -0.07470655 0.12445526 -0.045052174 -0.07820765 0.12244412 -0.22531499
0.07863197 0.04856261 -0.25955552 0.22524597 -0.16406098 0.18115126 0.1399057 0.2561925
0.0050972765 0.14165895 -0.047812015 0.16628215 -0.039720144 -0.049096953 -0.13614129 0.1421444
-0.109243184 0.2390831 -0.22134574 0.20840435 0.08200533 0.014701327 0.22671773 -0.22122702
-0.13314804 0.06586768 0.00046024777 0.16632222 -0.11322015 -0.14570597 -0.19070932 -0.26186213
-0.113688305 0.2167887 -0.026324756 -0.24061231 -0.04631583 -0.24478935 -0.26519102 -0.24580526
0.24623969 0.04038757 0.17606801 -0.20987055 0.09780066 -0.12198857 -0.1136254 -0.033497427
-0.008376402 0.16359559 -0.0134422295 0.063961886 -0.22739524 -0.19908215 -0.19737126 0.20935763
-0.0052227224 -0.18141736 0.25805035 -0.030269243 -0.2379451 0.18465924 0.15752827 -0.23266134
00000000: 9e6b 6d3e beb5 92bd 29f0 3bbe efcd 26be
00000010: ae3b b93d ab24 be3d 5514 543e 4f86 4fbe
00000020: a9d6 56bd bfcb ebbd 8508 803e 5edc 62be
00000030: b223 0ebe 788d 2f3d cfb8 4f3e 3d94 03be
00000040: f6bd 1a3d 343d 3cbe c248 6d3e e900 623e
00000050: 307f 2d3c 847d d03d a74d 7abe 4bc9 22be
00000060: 2893 26bb 44ec 0f3e 9aef 613e ca19 a9bc
00000070: 3f81 e1bd 67d6 06be c432 e93d cb70 7e3e
00000080: 5264 5ebe a024 10be d16c 45be afcb 533e
00000090: f271 5b3d e18a 373e 144c 873d 9d1d 693c
000000a0: 877f 5b3e 36a9 653e 26b3 153e 3d31 65be
000000b0: 509b 8c3d 1cba 39be 06e6 763e eb21 bf3d
000000c0: e071 5fbe 0ebb 423e 424d 173d 1933 2a3d
000000d0: 5b2e 0a3c 256c 7dbe e291 08be 3ac6 223c
000000e0: 068f 80be b16e 6fbe b091 1b3e a642 d6bc
000000f0: 0059 2fbe 2585 8d3d f5cf 43be 3ea4 17be
00000100: 0cd5 b5bd 3701 b8bd 3739 fb3d 07d9 51be
00000110: e822 a5bd c94b c2bc 4f39 01be 4c61 2abe
00000120: 20ca 8c3e cb34 843e 2b56 92be ade5 413d
00000130: f648 46be 1003 c6bc 4413 e23d 1d9b 32be
00000140: eb42 ae3d 185f 82be 8eee 54be eade 4f3e
00000150: adb6 293e dfeb cc3d da15 143c ddaf 39be
00000160: 2dc9 993d 9729 af3a 3b9a 813e 5cf5 893d
00000170: 6cca dbbd 4128 813e d818 77be a3bf 17bd
00000180: 0096 923e c357 b73d c751 34be 7d00 583e
00000190: d890 8cbe 4c4d f83c c7e0 ae3d fd3a 273e
000001a0: e6b9 0f3e ac1e d93d d20f 7d3e 4a9b 703d
000001b0: 0caa 58be 4311 373e 6b9f 04be 7c44 e3bd
000001c0: b14c 1d3e 126c a43b c0eb 8b3d 4230 2bbe
000001d0: 6618 b23d 4981 dfbd a5c9 b2bd c691 0bbe
000001e0: b434 653e 0edc 86be 81eb 10be af17 0f3e
000001f0: 912a d43d 82bd 84bd fae2 34be 4166 313e
00000200: 35bb 87bc ca73 d2bd 40df 033e 6b50 e9bc
00000210: 9a5d f33c 124a 64be b2c7 d43c ad58 07be
00000220: ab38 08be 0dd3 73be 76f5 103e 8546 1f3e
00000230: 5563 733e 96d7 a1bd 7c36 ffbd 3e25 97bd
00000240: fa6b 04bd 0905 ed3d 2e3d 203e 67a5 593d
00000250: 8d84 a3bd 6cfe 9e3d 177f 94bd cd92 163e
00000260: be81 4dbe 4d0b a53d b207 a8bd 0077 dd3d
00000270: 5b27 3ebe d45e 743e 0c07 1e3d 9082 7ebe
00000280: 6829 4bbe daf6 113c f1bd de3d d191 103d
00000290: 816c aebd 2938 c6bd 84f9 c53d 14a0 353b
000002a0: f612 18bd af87 953d 44db 1c3e c39d 37be
000002b0: 28f2 493e 5096 12be 89d7 303e b50c f3bd
000002c0: 0cae 27bd 2689 bdbd 4ab6 d1bc 445f 153e
000002d0: 45b8 c03d 9f80 efbb 700b d23d 1194 33be
000002e0: 8772 82be dfef 54be bfff 98bd 66e2 fe3d
000002f0: a188 38bd 552b a0bd fcc3 fa3d f9b8 66be
00000300: cc09 a13d 96e9 463d 76e4 84be e1a6 663e
00000310: 9aff 27be b77f 393e 7143 0f3e aa2b 833e
00000320: 0e07 a73b 0b0f 113e 88d6 43bd de45 2a3e
00000330: 97b1 22bd e319 49bd 9f68 0bbe 4d8e 113e
00000340: e4ba dfbd 33d2 743e 75a8 62be f367 553e
00000350: 69f2 a73d d6dd 703c b128 683e 5689 62be
00000360: f657 08be a2e5 863d 694d f139 5f50 2a3e
00000370: f7df e7bd f233 15be 4e49 43be cb12 86be
00000380: 6ad5 e8bd dbfd 5d3e 04a7 d7bc 1363 76be
00000390: abb5 3dbd 0faa 7abe 1ec7 87be 60b4 7bbe
000003a0: 4226 7c3e 706d 253d 2c4b 343e 4ee8 56be
000003b0: b64b c83d 25d5 f9bd 6fb4 e8bd 9934 09bd
000003c0: 2d3d 09bc 9a85 273e cc3c 5cbc 73fe 823d
000003d0: 4cda 68be 31dc 4bbe b11b 4abe d961 563e
000003e0: 5f23 abbb 79c5 39be 2d1f 843e 34f7 f7bc
000003f0: e1a7 73be 5017 3d3e 174f 213e c63e 6ebe

gat1.bias f4 [256]
0.010751593 -0.006668985 0.0030606398 0.020425923 0.006058172 0.010994804 -0.014034288 -0.012337368
-0.014815669 -0.0028072507 0.026033841 -0.012370744 -0.0055029755 0.0032887864 0.010965339 -0.024334166
0.00011954075 -0.008197779 -0.010191796 -0.0030181631 -0.008251471 -0.0004365822 0.0015494914 -0.006839514
-0.011394716 0.013046339 -0.030857965 0.0127140675 0.005286324 0.010468373 -0.0013779417 0.009236271
-0.015761921 0.010788435 0.01365753 0.014054057 -0.0046569747 -0.011966951 -0.018977087 -0.0072483825
0.012870629 -0.0037916887 -0.010111269 0.005418587 0.0019033537 0.023345146 0.0031727278 -0.022886705
0.028411875 -0.004306268 0.015337973 0.018970579 0.0036377762 0.004628059 0.0019387392 0.012966252
-0.0122451475 0.01320889 0.019122018 0.0029747535 0.0116897365 0.005743879 0.0068962504 0.011541989
0.012003514 -0.014005512 0.013849308 -0.010927916 -0.0076716607 0.0045907726 0.004050372 0.019579275
0.00055437436 -0.003798423 -0.005013983 0.008840389 -0.0018722878 -0.02543463 -0.0033992839 0.03130346
0.008771005 -0.0022426783 -0.019425832 0.016088177 -0.008255832 -0.021901406 0.007782294 -0.009895927
-0.0061072246 0.018069126 0.017784148 0.0033390112 0.011768054 0.0014322131 0.014450127 0.0059138634
0.00016465929 -0.021240707 0.008928094 -0.030167524 0.0013411004 0.0020113296 0.01454544 0.008067438
0.007377909 0.004016285 -0.005010824 -0.005339914 -0.009417681 0.0033565692 0.018326882 0.0047640637
0.0004901867 -0.0141399205 0.008526028 0.016885364 -0.016083058 -0.009958226 0.0017843453 -0.016465807
0.018051764 -2.5748092e-05 -0.003737354 -0.014062429 0.0013079098 -0.018921101 0.0034322497 0.013621777
0.018462831 0.011113787 0.024411684 0.027618727 -0.024775025 0.0014633712 -0.032244317 -0.011495406
0.0002396497 -0.014860176 0.021266602 0.024563821 0.00716958 0.008015576 0.023450227 -0.021045879
0.003932895 -0.03147495 -0.030700883 0.00012776654 -0.0066718636 0.0089814495 -0.0050488156 0.00029605426
-0.0036750822 -0.021740984 0.019557128 -0.013324893 0.018252742 0.005925414 -0.0010734859 -0.014054701
-0.011092204 0.021540662 0.014030266 0.017260151 0.017066015 -0.0047566076 -0.0039111823 -0.0022225268
-1.5944975e-06 -0.004230581 0.0073088068 -0.008858644 0.0047269957 0.020204887 -0.0027133469 0.0037715994
0.0073247775 -0.016587945 -0.0018905264 0.0005812332 -0.008509457 0.0077899285 -0.0008426926 -0.0034290224
0.010542332 -6.4073036e-05 -0.011796285 0.01631835 0.012811817 0.022580437 0.0018323393 -0.012932492
0.0074377474 -0.0040524127 0.001000254 -0.007113971 -0.003194144 0.0010323349 -0.01538027 0.003901986
0.013959815 0.000970026 -0.0060225893 -0.0143466685 -0.010257727 0.010288752 0.001819649 -0.0019307139
-0.0014030687 -0.009872418 -0.00032769953 0.008473268 -0.021080466 -0.00065677916 0.01151872 -0.027382288
0.0064318553 0.00423486 0.015449908 -0.018111318 -0.0019231375 0.005806438 -0.004790714 0.020777114
0.0017365478 0.013806018 -0.037881 -0.0075333114 -0.0057776095 -0.0024921524 -0.003626422 -0.008050214
-0.00058164995 0.0044042715 0.017541863 -0.0077061728 0.0024406463 0.0159976 -0.025278233 -0.016702507
0.0015911874 -0.003808222 0.01203832 0.013656843 0.018542992 0.0057334597 -0.010409603 -0.027440133
-0.0034389116 -0.0046764454 -0.0042073843 -0.003329532 -0.011990779 -0.0016460522 -0.0054760124 0.002350457
00000000: 7327 303c 8087 dabb 0495 483b 4454 a73c
00000010: a183 c63b 8d23 343c 12f0 65bc ac22 4abc
00000020: 6bbd 72bc daf9 37bb ec44 d53c a9ae 4abc
00000030: 4e52 b4bb ae88 573b f7a7 333c 7258 c7bc
00000040: f4b1 fa38 fa4f 06bc 7efb 26bc 60cc 45bb
00000050: 2e31 07bc 12e5 e4b9 4e18 cb3a 001e e0bb
00000060: e7b0 3abc 50c0 553c d8c9 fcbc aa4e 503c
00000070: e638 ad3b 8a83 2b3c 0d9c b4ba ba53 173c
00000080: 251f 81bc fac1 303c d5c3 5f3c fd42 663c
00000090: 8999 98bb 0811 44bc d675 9bbc d783 edbb
000000a0: 55df 523c fb7d 78bb bca9 25bc 678e b13b
000000b0: f479 f93a 523e bf3c 8aed 4f3b e67c bbbc
000000c0: 05c0 e83c 981b 8dbb 1f4c 7b3c 3068 9b3c
000000d0: c267 6e3b f9a6 973b 4b1d fe3a 6770 543c
000000e0: df9f 48bc 1a6a 583c c7a5 9c3c 15f4 423b
000000f0: 4f86 3f3c 2637 bc3b f1f9 e13b 9c1a 3d3c
00000100: 63aa 443c 6077 65bc 35e8 623c 000b 33bc
00000110: 8e62 fbbb 316e 963b fcb8 843b b764 a03c
00000120: 6f53 113a f7ee 78bb 574c a4bb 47d7 103c
00000130: 8e67 f5ba 495c d0bc 85c6 5ebb 0f38 003d
00000140: 43b4 0f3c e6f9 12bb ec22 9fbc 5acb 833c
00000150: 7843 07bc 946a b3bc 9d02 ff3b 8722 22bc
00000160: 1d1f c8bb b405 943c 10b0 913c 50d3 5a3b
00000170: ccce 403c 19b9 bb3a 3ac0 6c3c 15c9 c13b
00000180: 64a8 2c39 fe00 aebc 2447 123c e221 f7bc
00000190: ddc7 af3a 83d0 033b ff4f 6e3c 4a2d 043c
000001a0: 63c2 f13b 0a9b 833b d731 a4bb 72fa aebb
000001b0: 9e4c 1abc e3f9 5b3b 4222 963c dd1b 9c3b
000001c0: df7f 003a 20ab 67bc c1b0 0b3c 2d53 8a3c
000001d0: 9ec0 83bc d427 23bc b1e0 e93a 4de3 86bc
000001e0: 4be1 933c 9bfd d7b7 65ee 74bb 1a66 66bc
000001f0: 2c6e ab3a 6d00 9bbc 98ef 603b e02d 5f3c
00000200: 5d3f 973c 9a16 363c 03fb c73c ab40 e23c
00000210: fef4 cabc 97ce bf3a 9e12 04bd 3a57 3cbc
00000220: 7a4a 7b39 1878 73bc 4c37 ae3c 113a c93c
00000230: ccee ea3b c353 033c b11a c03c 6868 acbc
00000240: 84df 803b e1eb 00bd 6b80 fbbc 12f9 0539
00000250: a69f dabb ee26 133c 8970 a5bb bb37 9b39
00000260: a6d9 70bb 261a b2bc 4536 a03c a750 5abc
00000270: c686 953c fa29 c23b 36b4 8cba b045 66bc
00000280: 13bc 35bc 0b76 b03c 33df 653c 2965 8d3c
00000290: 07ce 8b3c 51dd 9bbb 6029 80bb d0a7 11bb
000002a0: 8402 d6b5 b0a0 8abb b77e ef3b d923 11bc
000002b0: eae4 9a3b b884 a53c 68d2 31bb f02c 773b
000002c0: b004 f03b 71e3 87bc 8acb f7ba e65d 183a
000002d0: 406b 0bbc a842 ff3b 25e8 5cba 73b9 60bb
000002e0: bfb9 2c3c f35e 86b8 3545 41bc 0fae 853c
000002f0: a8e8 513c 9cfa b83c 1b2b f03a cee2 53bc
00000300: 59b8 f33b 1aca 84bb f41a 833a 501c e9bb
00000310: d854 51bb 694f 873a 87fd 7bbc 76b8 7f3b
00000320: b5b7 643c 5849 7e3a 2459 c5bb 4a0e 6bbc
00000330: 0610 28bc 2792 283c 4a81 ee3a 0210 fdba
00000340: 2ce7 b7ba ecbf 21bc 16cf abb9 76d3 0a3c
00000350: f1b0 acbc b42b 2cba 03b9 3c3c d250 e0bc
00000360: 50c2 d23b 95c4 8a3b 9c21 7d3c 305e 94bc
00000370: c911 fcba ef43 be3b 6cfb 9cbb c434 aa3c
00000380: e09c e33a a332 623c 1c29 1bbd ffd9 f6bb
00000390: 1a52 bdbb 6153 23bb 44a9 6dbb 0be5 03bc
000003a0: de79 18ba b551 903b f4b3 8f3c 1084 fcbb
000003b0: 40f3 1f3b 660d 833c 4c14 cfbc b2d3 88bc
000003c0: 648f d03a 5d93 79bb 603c 453c f4c0 5f3c
000003d0: 79e7 973c bfdf bb3b 0a8d 2abc 21ca e0bc
000003e0: 5d5f 61bb de3c 99bb 19de 89bb 4734 5abb
000003f0: f974 44bc 59c0 d7ba 1f70 b3bb 200a 1a3b

gat1.lin.weight f4 [256, 55]
0.14401212 0.07555672 -0.006147535 0.046810053 0.103872165 0.10903091 -0.06496332 0.008196298
0.09255832 0.005329683 0.012351966 -0.1265977 -0.018017463 -0.07317329 -0.12102135 -0.12227943
0.09388724 -0.028173007 -0.0507461 0.09519271 0.07925566 -0.07218286 -0.033221576 0.0054370263
-0.07883277 -0.13167617 0.1208985 -0.063506775 0.08720499 0.06467682 0.13460559 -0.05400094
-0.02204546 -0.097653106 -0.026698163 0.039974436 -0.0016031343 -0.010418667 0.082265064 0.09097956
0.046913628 0.058655925 -0.075396955 -0.09611586 -0.0375611 0.018617958 -0.120944604 0.01955404
-0.0060353964 0.0879697 -0.121693276 0.10066613 -0.013258443 -0.13886821 0.14267373 0.08340412
0.057416745 0.05347444 -0.0016435393 -0.009219326 -0.12934254 -0.1293324 -0.118239336 -0.047249567
-0.10630518 0.12667137 0.10086202 -0.010499363 -0.11816295 -0.021782575 0.05752136 0.047829177
-0.00074950367 -0.07475876 -0.064033255 0.03690047 -0.009287724 -0.123580806 -0.11536734 -0.047224034
-0.074111365 0.07752606 0.12449171 0.045102406 0.034912515 -0.12528922 0.041247204 0.12541313
-0.11593284 0.10860617 -0.105889626 -0.10883398 0.12827079 -0.059020568 0.06753704 -0.066740915
-0.06834135 -0.047733806 -0.028605198 -0.068853796 0.14219363 0.060234252 0.07910117 -0.10287289
0.1499164 -0.034685362 0.1284722 0.084986754 -0.02504279 -0.05233289 -0.012551826 -0.12306079
0.077542156 0.018139234 -0.109340616 0.050673768 0.112667315 -0.01646278 -0.047750745 -0.10445967
0.023619052 0.039865628 0.03840586 -0.079369314 0.033377685 0.020488806 0.11751816 0.008011129
0.028669093 -0.09638847 0.0051891804 -0.06571975 -0.015631918 0.056769595 -0.016836777 -0.009395471
0.038227852 0.026780715 -0.11596068 0.06791865 0.00439109 -0.09228176 0.055556487 0.0014208391
0.13306838 -0.128042 0.099432215 0.13564938 0.06689877 -0.11245541 -0.11961781 -0.13682508
0.08731213 0.00028068732 0.036261927 -0.08031699 -0.10049914 -0.020135734 0.10150578 0.013016841
0.12966114 0.044066723 0.06710553 0.04321417 -0.009631848 0.11425137 -0.0849914 -0.034842994
0.021725537 0.09418376 -0.025916046 0.008658612 -0.042235 -0.06756327 -0.0054361694 0.12080958
0.04349394 0.14958921 0.1268042 0.094172694 0.008584261 -0.12035908 0.068956666 -0.080609374
-0.07006044 -0.10502313 -0.03380118 0.097410075 0.0759554 -0.0014172281 -0.058559895 -0.09626536
0.028643074 0.041382413 0.05797013 0.07037175 0.05003305 -0.064228795 0.06976501 -0.018117782
-0.05058297 -0.061214607 0.054366957 -0.043564193 0.031047594 0.06467572 -0.0021984484 -0.10954088
-0.05928119 -0.03894886 0.062818594 0.042636897 0.059160136 -0.14265984 -0.08971695 0.12764548
0.025768079 -0.0271377 -0.04837224 0.058443867 0.0333031 -0.13533802 0.053714406 0.0044459854
-0.04992773 0.115121156 0.03366155 -0.13361518 -0.047013607 -0.0091986125 0.078013636 -0.056434374
-0.077236265 0.03233254 -0.10556592 0.110395 0.12488588 -0.013847055 0.11454833 0.1299986
0.041893296 -0.12917109 -0.04505616 -0.0396072 -0.028410299 0.04209914 0.13376024 -0.081009865
0.08531439 0.030753305 0.0046559987 0.099419065 0.087850496 -0.028186802 -0.11737692 -0.11551521
00000000: ea77 133e 7bbd 9a3d 4371 c9bb e6bb 3f3d
00000010: eeba d43d 994b df3d 7d0b 85bd c449 063c
00000020: 378f bd3d 9fa4 ae3b e75f 4a3c d4a2 01be
00000030: 5c99 93bc e1db 95bd 0bda f7bd a36d fabd
00000040: f447 c03d 14cb e6bc 24db 4fbd 65f4 c23d
00000050: cb50 a23d 9bd4 93bd 5913 08bd 1529 b23b
00000060: 1373 a1bd 1ed6 06be a299 f73d d70f 82bd
00000070: 8898 b23d 4875 843d 0cd6 093e 1730 5dbd
00000080: ae98 b4bc 5afe c7bd 1bb6 dabc 3cbc 233d
00000090: 4320 d2ba 0fb3 2abc 967a a83d 7e53 ba3d
000000a0: 8128 403d 3241 703d b869 9abd 64d8 c4bd
000000b0: abd9 19bd b084 983c ceb1 f7bd cb2f a03c
000000c0: 93c4 c5bb 7529 b43d 533a f9bd 0b2a ce3d
000000d0: f139 59bc 7833 0ebe 1019 123e c7cf aa3d
000000e0: d22d 6b3d 0408 5b3d 076c d7ba a80c 17bc
000000f0: 5f72 04be b66f 04be 7727 f2bd c388 41bd
00000100: 88b6 d9bd 24b6 013e bf90 ce3d 8505 2cbc
00000110: 6bff f1bd 5f71 b2bc 859b 6b3d 87e8 433d
00000120: 577a 44ba 1f1b 99bd de23 83bd f224 173d
00000130: 8a2b 18bc ef17 fdbd b645 ecbd fd6d 41bd
00000140: b3c7 97bd fcc5 9e3d 82f5 fe3d 4dbd 383d
00000150: 6d00 0f3d d14b 00be d4f2 283d 4d6c 003e
00000160: 326e edbd e96c de3d a9dc d8bd 5ae4 debd
00000170: 6b59 033e 8dbf 71bd dc50 8a3d 76af 88bd
00000180: 8df6 8bbd 8684 43bd 7355 eabc 3803 8dbd
00000190: 359b 113e 31b8 763d cbff a13d 06af d2bd
000001a0: af83 193e 3d12 0ebd 378e 033e 890d ae3d
000001b0: 8a26 cdbc 035b 56bd 2da6 4dbc 4c07 fcbd
000001c0: 6cce 9e3d bb98 943c f9ed dfbd 4c8f 4f3d
000001d0: 1fbe e63d f4dc 86bc 4996 43bd f4ee d5bd
000001e0: be7c c13c 244a 233d 774f 1d3d 618c a2bd
000001f0: 0ab7 083d 24d8 a73c 5cad f03d 1c41 033c
00000200: 72db ea3c 5167 c5bd 000a aa3b 1498 86bd
00000210: 820e 80bc 3c87 683d 48ed 89bc 76ef 19bc
00000220: cf94 1c3d 3b63 db3c cb7c edbd ef18 8b3d
00000230: 22e3 8f3b 38fe bcbd 338f 633d 733b ba3a
00000240: 1443 083e 711d 03be 1ea3 cb3d ace7 0a3e
00000250: 3902 893d 064f e6bd 2ffa f4bd e01b 0cbe
00000260: b4d0 b23d 3729 9339 6387 143d 3c7d a4bd
00000270: 7ed2 cdbd b2f3 a4bc 43e2 cf3d 9744 553c
00000280: e4c5 043e 4f7f 343d a06e 893d 5701 313d
00000290: e6ce 1dbc 9ffc e93d f90f aebd 87b7 0ebd
000002a0: c1f9 b13c 6ae3 c03d e34d d4bc dadc 0d3c
000002b0: 9bfe 2cbd 9d5e 8abd e521 b2bb 036b f73d
000002c0: b426 323d ea2d 193e f6d8 013e 9ddd c03d
000002d0: 00a5 0c3c d27e f6bd 2739 8d3d 8716 a5bd
000002e0: d97b 8fbd 5e16 d7bd 1b73 0abd ef7e c73d
000002f0: 818e 9b3d 49c2 b9ba 80dc 6fbd c626 c5bd
00000300: e1a4 ea3c 9b80 293d 1672 6d3d 101f 903d
00000310: 75ef 4c3d 638a 83bd f5e0 8e3d be6b 94bc
00000320: 1730 4fbd 2bbc 7abd e3af 5e3d 5e70 32bd
00000330: 8657 fe3c b474 843d d813 10bb f856 e0bd
00000340: d5d0 72bd d788 1fbd 09a7 803d 07a4 2e3d
00000350: e651 723d 6c15 12be 85bd b7bd 7fb5 023e
00000360: 9417 d33c e24f debc f821 46bd d662 6f3d
00000370: d568 083d 0d96 0abe a303 5c3d a1af 913b
00000380: 0581 4cbd a4c4 eb3d b2e0 093d 6bd2 08be
00000390: 5791 40bd c7b5 16bc 9dc5 9f3d bb27 67bd
000003a0: 0c2e 9ebd 206f 043d f232 d8bd c616 e23d
000003b0: 2bc4 ff3d c2de 62bc 5198 ea3d 5a1e 053e
000003c0: 4e98 2b3d 6d45 04be cf8c 38bd 293b 22bd
000003d0: b7bc e8bc 2670 2c3d 72f8 083e 80e8 a5bd
000003e0: 50b9 ae3d 5bee fb3c 5991 983b 399c cb3d
000003f0: f6ea b33d 02e8 e6bc 5063 f0bd 3d93 ecbd

gat2.att_src f4 [1, 4, 64]
-0.086938046 -0.005531107 0.2819919 0.18451253 0.29897556 0.14745544 0.2836945 0.2543589
0.06481422 -0.20657785 0.101287946 0.06190766 0.15993713 0.23315744 0.09335021 -0.2557434
-0.021954639 -0.008391263 0.07568261 -0.2892704 0.25983757 0.018930165 0.19048473 -0.21470515
-0.018286541 0.212345 -0.032889355 0.26147732 0.18241175 -0.2642105 0.1159115 -0.18766844
0.17875798 0.17996642 0.0876012 0.1354225 0.29173762 -0.085810296 -0.02215834 -0.12056373
-0.03569708 0.21108806 -0.21865581 0.24316111 -0.16629794 0.22548413 -0.10336869 0.26687968
-0.032616258 -0.06330909 0.28515613 0.19066237 -0.097834334 0.03223264 -0.25696924 -0.05748785
0.03954201 -0.27655995 -0.1928457 0.03003485 0.2274371 -0.23612387 -0.043596406 0.07888232
0.11513186 0.27938846 -0.21045125 -0.17240189 -0.102071956 0.2525275 0.19280514 0.1507102
-0.1347658 0.037176985 -0.09116443 -0.15724571 0.1801479 -0.057172418 0.0128953485 0.045246914
-0.07357923 0.054962125 0.028974282 -0.10947174 0.12070039 0.05936064 0.2394864 -0.071010865
0.1315679 0.22003312 -0.27783537 -0.2686067 -0.24737096 0.23350807 -0.21667664 -0.15117097
-0.2472844 -0.2243886 0.12791137 -0.06443434 0.2165204 -0.2592819 -0.04395689 -0.21275765
0.15283881 -0.26131785 -0.103236675 0.26517773 -0.042774443 0.14031053 0.05630709 -0.17398028
0.2962252 0.256974 0.21643405 0.075311534 -0.14968514 -0.13476601 0.15901501 0.27106357
-0.025430955 0.012442187 0.012030051 0.23471245 -0.058417168 -0.14444344 -0.22343872 0.28430498
0.13800654 -0.22445166 0.08532825 -0.078039415 0.23404093 -0.06849673 -0.22956033 -0.145871
-0.029448029 0.033982567 0.2590428 -0.031310473 0.25592735 0.13488261 -0.28287956 -0.22339568
0.25449207 0.12698032 -0.12976678 -0.22363095 -0.122130975 -0.045917016 0.22506975 0.18195306
-0.14885214 0.24436235 0.044747397 0.17244166 -0.26167098 -0.2310314 0.2129187 0.10576188
0.18358268 0.0649499 -0.032292724 0.26577833 -0.29312918 0.06427766 -0.2504613 0.24268591
-0.2721484 -0.088729806 -0.27455536 0.061615337 0.11571633 0.16561815 -0.12522562 -0.24463531
0.14498772 0.1073301 -0.123878084 0.04620779 0.25202823 -0.19575107 0.051757533 -0.21428604
0.02104083 0.22881667 0.0333371 0.25887224 0.11088214 0.17002724 -0.03523293 -0.2319653
0.12101015 -0.23697284 0.10375687 -0.16875081 -0.2354833 -0.11082131 -0.1315145 -0.16591083
0.071734466 -0.22296245 -0.094087355 -0.24230582 -0.25805444 0.17720295 0.13728221 -0.039770734
-0.015746992 -0.16932213 -0.11031 -0.035739325 -0.045379836 -0.08979069 0.107503146 -0.2153891
-0.23656267 -0.16670215 0.22150625 -0.28393418 -0.12370452 0.03271697 -0.15245673 0.08272779
0.100667365 0.1512329 -0.20469595 -0.27336952 0.1848049 -0.02421327 0.10216152 0.24432367
-0.26962447 -0.040864244 -0.111882314 0.01582961 0.07181311 0.02477427 -0.13062428 0.14203623
0.10493626 -0.27859822 -0.148642 -0.2514453 0.033012085 -0.07304531 -0.14828542 -0.027841654
-0.14148459 -0.044550013 -0.20235246 -0.07223484 -0.009744304 -0.24510173 -0.27862257 -0.16336672
00000000: 930c b2bd 4a3e b5bb 3e61 903e daf0 3c3e
00000010: 5313 993e 8ffe 163e 6840 913e 543b 823e
00000020: 51bd 843d 2589 53be 0e70 cf3d e392 7d3d
00000030: 8fc6 233e d3c0 6e3e 652e bf3d cdf0 82be
00000040: 37da b3bc 827b 09bc 7cff 9a3d 401b 94be
00000050: 6e09 853e 6f13 9b3c 6e0e 433e abdb 5bbe
00000060: a8cd 95bc f870 593e fdb6 06bd 5be0 853e
00000070: 25ca 3a3e 9946 87be 0263 ed3d 282c 40be
00000080: 550c 373e 1e49 383e 4268 b33d 32ac 0a3e
00000090: a25e 953e 4fbd afbd 6885 b5bc 1eea f6bd
000000a0: 1a37 12bd 7827 583e 4fe7 5fbe 3aff 783e
000000b0: 024a 2abe 50e5 663e f7b2 d3bd 74a4 883e
000000c0: a098 05bd 32a8 81bd fcff 913e ff3c 433e
000000d0: 5e5d c8bd 5f06 043d 7991 83be 6178 6bbd
000000e0: cdf6 213d 4499 8dbe 5879 45be a50b f63c
000000f0: 45e5 683e 75ca 71be 2592 32bd 0e8d a13d
00000100: 41ca eb3d 010c 8f3e 8880 57be 1f8a 30be
00000110: 1a0b d1bd 494b 813e b66e 453e c653 1a3e
00000120: 0c00 0abe e546 183d 6bb4 babd 0505 21be
00000130: b178 383e a02d 6abd 0347 533c d454 393d
00000140: b5b0 96bd f71f 613d 795b ed3c b832 e0bd
00000150: c431 f73d 2424 733d ec3b 753e 256e 91bd
00000160: bcb9 063e 5d50 613e 7040 8ebe d186 89be
00000170: d04e 7dbe bd1c 6f3e 7be0 5dbe 90cc 1abe
00000180: 1f38 7dbe 20c6 65be 33fb 023e 27f6 83bd
00000190: 86b7 5d3e 99c0 84be 240c 34bd 24dd 59be
000001a0: c781 1c3e 74cb 85be c06d d3bd 60c5 873e
000001b0: 4134 2fbd 90ad 0f3e 43a2 663d e327 32be
000001c0: d4aa 973e 1992 833e e3a0 5d3e ef3c 9a3d
000001d0: 1047 19be 1a00 0abe d5d4 223e d8c8 8a3e
000001e0: 9454 d0bc 51da 4b3c b119 453c 7658 703e
000001f0: d746 6fbd fbe8 13be 1fcd 64be 6c90 913e
00000200: 9651 0d3e a8d6 65be 94c0 ae3d 21d3 9fbd
00000210: 6da8 6f3e 0348 8cbd dd11 6bbe 355f 15be
00000220: fe3c f1bc 4e31 0b3d 42a1 843e 693f 00bd
00000230: e908 833e ab1e 0a3e 97d5 90be d6c1 64be
00000240: c94c 823e 2107 023e 95e1 04be 83ff 64be
00000250: ce1f fabd 7b13 3cbd af78 663e e751 3a3e
00000260: b26c 18be 203a 7a3e 0c49 373d 8c94 303e
00000270: bdf9 85be 7f93 6cbe 5c07 5a3e af99 d83d
00000280: 19fd 3b3e 7404 853d 6045 04bd 1914 883e
00000290: 0715 96be 01a4 833d 773c 80be a882 783e
000002a0: 0957 8bbe f9b7 b5bd 8592 8cbe 5d60 7c3d
000002b0: affc ec3d ce97 293e 253b 00be ae81 7abe
000002c0: a977 143e e2cf db3d cbb3 fdbd 6144 3d3d
000002d0: d809 813e f872 48be b5ff 533d cd6d 5bbe
000002e0: d25d ac3c eb4e 6a3e 7c8c 083d e78a 843e
000002f0: 2d16 e33d 9f1b 2e3e 6850 10bd 5088 6dbe
00000300: 2bd4 f73d 02a9 72be 7b7e d43d 03cd 2cbe
00000310: 8922 71be 48f6 e2bd bdab 06be 87e4 29be
00000320: 85e9 923d 4550 64be dfb0 c0bd 041f 78be
00000330: b61f 84be b174 353e b593 0c3e a3e6 22bd
00000340: d6ff 80bc c862 2dbe 36ea e1bd 6663 12bd
00000350: 35e0 39bd 2ee4 b7bd 9c2a dc3d f68e 5cbe
00000360: 7c3d 72be f8b3 2abe 89d2 623e d25f 91be
00000370: cc58 fdbd 3b02 063d 9e1d 1cbe 306d a93d
00000380: b12a ce3d ccdc 1a3e d19b 51be 17f7 8bbe
00000390: 7f3d 3d3e e85a c6bc 0f3a d13d fc2f 7a3e
000003a0: 380c 8abe 4461 27bd 8e22 e5bd 19ad 813c
000003b0: c012 933d 69f3 ca3c 5fc2 05be f271 113e
000003c0: d2e8 d63d 6da4 8ebe 9c35 18be 70bd 80be
000003d0: ae37 073d c898 95bd 22d8 17be 2e14 e4bc
000003e0: 56e1 10be 137a 36bd 7c35 4fbe dcef 93bd
000003f0: 93a6 1fbc f3fb 7abe 9ea7 8ebe 9b49 27be

gat2.att_dst f4 [1, 4, 64]
-0.26761928 0.20977719 0.24918793 -0.033853095 0.07521868 0.13218339 0.0780611 -0.018021895
0.11203052 -0.24854013 -0.045716126 -0.13490908 -0.1646056 -0.1295213 0.06902454 0.13468556
0.23118077 -0.096506126 -0.10428183 -0.22028343 0.13085714 -0.15550907 -0.046994306 -0.2309624
-0.10709943 0.15584955 0.22082947 -0.18689822 -0.19930817 0.05816736 -0.03327449 -0.023398928
0.010893435 0.08815566 0.060532767 -0.16660655 -0.24981405 -0.13963836 -0.24159802 0.0039731693
-0.11956733 -0.208176 0.18093091 -0.060840193 0.0045113 -0.287073 -0.17395425 -0.121875875
0.2043751 -0.049972508 -0.07392382 -0.06678793 -0.26334316 0.24506427 0.13178182 -0.095718294
0.10806978 0.10015332 -0.26151097 0.2784908 0.15619864 0.14763124 0.20983066 -0.23086135
-0.24663852 -0.20119356 0.22596222 -0.1703778 0.18900666 -0.14284134 0.11942416 0.04619584
0.1488366 0.07471039 -0.1469969 -0.24851207 0.042218897 -0.09018638 -0.15926075 0.14434351
0.04812026 -0.012131978 0.17226018 0.12012632 0.22016536 0.26498184 -0.115263425 -0.067634426
-0.26731437 0.22855353 0.25224906 0.16593324 0.2719145 0.058056924 -0.06525153 -0.2188285
0.1865501 0.063563965 -0.25171185 0.23542757 -0.011440378 -0.029024107 -0.088540226 0.15820628
-0.03792718 0.17838551 0.19718729 -0.23254271 0.08757024 -0.003349978 0.2505268 -0.1297653
0.073898286 0.049762096 -0.14045101 0.047862496 -0.09619436 0.2244817 0.10245854 0.10710251
0.14079131 0.1099363 0.017848497 0.018577663 -0.015236622 -0.28017336 -0.14021736 -0.07456038
-0.12926687 -0.25396708 -0.104901314 -0.031216247 -0.23978908 0.0922457 -0.23069791 -0.13066289
0.1390658 -0.21026409 -0.08314123 -0.09777464 0.24113789 0.24419688 -0.02535455 0.058094855
0.059781816 0.16469574 0.08878218 -0.24724051 -0.28457806 0.20383173 0.06187412 -0.026493061
-0.10272133 -0.15775499 0.28107315 -0.073255025 -0.12232146 -0.07519971 -0.13960832 0.049733505
0.26939666 -0.07415066 0.09978397 -0.06680064 0.045108605 -0.013890029 0.12354365 0.26044682
0.0023994523 0.14811492 0.12538831 -0.15931213 -0.27840376 -0.04278464 -0.15034059 -0.035183765
0.04456176 0.1894714 -0.10065034 0.027028311 0.26275972 0.13266991 -0.02674094 0.16991949
-0.13257453 0.08818331 0.14604673 -0.19994989 -0.14377248 -0.2820513 -0.26712734 0.09569484
-0.2585087 0.013063615 -0.157065 0.049301174 0.049861073 -0.026960677 0.08318676 -0.19460273
0.092001274 -0.22278687 -0.21425518 0.065013036 -0.061804917 0.26023886 0.18025966 0.15579398
-0.23422082 -0.036648203 -0.21025026 0.2787574 -0.013230716 -0.05782684 -0.1351053 0.14505526
-0.24682324 -0.17475949 -0.1625989 0.17097008 -0.15861572 0.09534248 -0.11110468 0.004633387
-0.23324476 -0.029202938 -0.20016047 0.042198043 0.011900002 0.04252996 -0.20822749 -0.2707635
-0.002470287 0.122621946 0.031195315 -0.12991402 0.1942322 0.07029632 -0.060015034 0.1779964
-0.022065036 -0.04392523 -0.10209221 -0.04727331 0.12162599 -0.012130855 0.2682371 0.24456187
0.1786712 0.0033461947 0.074047625 0.04638301 0.038236044 0.026781214 0.16699024 -0.2283332
00000000: 6505 89be d5cf 563e 1f2b 7f3e 8ba9 0abd
00000010: 400c 9a3d 155b 073e 7fde 9f3d a7a2 93bc
00000020: 4270 e53d 4e81 7ebe d540 3bbd 9b25 0abe
00000030: 5f8e 28be 3ba1 04be bd5c 8d3d 03eb 093e
00000040: a7ba 6c3e 01a5 c5bd b691 d5bd fb91 61be
00000050: 6aff 053e c53d 1fbe 1a7d 40bd 6881 6cbe
00000060: f256 dbbd 0697 1f3e 1f21 623e 3f62 3fbe
00000070: 7117 4cbe e640 6e3d d54a 08bd 1caf bfbc
00000080: 617a 323c f48a b43d 35f1 773d e89a 2abe
00000090: 41cf 7fbe 5cfd 0ebe 7965 77be 5c31 823b
000000a0: b7df f4bd 172c 55be f445 393e 9133 79bd
000000b0: 87d3 933b 3bfb 92be 1021 32be 0f9a f9bd
000000c0: b547 513e f9af 4cbd 5f65 97bd 1cc8 88bd
000000d0: ead4 86be 21f2 7a3e d0f1 063e f407 c4bd
000000e0: b053 dd3d 2f1d cd3d c4e4 85be 5996 8e3e
000000f0: 89f2 1f3e a52c 173e d9dd 563e eb66 6cbe
00000100: cf8e 7cbe af05 4ebe a462 673e 8577 2ebe
00000110: f68a 413e 0045 12be a794 f43d d937 3d3d
00000120: 9f68 183e c301 993d 5b86 16be f379 7ebe
00000130: b9ed 2c3d a3b3 b8bd 4015 23be c9ce 133e
00000140: c019 453d 34c5 46bc f964 303e ca04 f63d
00000150: 0773 613e b3ab 873e 3b0f ecbd eb83 8abd
00000160: 6edd 88be f009 6a3e ca26 813e 67ea 293e
00000170: 6138 8b3e 19cd 6d3d 98a2 85bd 9414 60be
00000180: fd06 3f3e d32d 823d 60e0 80be ed13 713e
00000190: 6c70 3bbc f7c3 edbc 9454 b5bd d400 223e
000001a0: 8859 1bbd b1aa 363e 77eb 493e ad1f 6ebe
000001b0: 0758 b33d 4e8b 5bbb 0c45 803e 32e1 04be
000001c0: fc57 973d 57d3 4b3d 64d2 0fbe 770b 443d
000001d0: 8c01 c5bd 88de 653e c8d5 d13d 9058 db3d
000001e0: 992b 103e 4826 e13d 0337 923c 2f30 983c
000001f0: 06a3 79bc e272 8fbe 2495 0fbe 1db3 98bd
00000200: 895e 04be f907 82be 80d6 d6bd 37b9 ffbc
00000210: 458b 75be 50eb bc3d 133c 6cbe 7ecc 05be
00000220: 4467 0e3e 784f 57be f345 aabd 123e c8bd
00000230: daec 763e bf0e 7a3e 58b4 cfbc dff4 6d3d
00000240: c7dd 743d 00a6 283e 6ed3 b53d 9e2c 7dbe
00000250: 37b4 91be 44b9 503e b86f 7d3d fa07 d9bc
00000260: 905f d2bd 868a 21be d2e8 8f3e bb06 96bd
00000270: ac83 fabd 4e02 9abd 7cf5 0ebe 5cb5 4b3d
00000280: 5cee 893e 4ddc 97bd 8a5b cc3d c6ce 88bd
00000290: cdc3 383d 0193 63bc 7404 fd3d 4959 853e
000002a0: 2140 1d3b 70ab 173e cb65 003e b822 23be
000002b0: f08a 8ebe f23e 2fbd e2f2 19be da1c 10bd
000002c0: 6486 363d ca04 423e c421 cebd 7a6a dd3c
000002d0: 7188 863e 9fda 073e d10f dbbc 60ff 2d3e
000002e0: 9ec1 07be 7499 b43d 468d 153e aabf 4cbe
000002f0: 1839 13be 0769 90be eac4 88be a8fb c33d
00000300: 415b 84be c608 563c a6d5 20be 07f0 493d
00000310: 203b 4c3d a3dc dcbc d25d aa3d f045 47be
00000320: 2a6b bc3d 3e22 64be b665 5bbe 8e25 853d
00000330: 2727 7dbd 073e 853e fd95 383e 7588 1f3e
00000340: 95d7 6fbe 6d1c 16bd d84b 57be 4ab9 8e3e
00000350: a5c5 58bc d6db 6cbd 0b59 0abe 5e89 143e
00000360: 3bbf 7cbe 27f4 32be 5380 26be c812 2f3e
00000370: 296c 22be eb42 c33d da8a e3bd abd3 973b
00000380: b7d7 6ebe 003b efbc def6 4cbe dbd7 2c3d
00000390: 3af8 423c e533 2e3d 9639 55be 83a1 8abe
000003a0: 8ae4 21bb 3721 fb3d 518d ff3c 2e08 05be
000003b0: cee4 463e 84f7 8f3d 53d2 75bd b044 363e
000003c0: bcc1 b4bc f1ea 33bd b815 d1bd a9a1 41bd
000003d0: 0c17 f93d 7ec0 46bc 6056 893e 6d6e 7a3e
000003e0: 95f5 363e d54b 5b3b 48a6 973d 1cfc 3d3d
000003f0: 669d 1c3d 4764 db3c 7dff 2a3e 2ed0 69be

gat2.bias f4 [256]
-0.008881524 -0.0063791834 0.008311307 -0.008743916 0.0070515783 -0.0045157485 0.010527223 -0.01642239
0.022999475 0.02231001 0.005136665 0.017497268 -0.007897722 0.0011636377 0.00056135067 -0.010307746
-0.007595038 0.011647748 -0.006189837 -0.01678187 0.0004361039 -0.02474049 -0.0031212876 0.018370705
-0.01866631 -0.0146135315 -0.006458771 -0.017159114 0.0059539634 -0.019874675 -0.0036098876 -0.011431147
0.004115017 0.01763376 -0.018679831 0.012535759 0.022077331 0.0032947958 -0.0021628244 -0.014416235
-0.0070190364 0.0008117711 0.0035864413 0.0022442727 -0.0020710716 0.016816266 0.011111362 0.001905472
-0.009406283 -0.0054395744 0.012690794 -0.00016007693 0.018404962 -0.023478305 -0.016392529 -0.014901672
0.013350126 -0.007955326 0.0023221672 0.016616993 -0.004994043 -0.0016267516 -0.008645594 -0.0120290145
0.021677814 -0.0050980267 -0.0353818 0.0016231468 0.0034596685 -0.00596719 0.012792807 0.0033069307
0.024096945 0.0026988029 -0.016733345 -0.02670469 -0.0022980503 -0.013023881 -0.020856231 0.0013944394
-0.012705826 -0.007788272 -0.0086365435 -0.017369349 -0.010755956 -0.020116255 0.001988875 0.002158432
-0.011953561 -0.014185933 0.015263854 0.0028477027 -0.00023165593 0.0005319547 0.012435493 0.022767156
0.029551564 0.010472843 0.01216545 0.022087604 -0.010330334 -0.018865693 0.007722229 -0.0064688986
-0.01362525 -0.0012372854 -0.0054068477 0.008039189 -0.008436354 0.015445362 0.009962082 0.0056107473
0.02916506 -0.008218191 0.010816517 -0.03119642 0.0015816626 0.009162879 -0.017160336 -0.0042966777
-0.01538557 -0.0103405295 -0.012662929 0.0081969965 0.00035193868 -2.4082314e-05 -0.00720421 -0.007695893
0.018491875 0.015734285 -0.0033252828 -0.00539711 -0.0072737294 -0.01746848 0.0068620653 0.017892208
-0.022558961 -0.021537142 -0.006292913 -0.004189963 -0.004653141 0.016290823 -0.00283062 0.016884262
-0.025147887 0.009405909 -0.011378848 0.0007498678 -0.015981853 0.017831543 0.010577719 0.005262746
-0.019079905 -0.010815421 -0.0012817357 0.018137483 -0.0013208477 -0.00543551 0.018998563 0.020376563
0.016951587 -0.00025351456 0.012481214 -0.014739784 0.024056964 -0.00715523 0.0028973117 -0.0002693913
0.008853994 0.023214115 -0.0054639694 -0.0067104953 -0.008213333 0.010834288 0.0168089 -0.0013338731
-0.022805756 0.009157282 0.0027659046 -0.02786728 -0.010333633 0.0073708417 0.009662189 -0.008245035
-0.01577739 -0.019800901 0.016383352 -0.0100254165 -0.010135615 -0.0009440972 0.00030718977 -0.0132553
-0.0065305196 -0.005643959 0.002992026 -0.016638191 0.013950997 0.011088677 -0.0027858901 0.0043943925
0.011245342 0.022821393 0.007920235 -0.007815858 -0.012848216 -0.0047355797 -0.024225835 0.009432839
0.01403039 -0.0020808592 0.0048160437 -0.0304863 -0.013463778 0.005456424 -0.0015168699 -0.003738203
0.0038001537 -0.016061867 -0.005285342 0.0060287793 -0.029063806 -0.025730776 0.027943326 -0.021055313
-0.0046811015 -0.020884579 0.0066320915 -0.006612943 -0.013139209 -0.0006147634 0.011876175 -0.0014335256
0.0012047606 -0.0026165296 0.001082382 -0.014652025 0.02162193 0.021668889 -0.0018480934 -0.030748498
-0.00961925 0.009137173 -0.0016612931 -0.01035136 0.012699507 0.003824598 0.007170707 -0.01145015
0.012920216 0.017526843 0.012922677 -0.033160087 -0.009683003 0.011349166 0.00053084746 -0.005061241
00000000: d083 11bc 7808 d1bb 262c 083c a442 0fbc
00000010: ed10 e73b d8f8 93bb 607a 2c3c 3f88 86bc
00000020: 6569 bc3c 7bc3 b63c 7851 a83b 6e56 8f3c
00000030: 7265 01bc 3485 983a 9b27 133a d2e1 28bc
00000040: ccdf f8bb 32d6 3e3c 1ed4 cabb 227a 89bc
00000050: e0a4 e439 91ac cabc 848e 4cbb 297e 963c
00000060: 17ea 98bc 986d 6fbc 19a4 d3bb 4591 8cbc
00000070: 7719 c33b 37d0 a2bc dd93 6cbb b549 3bbc
00000080: 44d7 863b ad74 903c 7206 99bc c962 4d3c
00000090: 85db b43c 80ed 573b 2cbe 0dbb 1232 6cbc
000000a0: f2ff e5bb 09cd 543a 800a 6b3b a614 133b
000000b0: d1ba 07bb 44c2 893c 6e0c 363c 08c1 f93a
000000c0: cf1c 1abc 753e b2bb 0ced 4f3c 53da 27b9
000000d0: 01c6 963c 9355 c0bc a049 86bc 2426 74bc
000000e0: 7dba 5a3c 0e57 02bc 802f 183b 5c20 883c
000000f0: 12a5 a3bb ba38 d5ba 40a6 0dbc 5815 45bc
00000100: ac95 b13c 590d a7bb 82ec 10bd c5bf d43a
00000110: 9bbb 623b 6b88 c3bb ec98 513c 17b9 583b
00000120: f566 c53c 66de 303b 5e14 89bc cbc3 dabc
00000130: e39a 16bb 1e62 55bc b0da aabc 9fc5 b63a
00000140: 192c 50bc c334 ffbb 4a80 0dbc 2a4a 8ebc
00000150: c039 30bc d8ca a4bc c957 023b 7b74 0d3b
00000160: ded8 43bc 1e6c 68bc 3e15 7a3c 86a0 3a3b
00000170: aae8 72b9 e072 0b3a 3dbe 4b3c 3082 ba3c
00000180: 1f16 f23c 4a96 2b3c 9851 473c 10f1 b43c
00000190: 9040 29bc 3a8c 9abc c10a fd3b 0ef9 d3bb
000001a0: 713c 5fbc 692c a2ba ed2b b1bb cdb6 033c
000001b0: a238 0abc 8b0e 7d3c 0038 233c 5cda b73b
000001c0: 90eb ee3c 97a5 06bc c337 313c a28f ffbc
000001d0: ca4f cf3a e61f 163c d593 8cbc 25cb 8cbb
000001e0: c213 7cbc 536b 29bc 2c78 4fbc b24c 063c
000001f0: 6984 b839 6004 cab7 4b11 ecbb d42d fcbb
00000200: 467c 973c 30e5 803c fdec 59bb 3dda b0bb
00000210: 7758 eebb 0f1a 8fbc 2ddb e03b ae92 923c
00000220: 92cd b8bc a96e b0bc c834 cebb f54b 89bb
00000230: 6079 98bb 5574 853c ec81 39bb dd50 8a3c
00000240: f102 cebc 3e1b 1a3c 596e 3abc c792 443a
00000250: 60ec 82bc 7513 923c 2b4e 2d3c 1d73 ac3b
00000260: 764d 9cbc 2a33 31bc eaff a7ba 0f95 943c
00000270: 4b20 adba 5d1c b2bb e0a2 9b3c c0ec a63c
00000280: 0ede 8a3c 26ea 84b9 017e 4c3c 237f 71bc
00000290: 1c13 c53c 6b76 eabb d3e0 3d3b 173d 8db9
000002a0: 5810 113c 872b be3c 190b b3bb b7e3 dbbb
000002b0: 3791 06bc 4c82 313c d1b2 893c 5bd5 aeba
000002c0: 23d3 babc 6d08 163c 2e44 353b ec49 e4bc
000002d0: 664e 29bc 1a87 f13b 284e 1e3c 2f16 07bc
000002e0: 963f 81bc 8035 a2bc 6136 863c a541 24bc
000002f0: da0f 26bc 4a7d 77ba 500e a139 c22c 59bc
00000300: f8fd d5bb f6f0 b8bb de15 443b d14c 88bc
00000310: b992 643c 48ad 353c 7b93 36bb d6fe 8f3b
00000320: 623e 383c eef3 ba3c e0c3 013c 160e 00bc
00000330: 5381 52bc ec2c 9bbb 4275 c6bc 328c 1a3c
00000340: b9df 653c 065f 08bb e7cf 9d3b 68be f9bc
00000350: 2e97 5cbc cdcb b23b b5d1 c6ba a4fc 74bb
00000360: 000c 793b 2d94 83bc aa30 adbb 118d c53b
00000370: 3817 eebc 59c9 d2bc 67e9 e43c 317c acbc
00000380: ed63 99bb 2316 abbc 0452 d93b 63b1 d8bb
00000390: d645 57bc 1328 21ba 4a94 423c 23e5 bbba
000003a0: 0fe9 9d3a 157a 2bbb b7de 8d3a 0c0f 70bc
000003b0: 7920 b13c f482 b13c b93b f2ba 46e4 fbbc
000003c0: 0f9a 1dbc 15b4 153c bfbf d9ba c098 29bc
000003d0: 9811 503c 1ba6 7a3b 40f8 ea3b 6999 3bbc
000003e0: 50af 533c 7494 8f3c a3b9 533c dfd2 07bd
000003f0: 75a5 1ebc daf1 393c 9228 0b3a c4d8 a5bb
