Analyses/models/Scenario1_1h/lstm.pth (torch, 267145 bytes, 11 tensors)

lstm.weight_ih_l0 f4 [256, 48]
000000 91 e8 40 3d e8 9a 9d 3d 59 cd 0f 3d 7e df 43 3d
       0.047096793 0.07695562 0.035107944 0.04782056
000010 d3 47 b6 bc 2d 39 64 3d 93 37 5c 3d 8e cf df bb
       -0.022251045 0.05571859 0.053763937 -0.0068301624
000020 0c 34 f4 bd 53 57 79 3c d9 4c 51 bb 99 c7 d4 3c
       -0.1192399 0.015218574 -0.0031936674 0.025974082
000030 ee d7 cf 3c 4c 6f 24 3d 16 a5 aa bc 83 c4 7f 3d
       0.025371518 0.040145203 -0.020830672 0.062443268
000040 e5 bb 4e 3d 16 31 0b 3e 10 b8 06 bc a5 9e e4 bb
       0.05047216 0.13592944 -0.008222595 -0.0069769197
000050 42 af c2 bc 1b 0a 89 3d 4e 09 ee bc ed 46 94 3d
       -0.02376521 0.066913806 -0.029057171 0.072400905
000060 a3 9e c0 bc a4 60 0c bd 03 51 89 3d 03 ab 9e 3d
       -0.023513144 -0.03427185 0.06704905 0.07747462
000070 3f 22 b4 bd 9f e8 06 3e 49 9e f7 bc a8 d4 be bd
       -0.087955944 0.13174675 -0.030226843 -0.09317905
000080 0d 0f 14 bd 2c 0b 4f bd fa 03 df bc d1 6c da 3d
       -0.036147166 -0.050547764 -0.027223576 0.10665286
000090 51 98 dc bc 2b 22 2b bc 2a 46 e6 bd 36 5f 9a bc
       -0.026928099 -0.010445158 -0.112438515 -0.018844228
0000a0 8c 4c f0 3c 58 95 21 3d c5 67 57 bb 6c dd 06 be
       0.029333375 0.039449066 -0.0032868248 -0.13170403
0000b0 d8 79 a2 3d 31 3f 6e bc 7d 7a 72 3d 06 4b bf bd
       0.07933396 -0.014541433 0.059198845 -0.093404815
0000c0 e5 d9 49 bd 79 ec 5c bd c3 f0 df 3d 3b 36 a8 bd
       -0.049280066 -0.053936455 0.109345935 -0.08213469
0000d0 25 ab 46 3d 0c 52 f7 bd b4 f7 40 3d 46 5a 1d 3d
       0.04850306 -0.12076196 0.047111228 0.03841617
0000e0 09 dc 61 3c e2 2a 93 3c 7c 90 4a bd 0b 21 95 3d
       0.013785371 0.017964784 -0.049454197 0.07281693
0000f0 b4 c6 97 3d 41 3a 48 be 97 b8 9a bd 5e c6 8d 3d
       0.074109465 -0.19553472 -0.07554739 0.06922601
000100 79 8e 02 be c4 79 ad bd 70 bd 87 3c d8 96 ad 3d
       -0.12749662 -0.084704906 0.016569823 0.08476037
000110 d0 53 ad 3d 23 92 b6 3c af 29 b1 3c a2 8d 21 3d
       0.084632516 0.02228648 0.021626322 0.039441712
000120 70 06 a3 3d 2a 05 c5 3d 1f 6e f2 bd af ea 95 3d
       0.07960212 0.096201256 -0.1183741 0.07320153
000130 22 7f 8f 3d f7 3f 8e bc cb 8f d8 bc 15 57 3c bd
       0.070066705 -0.017364485 -0.026435753 -0.045981485
000140 e8 1b 0c 3e 40 03 0b bd 87 70 20 3d e1 99 60 bd
       0.1368252 -0.033938646 0.039169814 -0.05483425
000150 77 24 2c bc 79 a2 aa bd 12 8d 2d bc ff 90 e2 bc
       -0.010506741 -0.083317704 -0.010592716 -0.02765703
000160 20 d6 79 bd b1 c6 3e 3d 21 d8 4b bc 1c 76 1b bd
       -0.06099522 0.046576206 -0.012441666 -0.037954435
000170 8b b5 be bc a5 04 a2 bd 4f a6 be 3d e9 ab 55 bc
       -0.023279926 -0.07911042 0.093090646 -0.013041475
000180 3e 0b 7e 3d 43 50 96 3b a3 0f bc bc 23 5e 33 bd
       0.06202244 0.0045872047 -0.022956675 -0.043790948
000190 19 33 a6 3d fd 2d c7 bc c5 04 f5 3c 6e 48 97 3d
       0.08115215 -0.024313921 0.0299095 0.07386862
0001a0 44 eb e0 bd f3 b2 be bc 58 12 b9 bd d1 5f 16 3e
       -0.10982373 -0.023278689 -0.09036702 0.14684989
0001b0 e8 86 f0 3c 61 61 3b bd 54 39 c2 3c 89 9b fb bb
       0.029361203 -0.045747165 0.023708977 -0.0076784533
0001c0 78 6f 9b bd 74 2c b6 bd 13 d4 fa 3c ed 52 ca bd
       -0.0758962 -0.088951975 0.030618703 -0.09879098
0001d0 5f 9c e8 bd 51 59 e0 3b 3f b1 bb bd b9 a7 ca 3d
       -0.113579504 0.006846585 -0.091646664 0.09895272
0001e0 ad 22 1c 3d 6e 61 cf bc 5a 75 16 bd 9b 86 4f 3d
       0.038119007 -0.025315013 -0.03673301 0.05066548
0001f0 6a 10 f9 bc 11 2b b5 bc 15 24 5a 3d d5 3d af 3d
       -0.030403335 -0.022115262 0.053257067 0.085567154
000200 59 fe df 3d 65 13 58 3d 03 3b ce bd 3d e3 b8 3c
       0.10937185 0.05275287 -0.10069849 0.022569293
000210 af 85 ec 3b 90 44 a4 3d 2e 3b de 3d cb 68 9b bd
       0.0072180848 0.0802089 0.108511314 -0.07588347
000220 07 e7 23 39 e8 ce dc 3d 2c 52 0c bd 4a a5 64 bd
       0.00015630956 0.10781652 -0.034258053 -0.055821694
000230 9d a5 91 bd 60 f8 01 3d 0f db ae 3d f1 73 9e bd
       -0.07111666 0.03173101 0.08537876 -0.07736958
000240 23 51 7d bd 71 ef 9d bd 23 fb 07 be ff 88 0d 3e
       -0.061844956 -0.077116854 -0.13279395 0.13821791
000250 a0 89 d6 bd f9 6c 2b 3b 2c 67 93 3d 98 74 8d bd
       -0.10475469 0.0026157482 0.07197413 -0.06907004
000260 12 86 4f 3d 48 42 0c 3d 3e fc 03 bd b6 89 17 be
       0.05066497 0.0342429 -0.03222298 -0.14798626
000270 19 ed 94 bd 70 7c 23 bd 98 df e2 bc 57 8a 2e bc
       -0.07271785 -0.039913595 -0.027694508 -0.0106531
000280 e4 f3 d1 bd c2 a2 06 be 63 a6 d0 3d fe 37 89 bd
       -0.102515966 -0.13148025 0.10187986 -0.06700133
000290 97 90 b2 bd a9 c4 78 3d 70 ad 6a 3d cb c7 d4 3d
       -0.087189846 0.060734425 0.05729431 0.1038967
0002a0 7e e2 4a bd 76 8f dc bd a9 a7 33 3d 02 81 86 3d
       -0.049532406 -0.107695505 0.043861065 0.06567575
0002b0 77 55 4b 3d fa 1d e4 3d 51 e4 31 bd 16 a5 44 bd
       0.049642053 0.1113853 -0.04343063 -0.048009
0002c0 5e 68 e8 3d 86 09 f8 3d 24 58 fd 3c b1 5a 38 3d
       0.113480315 0.121111915 0.030925818 0.045008365
0002d0 4f 12 77 3d e0 59 ae 3d 8c d9 06 3e 75 55 71 bd
       0.060320195 0.08513236 0.13168925 -0.05891939
0002e0 01 69 af bd e3 f1 1e 3d ab b6 3a bd 93 d5 3c 3c
       -0.0856495 0.0388049 -0.045584362 0.011525529
0002f0 d2 a8 a9 bd fa 29 fd bd fe 77 87 bd 38 59 43 bc
       -0.08284153 -0.12361522 -0.066146836 -0.011923127
000300 a6 1f c1 3c 1e e8 af bd 62 1d 3a 3c 66 71 2d 3d
       0.023574661 -0.08589195 0.0113595445 0.042344473
000310 1c 80 8c 3d 57 8c e9 bd 85 70 8c bd 33 75 51 bd
       0.068603724 -0.11403721 -0.06857399 -0.05113716
000320 e0 c0 a3 bd bb 18 77 bd 58 86 b8 3d 24 7d cd 3d
       -0.07995772 -0.06032632 0.09009999 0.10033634
000330 c1 38 fc bd cc 61 ff 3d a8 1e d0 bc fb 7e 45 3d
       -0.123155124 0.12469825 -0.025405243 0.0482168
000340 a2 8c 3f 3d 03 bf 73 bd 44 f7 b8 bd 64 7d 80 bc
       0.046764977 -0.059508335 -0.09031537 -0.01568479
000350 de bc 1b bd ff 88 7e 3d de bc a1 3d 27 96 16 bd
       -0.038021915 0.06214237 0.07897352 -0.03676429
000360 f4 07 39 3d 50 f9 34 3d 4d fe ee bd 46 59 f8 bd
       0.0451736 0.044183075 -0.11669598 -0.121264026
000370 df df 89 bd d8 c2 25 3d 15 ae 6b 3d 37 ba 9d 3d
       -0.06732153 0.04046902 0.057539064 0.07701533
000380 37 75 d8 3d 5b f0 ba 3c b4 58 e4 3c 23 dc c7 3b
       0.10569232 0.022819689 0.027874328 0.0060992404
000390 1c 78 2c 3c 00 10 10 3e b9 91 ad 3b a9 65 fe 3d
       0.010526683 0.14068604 0.0052969125 0.12421734
0003a0 70 82 b6 3d 89 5d de bd c9 b3 15 3e f5 39 30 3e
       0.08911598 -0.10857684 0.14619364 0.17209609
0003b0 b8 6f aa bc 2f 68 ba 3d b0 b7 71 3d 31 57 b6 3d
       -0.020805225 0.09101903 0.05901307 0.08903349
0003c0 22 54 91 bc 52 f6 f2 3c f9 64 90 bd a2 99 c4 3d
       -0.017740313 0.02965847 -0.07050509 0.09599616
0003d0 23 96 97 3c 69 03 b8 bd 3d 78 40 bd 29 47 05 be
       0.018504208 -0.089850254 -0.04698967 -0.13015427
0003e0 b9 29 c6 3d ea 8a a6 3d 5b a6 d4 3d 9f 68 c2 3d
       0.09675927 0.081319645 0.10383292 0.09492611
0003f0 96 cc 66 3d 17 fc 73 bd b6 55 2f 3d d0 35 7d bb
       0.056347452 -0.059566583 0.04280635 -0.003863681

lstm.weight_hh_l0 f4 [256, 64]
000000 16 d5 37 bd 6e 60 c6 bd 2d f7 d0 bd 40 47 b7 bd
       -0.04488095 -0.09686361 -0.10203395 -0.08949137
000010 1e cf 16 3c e5 af 0f bd 51 45 a1 3d 2b 0f 2b 3d
       0.009204654 -0.035079855 0.07874549 0.041762512
000020 1a 87 b7 3c 87 0a 81 bd db 04 19 3b 38 08 b5 3b
       0.022403289 -0.06300836 0.0023348841 0.0055246614
000030 55 22 1c 3d d8 ea 88 bd 04 14 e0 bc 6d 87 72 bd
       0.03811868 -0.06685418 -0.027353294 -0.059211183
000040 0f 90 26 bd 6c 40 c7 bd df ce 0e bd 09 c8 ab bc
       -0.04066473 -0.09729084 -0.034865256 -0.020969408
000050 97 84 d0 3c b1 67 02 3d df ca 9c 3c 78 33 8f bc
       0.025453849 0.03183717 0.019139705 -0.017480597
000060 27 7e d1 3d ea 59 99 3d f5 05 92 3d d0 3f 49 3d
       0.1022914 0.07487853 0.071300425 0.049133122
000070 98 f8 c9 bc 85 21 19 bd 94 ec e4 3c da ab be bd
       -0.024654672 -0.037385482 0.02794484 -0.09310122
000080 dc ea 13 3d 03 07 cf 3d 2d 4d ed 3c 1f 48 58 bc
       0.03611265 0.10108759 0.028967464 -0.013200789
000090 55 3f 8a 3d 1f b2 c3 bc f5 95 35 3d 0c 01 ad bd
       0.06750361 -0.023888646 0.044332463 -0.08447465
0000a0 69 04 ab 3d ad d4 d2 bc 82 08 bb bd b8 c8 d5 bd
       0.083504505 -0.025736177 -0.09132482 -0.10438675
0000b0 2f 8d a6 bc 6d 27 84 3d c0 34 d3 3d d2 77 60 bd
       -0.020330993 0.06452832 0.10312796 -0.05480177
0000c0 c4 e3 59 3d a6 0a f2 bc 05 85 eb 3c 95 ec 56 bc
       0.05319573 -0.029546093 0.028749952 -0.013117929
0000d0 da fc 39 3d c8 38 43 bd da c3 1e 3d d3 f8 31 3d
       0.045407154 -0.047661573 0.038760997 0.043450188
0000e0 db 40 fa 3c 7d 43 72 bc 21 26 f2 3b 86 13 d3 3d
       0.030548504 -0.014786598 0.007389799 0.10306458
0000f0 ee 5d 9c 3d ca 9b e1 3d f1 43 b9 bd eb 2a 70 3d
       0.07635103 0.110160425 -0.09046162 0.05863468
000100 d9 df 1f 3e 7a 62 2c 3d fe a4 7c 3d 1f 09 04 be
       0.15612735 0.042086102 0.061680786 -0.12894104
000110 f3 7e 88 3c 95 fc 02 be 37 14 a1 bd 6c df 76 bd
       0.016662097 -0.12791665 -0.07865184 -0.060271665
000120 d0 80 80 bd 80 c6 34 bd 04 4d 14 3c 86 40 f8 3c
       -0.06274569 -0.044134617 0.009051565 0.030304205
000130 e7 5e ac 3b dd 3e 95 bc 4b 2e c2 3b 42 55 0e bd
       0.0052603367 -0.018218452 0.0059259287 -0.034749277
000140 61 f7 8a 3d fb c8 b8 3d 08 34 a1 bd ab 3f cb bd
       0.06785465 0.09022709 -0.07871252 -0.09924253
000150 8d 76 37 bd 9d 11 00 3b ff 2f 2f 3d 96 e5 85 3b
       -0.044790793 0.0019541748 0.042770382 0.0040862067
000160 d8 a3 b1 bd 66 ad 92 3d e0 ea 65 bd 6e 47 11 bd
       -0.08673829 0.071619794 -0.056132197 -0.03546851
000170 aa 12 94 bc fe 95 b8 3c 8d 35 a0 bc 09 e9 69 3d
       -0.018075306 0.02253246 -0.019556785 0.057107005
000180 41 16 df bd 51 f3 a4 3c 21 ae 13 bd 5c da c0 3d
       -0.108929165 0.020135554 -0.036054734 0.09416649
000190 84 fb fc bd 55 64 05 be df a7 02 3d c2 89 2d 3c
       -0.1235266 -0.13026555 0.031898376 0.010591926
0001a0 ce c6 5b bd 82 30 a1 3c 1f 85 e1 3d 3a 9a 87 bd
       -0.05365639 0.01967645 0.11011719 -0.06621213
0001b0 d8 d1 97 3b 6a 76 1c 3d 84 c5 37 bd 58 44 28 3d
       0.0046331696 0.038198866 -0.0448661 0.041080803
0001c0 b7 42 af 3d ed 5f a5 bd e4 75 c6 bd a7 cd 11 3d
       0.08557647 -0.08074937 -0.096904546 0.035596516
0001d0 57 54 e0 3d 4a ed fc 3c db e3 e6 3c d4 14 bd 3c
       0.109535865 0.030874867 0.028184822 0.02308122
0001e0 68 53 48 bd 9c 74 66 bb 2d 45 67 3d a8 ac 1d bb
       -0.048907667 -0.003516472 0.056462456 -0.002405921
0001f0 1b b0 f7 3d ee 6a 48 bc 7a 2a d1 3d 44 05 9a bd
       0.12094136 -0.012232525 0.1021318 -0.075205356
000200 a8 61 f5 3d 85 f3 fb bd ba 1c 09 bd 06 9b 6f 3c
       0.11981517 -0.12302307 -0.03347466 0.014624363
000210 da 0a ee bd 99 0e d3 bc fa 7d dc bd 85 bd fd 3c
       -0.116231635 -0.025763797 -0.107662156 0.030974159
000220 11 de 6e 3d 7c 7a 12 3e c1 27 84 3c 9e a6 a0 bc
       0.058317248 0.14304537 0.016132237 -0.0196107
000230 bd 17 3b 3a b9 df b9 3d a3 4d 07 bd 37 9f ce bd
       0.0007137021 0.09075875 -0.033033025 -0.100889616
000240 1a 76 a3 bd 46 74 72 bd b1 9d 39 3c 2f 85 0b 3c
       -0.079815105 -0.05919292 0.0113291005 0.00851564
000250 76 39 7d 3d c9 3e 9a bd 8f a1 54 bd 38 48 a2 3d
       0.061822377 -0.075315066 -0.051911887 0.07923931
000260 f0 73 9c 3c d0 e6 11 3e cf cf b0 3d 17 b0 eb 3c
       0.019098252 0.14248204 0.08633386 0.02877049
000270 8f e2 cf bc 4e 53 57 bd 08 e6 07 be 02 79 b4 bd
       -0.025376586 -0.05256968 -0.13271344 -0.08812143
000280 a0 24 c3 3c 36 ac a7 bd 60 36 93 3c bb 5d a4 3d
       0.023821175 -0.081871435 0.017970264 0.0802569
000290 fb 34 f2 bd f8 36 87 3d 3b fc e4 3d 4b 8e 50 3d
       -0.118265115 0.06602281 0.11180922 0.05091695
0002a0 bb cd 79 bc d1 a6 a0 bc 96 3c 44 3d 02 4c c5 3d
       -0.015246804 -0.019610794 0.04790934 0.09633638
0002b0 c9 2a 1c bd cf 0e 1a bd 1a f0 f8 3d b0 fd 93 3d
       -0.03812674 -0.03761178 0.12155171 0.072261214
0002c0 09 dd a1 3d 65 23 56 bd 7d 80 8c bd 64 6a 3f bd
       0.07903487 -0.05227985 -0.06860445 -0.04673232
0002d0 60 2e 06 3e ef 6b 89 3c 99 8b 0f 3e ad 1b af 3d
       0.13103628 0.0167751 0.14018096 0.085502006
0002e0 87 4a a9 3d 81 c3 92 bd a2 f1 1f bd 97 68 ac bd
       0.08266168 -0.07166196 -0.0390488 -0.084183864
0002f0 90 53 df b9 0e 93 77 bd a5 dc d9 bc e9 05 92 3c
       -0.00042596133 -0.060442977 -0.02659447 0.017825084
000300 4b a1 15 3d 97 98 14 3d 26 3c e8 3b 7a 4e 88 bd
       0.036530774 0.036278334 0.0070872484 -0.06655593
000310 43 4e 72 bd ba 54 14 bd a4 68 34 bd a1 0e 6d 3c
       -0.059156667 -0.036213614 -0.044045106 0.01446882
000320 3b 59 0d bd f9 56 b5 bb 60 c6 2f 3d 67 b3 e1 bb
       -0.034508925 -0.0055340496 0.042913795 -0.0068878415
000330 ed 70 9c bd eb d8 82 3c 94 08 d8 bb 41 af 41 3c
       -0.076387264 0.015972575 -0.0065928195 0.011821569
000340 9c 90 f8 bc 41 e3 c0 3b bc df b4 bb 28 09 f2 3c
       -0.030342393 0.005886466 -0.0055198353 0.029545382
000350 4d 9b 1a 3d 27 f0 bc bc 36 c7 cc 3c 51 d0 9c bb
       0.037745763 -0.023063732 0.024997335 -0.0047855754
000360 16 36 94 3d 15 ca 35 bc 4a ca da bc 44 e7 e9 3c
       0.072368786 -0.011095543 -0.026707787 0.028552659
000370 df 08 5c 3c e5 6b 31 3d 05 d5 e0 bc 90 1b 1a bd
       0.013429849 0.043315787 -0.027445326 -0.037623942
000380 60 e4 82 bc 68 81 17 3d dc 6d a7 3c 47 52 62 3d
       -0.015978038 0.036988646 0.020438127 0.055254247
000390 5c 65 98 3c d8 f0 94 3c f0 ad 43 bd b5 84 45 bd
       0.01860302 0.01818125 -0.0477733 -0.048222262
0003a0 a5 5f 37 3d 3d e8 a7 bc a6 47 84 3c c0 7c 9a bc
       0.044768948 -0.020496482 0.016147446 -0.018858314
0003b0 87 0e 83 3b 65 02 86 3d 81 65 d9 bb c0 04 31 3c
       0.0039995345 0.065434255 -0.0066344147 0.010804355
0003c0 18 80 85 bc eb 1a 97 bb 05 10 38 3d bc e0 5c bd
       -0.016296431 -0.004611363 0.044937152 -0.05392526
0003d0 da ff 3e bd 30 8e 92 3c 2c 04 4e 3d 85 c7 df bc
       -0.046630718 0.017890066 0.050296947 -0.027316818
0003e0 dc db 47 bd f1 77 fc 3c 77 3c 16 3d 9e 2f 00 bd
       -0.04879366 0.030818911 0.036678758 -0.03129541
0003f0 4a a7 aa 3c 98 60 01 bb 5a d5 50 bd d6 de 88 bd
       0.020831723 -0.0019741412 -0.050984718 -0.066831276

lstm.bias_ih_l0 f4 [256]
000000 8c d5 c9 3d ce 17 88 3d 97 01 cf bc 04 ee b6 bd
       0.09855184 0.066451654 -0.025269313 -0.08932117
000010 98 a2 ed 3d fa ab 9e 3d b5 25 fb 3d da bb 43 3c
       0.11603278 0.07747646 0.122630514 0.011946643
000020 42 86 17 3d ee 18 8b 3d d9 f5 ab 3d 37 bd 32 bd
       0.036993273 0.06791864 0.08396501 -0.04363748
000030 31 7b 6f 3d 65 3e 43 bc 6f 0e 39 bd 9e 64 b7 bd
       0.058467094 -0.0119167315 -0.04517978 -0.08954738
000040 20 07 1b bd 1f eb ce bd 8b dd a2 3d 5a ba 53 bc
       -0.03784859 -0.101034395 0.07952412 -0.012922848
000050 fc 02 c8 bd 7a 01 b9 bd 90 72 19 3e 1e ff f2 3d
       -0.09766194 -0.09033485 0.14985108 0.11865066
000060 88 cc 5e 3d f8 39 51 bd 07 7e 90 3d 7a 1c b1 3d
       0.054394275 -0.051080674 0.07055288 0.086480096
000070 26 6d 00 3c f4 6a 1c bd e4 23 46 bd 29 d5 11 bd
       0.007838523 -0.038187936 -0.04837407 -0.035603676
000080 65 15 b2 bd 4d 18 41 3c 33 7b 97 3d 6c 2f d3 bd
       -0.08695487 0.011785579 0.07396545 -0.103117794
000090 c1 bb ef bc 8c cc a1 3d 1d 8d 15 bd 8c 17 b3 bd
       -0.029264333 0.07900342 -0.03651153 -0.087447256
0000a0 a9 7c 4d bd 73 b1 a5 bd 83 c1 f4 bd a8 7f 88 bd
       -0.050167713 -0.080904864 -0.11950972 -0.066649735
0000b0 d1 2c f2 ba a1 60 a4 bc fe cf 2e 3d ce b0 27 3c
       -0.0018476491 -0.020065608 0.042678826 0.010235025
0000c0 77 04 71 bd 23 42 93 3d 2f ee 34 bd 84 16 b5 3c
       -0.05884215 0.07190349 -0.044172462 0.022105463
0000d0 d4 a5 12 bd ed 19 bc 3d b4 99 e6 3d 8c 74 80 3c
       -0.035802677 0.091846325 0.11259785 0.015680574
0000e0 81 a5 0d 3c 47 82 28 3c 1e df ac bc bd 2f 8a 3d
       0.008645416 0.010284967 -0.021102484 0.067473866
0000f0 d5 05 d7 3d 9a 1f e1 3d d6 b8 5e 3d 4d 99 42 bc
       0.10499159 0.10992356 0.054375492 -0.01187737
000100 32 c7 a2 bc 85 9d c2 3d 6d 15 f5 bd 69 57 dd bb
       -0.019870374 0.09502701 -0.11966977 -0.006754805
000110 06 a8 af 3c d3 a2 0a bc 8c f3 b1 3d 08 c4 98 3d
       0.021442425 -0.008461672 0.08689031 0.07459265
000120 a6 02 20 be 8f 31 a5 bd 7d 88 97 bd e3 1b d6 3d
       -0.1562601 -0.08066093 -0.0739908 0.10454538
000130 b2 d3 f8 bd 38 85 87 3b 1f 5c 26 bb 5b 24 a1 3d
       -0.12149753 0.004135754 -0.0025384498 0.078682624
000140 85 b9 9a bd ee 50 a9 bd ab 31 91 3d d0 f9 be bd
       -0.07554916 -0.08267389 0.070895515 -0.09324992
000150 70 88 ca bd 6e 26 be bb fe 25 9a bd 56 89 01 3d
       -0.09889305 -0.005802921 -0.07526778 0.031625114
000160 e3 02 17 3d 11 cc 03 bd 93 38 94 bd 6c d6 50 3d
       0.036867987 -0.032177035 -0.07237353 0.05098574
000170 24 2a 5f 3c de 23 e1 3d 7c e6 fc bd 23 8a 8d 3d
       0.013620887 0.10993169 -0.12348649 0.06911113
000180 7d 94 a0 bd f7 d7 af 3d 62 95 80 bd c6 e2 84 bd
       -0.07840822 0.08586114 -0.062784925 -0.06488566
000190 c8 a5 9a 3c 5d 75 82 bd 21 83 a3 3b 2a 84 a0 3d
       0.018877879 -0.063700415 0.004989997 0.07837708
0001a0 c9 d3 7c bc 2f 43 99 bc 96 ce 0c 3d c6 8e b3 bd
       -0.015431353 -0.018708793 0.034376703 -0.08767466
0001b0 32 09 55 3d 76 55 00 bd 0a 23 a2 3d a4 0f d3 bd
       0.052010722 -0.031331502 0.079168394 -0.103057176
0001c0 2f 4a c2 bc d6 09 00 3d 87 ae 94 3c 8e 98 9f bd
       -0.023717014 0.03125938 0.018149627 -0.07792769
0001d0 c1 19 e0 3d 47 81 46 bd 3f c1 e9 3d fd 05 5d bd
       0.10942412 -0.048463132 0.11413812 -0.05396079
0001e0 73 6e df bd e8 28 62 3d c9 29 75 bd 7b 8d d5 bd
       -0.109097384 0.055214792 -0.059854303 -0.10427376
0001f0 c9 0b 91 3d d1 a9 b8 3c b3 84 a2 3c c8 c3 37 3d
       0.07082326 0.022541912 0.019838667 0.044864446
000200 36 95 88 bc 2b aa 8b bd e4 91 9a bd 9f bb 7d bd
       -0.016672712 -0.06819566 -0.07547358 -0.061946508
000210 8e d0 9a 3d 17 0b 1f bd 40 b6 b2 3d a7 9e ef bd
       0.0755931 -0.038828935 0.08726168 -0.117001824
000220 a0 32 26 3d 5a 93 a7 3d a0 4a b1 bd 07 09 80 bd
       0.040575624 0.08182402 -0.08656812 -0.06251722
000230 f7 4e b5 3b b3 04 72 bd 6b a1 dc bd d2 cf 79 3d
       0.005533095 -0.059086513 -0.107729755 0.06098921
000240 08 51 fe bc c1 4d 03 bd 69 20 3c bd ff e4 d3 3d
       -0.031044498 -0.032056574 -0.045929346 0.10346412
000250 64 11 bb 3c 1d 2e 28 3d f3 60 b2 3d 21 e1 cc bd
       0.022835441 0.041059602 0.08709898 -0.100038774
000260 23 fe a9 3d 5d 8a 7a 3d 1f 45 c6 bc 9f 1d 52 bc
       0.08300426 0.06116711 -0.024202881 -0.012824445
000270 71 b1 d5 bd 5e b3 2f bd 01 ba bb bd 5a 09 af 3d
       -0.10434235 -0.042895667 -0.09166337 0.085467055
000280 64 a6 b7 bd a4 7b 8b bd c0 69 8a bd 38 59 2b bc
       -0.08967283 -0.06810692 -0.067584515 -0.010458283
000290 8f 0c 92 bd c2 74 3e 3d 13 80 f2 bd 3f a9 04 bd
       -0.071313016 0.046498068 -0.118408345 -0.03238797
0002a0 4d 20 c7 bd d5 a7 15 3d b4 2a 91 bb 11 42 45 bd
       -0.09722958 0.03653701 -0.0044301394 -0.04815871
0002b0 97 b3 63 bd 09 5e ac 3d b7 6f d5 3c 3d d0 1d bd
       -0.055591192 0.08416373 0.026054246 -0.03852867
0002c0 7d 3e ab 3c 2f 8b 10 3d 2d 15 87 bd 51 14 a7 3d
       0.02090382 0.035288986 -0.06595836 0.08158172
0002d0 40 42 3f 3d 15 75 a8 3c 44 a4 7e bd 37 a0 b8 bd
       0.04669404 0.020563642 -0.062168375 -0.090149336
0002e0 5e 9b c5 3c b1 cf 74 3d c9 1e da 3d 71 3a 1e bd
       0.024121936 0.059768382 0.10650403 -0.038629953
0002f0 d3 ec fd bd 85 16 9f 3d d2 df a6 3d 74 59 c3 3d
       -0.12398686 0.07767967 0.08148159 0.09538546
000300 d2 64 60 3d 54 ac ae 3d 47 84 b5 bd b7 95 3d bb
       0.05478365 0.08528963 -0.088631205 -0.0028928348
000310 46 48 c3 3c b2 0b e0 bd dd 93 c4 3d 7f e4 d2 bd
       0.023838174 -0.10939731 0.09598515 -0.102974884
000320 3f 71 92 3b 9d a8 a0 bd a4 b8 00 3e 8e c5 5b bd
       0.0044690664 -0.078446604 0.12570435 -0.0536552
000330 db 19 13 3c 70 26 bd bd 69 fa 52 bd 87 5d 4c 3c
       0.008978332 -0.09235847 -0.05150834 0.0124734705
000340 e8 99 51 3c dc 5d c6 3d d0 c0 98 bc bf 31 93 bd
       0.012793042 0.09685871 -0.018646628 -0.07187223
000350 45 4c 50 bc 2c f7 a7 bd 3b bf 31 3e 6b b1 03 bd
       -0.012713497 -0.08201441 0.17358105 -0.03215162
000360 d0 7d 9e 3d 8e 78 a7 3d 0f 5c f8 bc 64 48 ec 3d
       0.077388406 0.08177291 -0.030317334 0.11537245
000370 0c 29 51 3c 73 ca ac bd d8 ad 64 3d 01 e3 25 bd
       0.012766134 -0.084370516 0.055829853 -0.04049969
000380 a0 c0 a9 3b 9a aa 44 bd 96 c7 ab bb 78 3b 04 3c
       0.0051804334 -0.04801426 -0.0052422984 0.008070819
000390 82 90 a6 bd af 82 b7 3d 9e b1 ad 3d ee 49 18 bc
       -0.081330314 0.08960473 0.084811434 -0.00929497
0003a0 72 41 a7 bd 29 30 01 3e d5 74 c2 3d 73 d7 86 3b
       -0.081667796 0.12616028 0.0949494 0.004115039
0003b0 e2 6e dc bd 2f 40 ab bd 0b 4b 91 bd 0e 3b 50 bd
       -0.10763337 -0.083618514 -0.070943914 -0.05083757
0003c0 1a d6 c0 3d b8 3f 92 bd 26 80 8e 3d 17 8b d6 bc
       0.09415837 -0.0714106 0.06958036 -0.02618937
0003d0 8e 71 2e bd 96 2b a1 bd 27 a4 94 bd 86 17 41 bd
       -0.042588763 -0.078696415 -0.07257872 -0.047141574
0003e0 3f 70 d7 bd 6f b7 8c bd 4a 62 8c bd 7c 18 c6 3c
       -0.10519456 -0.06870925 -0.06854685 0.024181597
0003f0 ad 57 94 bd d4 21 7c 3d 8b 54 2c bb 98 13 df bd
       -0.07243285 0.0615557 -0.0026295509 -0.10892409

lstm.bias_hh_l0 f4 [256]
000000 3a ee c3 3d 86 c1 d0 bd 32 15 9e bd 95 ba c3 3c
       0.095669225 -0.10193162 -0.077188864 0.02389268
000010 3c 8a a3 bb 0d ad d3 3d 3d 03 dd 3d 4e bb cd bd
       -0.004990844 0.10335741 0.10791633 -0.10045491
000020 24 90 e4 bd 5b 7a 8d bd db 39 ee 3d 80 75 80 bd
       -0.11160305 -0.06908103 0.11632129 -0.06272411
000030 9d 87 ff bc 25 7f ce 3d f1 67 8d bd 99 af ad bd
       -0.031192595 0.10082845 -0.06904591 -0.08480758
000040 4b 6b 1b 3d 1f 71 1b 3d 49 b6 96 bd 4d f3 ad 3d
       0.03794412 0.037949678 -0.07358987 0.084936716
000050 19 21 f8 3c 6b af 6e 3d bf 91 1d 3d d7 f8 fb 3d
       0.03028922 0.05827276 0.038469072 0.12303322
000060 17 ef 71 3d 44 b3 6b 3d 91 2d 5d 3d f6 a9 cc 3d
       0.059065904 0.057544008 0.053998534 0.09993355
000070 ce 86 8f 3d f7 ee a7 bd 97 3b d7 bc 90 12 f8 bc
       0.07008134 -0.08199876 -0.026273532 -0.030282289
000080 ce 87 a9 bd ae 69 23 bd b0 45 fb 3d 39 7d 8e bb
       -0.08277856 -0.039895706 0.12269151 -0.004348424
000090 21 74 9b 3d 4d 94 f5 bd 35 c5 a9 bc eb d8 54 3d
       0.07590509 -0.11991177 -0.020723918 0.05196468
0000a0 f5 7d 5a 3b 07 65 ab bc cb 73 b5 3d 1c 75 cf bc
       0.0033339236 -0.020922197 0.088599764 -0.025324397
0000b0 07 d9 61 3c 4a db da 3d 1c c3 65 bd 88 84 0c be
       0.0137846535 0.10686357 -0.056094274 -0.13722432
0000c0 5b b6 c6 bd 69 a8 a0 bc e5 70 b9 bd 57 94 82 3d
       -0.0970275 -0.019611554 -0.09054736 0.0637595
0000d0 27 28 97 3d 41 23 cb 3c 4c d7 ad 3d f3 a5 9a bc
       0.07380705 0.024797084 0.0848833 -0.018877959
0000e0 d6 fc fe bb d6 72 55 bd 42 ec 9f bc 01 da ea bd
       -0.0077816052 -0.05211147 -0.019521836 -0.11467362
0000f0 bb e7 d7 3d 72 5d b5 bc 47 47 0d 3d c8 f0 0e bd
       0.10542246 -0.022139285 0.034491803 -0.034897596
000100 85 e7 2d 3c ad a8 bf bc ff 41 4e bc d4 b8 d4 bc
       0.010614281 -0.02339586 -0.012588977 -0.02596704
000110 da 5e 9b 3d c4 a8 7c 3d d0 aa 36 bd 8c d8 a9 bd
       0.07586451 0.061684385 -0.044596493 -0.08293256
000120 7f 5e 06 bc 2e 3e dc 3b fc fc 2a b8 13 c0 10 bd
       -0.008201241 0.0067212796 -4.076677e-05 -0.035339426
000130 97 37 07 be 77 8a 24 bd fa 6e 07 bd 55 40 ec 3d
       -0.132048 -0.040171113 -0.03306482 0.11535708
000140 9f eb 97 bd c8 66 a5 bd 88 6a 18 3d a0 d2 10 bd
       -0.07417988 -0.080762446 0.03721097 -0.035357118
000150 ea 80 92 bd 88 b0 da bc ce b7 f5 3d 5d 71 55 3d
       -0.07153495 -0.026695505 0.119979486 0.052110065
000160 c3 04 0d be 74 80 ad 3d 77 66 44 3d ad 77 05 39
       -0.13771348 0.08471766 0.04794928 0.00012728451
000170 a2 20 d6 bd c9 b5 8d bd a9 0d c0 3d ad 36 f7 bd
       -0.10455443 -0.069194384 0.093776055 -0.120709755
000180 0f 9e f5 bb c4 d8 90 3c 4b 19 78 bd e0 f8 57 3d
       -0.0074956487 0.017681487 -0.060570996 0.05272758
000190 53 34 05 bd 3d a6 db ba b4 32 18 3d 2e 5e 8b 3d
       -0.032520603 -0.0016757917 0.03715773 0.06805073
0001a0 ee 1d b1 3d cf 03 1c bd 3d 50 25 3d a3 7e 21 bc
       0.08648287 -0.03808957 0.040359724 -0.009856853
0001b0 a7 33 9a bd 9e f7 df bb 5e 11 d4 3d 6d 8e 80 3d
       -0.07529383 -0.006834938 0.10354875 0.062771656
0001c0 a4 fe cc 3c 3d e3 4f bb bf 29 0f 3a 12 c7 ec 3c
       0.025023766 -0.0031721138 0.0005461238 0.028903518
0001d0 97 5e ab bd 1f c8 60 3d e9 0a 93 bd 1a d0 d5 bd
       -0.08367651 0.05487835 -0.07179815 -0.10440083
0001e0 c9 68 d7 bd ea 8f bc bb fe 99 da bd 95 c7 d3 bd
       -0.10518033 -0.0057544606 -0.10673903 -0.103408016
0001f0 be 5d a0 bc ba 7b e3 bd 13 2c 34 3d 05 6c a1 3d
       -0.01957595 -0.11107583 0.043987345 0.07881931
000200 07 a7 cc bd 8d b8 70 3d c9 07 50 bd 23 fb c6 bd
       -0.099927954 0.05876975 -0.050788675 -0.09715869
000210 0c 98 42 bd d5 9f 14 bd 22 30 94 bd 12 8d 99 3d
       -0.047508284 -0.03628524 -0.07235743 0.0749761
000220 b3 69 f7 3c dd f1 57 bd d0 5e c9 3d 79 45 05 3d
       0.030201769 -0.052720893 0.09832537 0.032536957
000230 9b 7d b9 bd 2a 4d 86 bd d2 2d 40 3d 02 11 b5 3c
       -0.090571605 -0.065576866 0.046918698 0.022102837
000240 ac d8 58 3d 56 13 c2 3d 6d 91 53 bc ba c3 a2 bc
       0.05294101 0.09476344 -0.01291309 -0.01986872
000250 f6 9e 68 bd 9c 7f 0e be 26 dc 8f bc 2f a2 83 3d
       -0.056792222 -0.13915867 -0.01756103 0.064274184
000260 95 17 f8 3b 3f 7c c7 bd 17 ee f3 3d 4c 4f 6c bd
       0.0075711706 -0.09740495 0.119106464 -0.05769281
000270 b0 45 3e bd 4a 8c 09 3d 64 21 c6 3d 00 8d 86 bd
       -0.046453178 0.033581056 0.096743375 -0.06569862
000280 dd d5 02 bc 5e 34 8f bc 97 63 ac 3d e0 6c 17 3b
       -0.007985559 -0.017481025 0.08417433 0.0023105666
000290 a9 63 d9 3d 16 bd b3 bd 05 60 4a 3d c3 4a 8b bd
       0.10614712 -0.087763 0.049407978 -0.06801369
0002a0 71 c3 e6 bd b0 51 9b bd 04 2f b3 3d 7d 4f 59 bd
       -0.11267746 -0.0758394 0.08749202 -0.05305432
0002b0 83 4e de bd f5 42 8c bd de 02 c1 bd a8 3f de 3c
       -0.10854819 -0.068487085 -0.09424375 0.027129963
0002c0 2f ab 06 3d b7 21 93 3d 66 d7 c0 bd 8e e0 b9 bd
       0.032878097 0.07184165 -0.09416084 -0.090760335
0002d0 7f 7b 7a bb aa 43 e5 bd ab 14 ef bd 8d 4e 87 3d
       -0.0038220582 -0.111945465 -0.11673864 0.06606779
0002e0 d4 13 b9 3b de 4d 63 3b 09 dd 82 3c f8 c0 b7 3d
       0.0056481156 0.0034683864 0.015974538 0.08972353
0002f0 05 60 3f 3d 68 0c bd bc b9 d6 8e bd f2 10 d8 bd
       0.04672243 -0.023077205 -0.06974549 -0.10550107
000300 ba 3d e2 3c 50 ba 23 bd b9 fe 91 3d c4 c4 0c 3d
       0.027617324 -0.039972603 0.071286626 0.034367338
000310 f7 d1 3b 3d 93 18 9b bd 67 92 e2 3d a0 0c d2 3b
       0.045854535 -0.075730465 0.1106308 0.0064101964
000320 56 bf fd bc 36 e3 1e bd a5 7b e2 bd 11 45 13 bd
       -0.030975025 -0.038790904 -0.110587396 -0.03595454
000330 5a da 38 bd 02 6e a3 3d 6b 8e 3a 3d 03 88 e6 39
       -0.04513011 0.07979967 0.045545977 0.00043970355
000340 f2 88 07 3e 20 54 4b bb 09 47 64 bd 82 84 c3 3d
       0.13235834 -0.0031025484 -0.055731807 0.09546758
000350 9a 64 ed bd 30 82 eb 3c b3 51 f9 3d d3 25 5f bd
       -0.11591454 0.028748602 0.12173786 -0.05447943
000360 3d ac a1 ba 2e c9 89 bd c5 1d b3 bc cf f1 8e bd
       -0.0012334656 -0.06727825 -0.021864781 -0.06979715
000370 5a 8e 66 bd 12 36 f5 bc 7f 58 4c 3d 34 23 71 bd
       -0.0562881 -0.02993301 0.049889084 -0.058871463
000380 1e dc bd bd 73 3c 27 3d 3f 5c 87 3d 34 54 e0 3d
       -0.092705 0.040829133 0.066093914 0.109535605
000390 0e 2e b8 3d 64 ef 88 bb c4 83 c0 bd b5 21 17 3c
       0.08993159 -0.004178928 -0.09400132 0.009224345
0003a0 8b 90 b1 3d 74 91 10 3b 50 50 2f 3d 68 51 e9 3d
       0.086701475 0.0022059353 0.0428012 0.1139248
0003b0 6a b7 15 3d 16 b5 10 3e 74 7a 9d 3d 2b 8e 18 bd
       0.03655187 0.14131579 0.07689372 -0.037244957
0003c0 68 49 a2 3d 59 c6 8a 3c 23 90 b6 3c d9 cd 81 bd
       0.079241574 0.016940283 0.022285527 -0.063380904
0003d0 76 e1 e7 3d ba 7e 05 3d 9d cd 48 3d 5e b3 04 bd
       0.113223 0.03259156 0.049024213 -0.03239762
0003e0 0c 86 4c 3d 4c b1 00 3e 4e 63 93 3d 61 81 98 3c
       0.049932525 0.12567633 0.07196675 0.01861638
0003f0 47 14 d2 bd 44 b2 c5 3d 35 b7 9d 3d 8e 7d 8c bd
       -0.10257774 0.09653142 0.077009596 -0.06859885

lstm.weight_ih_l1 f4 [256, 64]
000000 2c a3 ba 3d 5a 12 6d bd 47 e1 e1 bd a6 92 49 bd
       0.09113154 -0.05787883 -0.11029296 -0.04921212
000010 50 09 20 3d f2 5d 17 3d 7d cc 7f 3d 1f f2 fe bd
       0.03907138 0.036954828 0.062450875 -0.12448525
000020 d2 7e 81 3c 97 e9 b7 bb 3b 8f 84 bc f7 64 ff bb
       0.015807543 -0.005612563 -0.016181579 -0.0077940184
000030 9f aa 29 bd a8 9c 6d bb 86 51 1a 3b 37 cb e4 3b
       -0.041422483 -0.0036256704 0.0023547127 0.006982233
000040 a6 8a ee 3d 44 81 a6 3d 46 c9 03 bd cf a0 4a bd
       0.11647539 0.08130124 -0.03217437 -0.049469765
000050 99 c0 c0 bc 57 63 30 bd 6c 44 45 bd 1e 9b 82 3d
       -0.023529338 -0.043063488 -0.048160955 0.063772425
000060 95 d3 2c 3c 94 7d 45 3d 99 2a bc bd b9 42 3f 3d
       0.010548492 0.048215464 -0.09187812 0.04669449
000070 a1 1a 34 bd bd c5 42 bd 39 a2 b4 bc d5 bf 88 3d
       -0.043970708 -0.04755186 -0.02205001 0.06677214
000080 34 53 8b bd aa 52 fd bb b4 d7 91 bd a1 73 e7 3d
       -0.06802979 -0.0077308016 -0.0712122 0.11301351
000090 90 72 8c bd 39 bb ed 3c 23 9f 9b 3d e0 f3 e9 bd
       -0.068577886 0.029019939 0.07598712 -0.114234686
0000a0 35 00 68 bd 86 e7 ac 3d 76 1f 9e bd 17 1e 4e 3d
       -0.056640822 0.08442597 -0.077208444 0.050321665
0000b0 99 ea 06 3c b6 ba e4 bd 3f 11 52 3c 96 5c c3 3b
       0.008234643 -0.11168425 0.012821495 0.005961965
0000c0 11 5c aa 3c 72 6b e4 bb d7 4b 35 bd b4 e6 44 bd
       0.020795854 -0.0069708163 -0.04426178 -0.04807158
0000d0 c9 bc 90 3d 53 27 31 bd a1 8c 0d 3e 2b 36 44 bd
       0.07067258 -0.043250393 0.13823177 -0.04790322
0000e0 6a b2 f9 bd c0 a2 d0 3d f1 a7 04 3d a8 c7 12 bd
       -0.12192233 0.10187292 0.032386724 -0.03583494
0000f0 11 c5 84 bc b7 bd 21 bd b6 b7 cb bd f0 46 f2 bb
       -0.01620725 -0.039487567 -0.099471495 -0.0073937103
000100 3b b8 9f bd 5d 31 b9 bd b2 c5 be bb df 5c 81 3c
       -0.07798811 -0.090426184 -0.005821907 0.015791355
000110 da ac 99 3d 3c 35 e0 bd eb 45 2a bd 4a f3 81 3d
       0.07503672 -0.10947654 -0.041570585 0.06345232
000120 98 49 65 bd 53 38 75 3b 6e 05 25 bd 81 4c 15 3c
       -0.055978388 0.0037417605 -0.04028838 0.009112478
000130 17 c8 c6 bd 1f 6d 01 3d 2b 59 18 3d 20 38 0a 3c
       -0.09706133 0.031598207 0.037194412 0.008436233
000140 37 9a b9 3d f0 66 b7 bc 84 e4 36 3d 2e 39 d3 bd
       0.09062617 -0.022387952 0.044651523 -0.103136405
000150 a5 34 4b bc 5f db 9d 3d 23 26 61 bd 91 6b ae bd
       -0.012402688 0.07707857 -0.05496801 -0.085166104
000160 62 14 4a 3d 61 5e 03 3d 16 86 23 3c 79 86 dc 3b
       0.049335845 0.03207243 0.009980699 0.0067298976
000170 e1 a6 8d 3d 8e 1b 54 bd 6e e0 1a 3d de a7 e0 3d
       0.06916595 -0.05178409 0.03781169 0.10969518
000180 3e b5 c1 bb da 83 db b4 f7 2c 53 bd 3f 1e 35 bd
       -0.0059114983 -4.0887863e-07 -0.051556554 -0.044218298
000190 06 1b c0 3d 05 4d e6 bd 57 34 e8 bd 04 12 65 3d
       0.09380154 -0.11245159 -0.11338108 0.055925384
0001a0 a9 d9 16 bd 22 10 44 bd 7d 89 90 bd 77 b3 ab bc
       -0.03682867 -0.047866948 -0.07057474 -0.020959599
0001b0 66 f6 67 3d 03 82 86 3d bf 23 fa bd 2a be ef bc
       0.05663147 0.065677665 -0.12213849 -0.029265482
0001c0 4b d4 01 be 79 69 1f 3d c5 de d7 bd 3e 4c 05 3d
       -0.1267864 0.038918946 -0.10540537 0.032543413
0001d0 cb a3 a6 bd 18 6e c3 3d 9a d6 07 3b 61 65 e1 bc
       -0.0813671 0.09542483 0.0020727278 -0.027514162
0001e0 41 9b 90 3d 65 52 ff bc 6c 26 a2 bd 83 73 bb 3d
       0.07060862 -0.031167218 -0.07917485 0.091528915
0001f0 da 13 7f bd 79 dc c3 ba 07 87 15 bd 5c 82 f5 bc
       -0.06227479 -0.0014943025 -0.036505725 -0.029969387
000200 e6 a7 b1 bd fc 6a 07 3d c7 9c 40 3d f6 40 a5 3c
       -0.08674602 0.033061013 0.047024515 0.020172577
000210 3c cb 8f bd 4a 1b 59 bd 9b 98 77 3d 78 ac 3d bd
       -0.07021186 -0.05300454 0.06044827 -0.046307057
000220 ea f1 ab 3d 3e ca 5a bd b4 7d 7e 3d 74 30 b2 3d
       0.08395751 -0.05341553 0.0621316 0.08700648
000230 ab a3 bb 3d b1 30 3f 3d 6c a7 d5 3c ad fd be bc
       0.091620766 0.046677295 0.02608081 -0.023314321
000240 5f 1a 3a bd 6d be 3d 3d b0 5c df 3c 27 e1 13 bd
       -0.045435306 0.046324182 0.027265877 -0.036103394
000250 cf 6d cb 3c 68 5d ae bd 90 a8 a0 3c 5d 81 79 3d
       0.024832634 -0.085139096 0.019611627 0.060914386
000260 71 7a c0 bd 03 17 7e 3d 91 24 27 3d 0e 01 b6 bb
       -0.09398354 0.062033664 0.040806357 -0.005554325
000270 bd 56 59 bd 71 ff 28 3c 54 d2 b2 3c 80 db 6b bd
       -0.053061236 0.010314808 0.021828808 -0.05758238
000280 f5 8f f8 3c 2c 58 14 3d dd e7 0e 3d 4e fd c8 bd
       0.030342082 0.0362169 0.03488909 -0.09813939
000290 98 6b 52 3a cb 18 bc bb f9 16 e7 3c 76 67 45 bd
       0.0008026897 -0.0057402602 0.028209196 -0.04819437
0002a0 69 19 62 bb c0 ba d4 bd 32 d2 d2 3c 8f b1 bd 3c
       -0.003450001 -0.10387182 0.025734995 0.023155956
0002b0 50 45 bb bc 2c 62 61 3d 80 16 7a bd fc 26 38 3b
       -0.0228602 0.055025265 -0.061056614 0.0028099408
0002c0 cc b1 c6 3d c7 34 7c bd 1e 22 a0 bd 8d 65 c0 3c
       0.09701881 -0.06157377 -0.07819007 0.023485923
0002d0 55 45 9d bc c8 b1 ac bd 0c 23 ca 3d d1 1a 1f bd
       -0.0191981 -0.084323466 0.09869966 -0.038843933
0002e0 ca eb 00 3d be 16 f5 bd 5b 7b f5 3c 05 07 02 3d
       0.031474866 -0.11967228 0.029966047 0.031744976
0002f0 c7 52 89 bd d5 60 72 bd 0b 0d ee 3c 9d b7 86 3d
       -0.06705242 -0.059174377 0.029058954 0.0657799
000300 92 27 dd 3c 03 36 35 bd 56 c1 68 3d 25 35 71 3c
       0.026996408 -0.044240963 0.056825005 0.014722143
000310 23 6f 13 bc f2 ba 82 bd 0c be 9f bd d0 6c 1c bc
       -0.008998665 -0.06383313 -0.077999204 -0.009547427
000320 5c 73 ce bd 34 24 b9 3c 62 0c 5a 3d ce 09 e2 3a
       -0.10080597 0.02260027 0.053234465 0.0017245354
000330 01 2b dc 3c 42 16 99 bc 5b 6b f6 3c 2e 2e 4b bd
       0.026875975 -0.018687371 0.030080488 -0.049604587
000340 43 de 0d 3e 11 51 86 3d 3c 93 88 bc c3 de 50 3d
       0.13854317 0.06558431 -0.01667177 0.050993692
000350 7d 03 ec 3d c6 10 6c 3d 10 fc fa 3c 54 f5 8b bc
       0.11524103 0.057633184 0.03063777 -0.017084755
000360 58 e5 de 3c c4 63 f6 3c 6a 41 98 3d 4b 2e d6 bc
       0.027208969 0.030076869 0.07434352 -0.026145121
000370 88 7d b7 bd 65 6d 03 3e c6 13 55 3c fa d0 6a bd
       -0.0895949 0.128347 0.013005203 -0.0573282
000380 5c 9b d4 bd 9b e8 94 3d bc f9 a2 bd 18 56 23 3d
       -0.10381195 0.072709285 -0.07957789 0.039877027
000390 24 d5 ed 3b 1f d0 91 bd 93 0e 65 bb 80 05 87 3c
       0.0072580744 -0.07119774 -0.0034951314 0.016482115
0003a0 07 72 ff bb b7 ac a5 bc 25 a3 38 3c 55 1c cf bc
       -0.0077955755 -0.020223958 0.011269365 -0.025282064
0003b0 fa 5f 8a bd 02 d3 ac bd 35 19 1c bc df 04 6f 3d
       -0.06756587 -0.08438684 -0.009527494 0.058354255
0003c0 63 ff 8b bd cb a2 d6 bc a8 7c 9a bd 18 ae 25 3d
       -0.068358205 -0.026200673 -0.075433075 0.040449232
0003d0 cf 05 3a bd 29 d0 48 bd ac 7b fb 3c 13 b4 06 be
       -0.045415696 -0.049026642 0.03069862 -0.1315463
0003e0 ec 98 f1 bd 92 b3 ed 3d 0c 22 fa bd eb 8d 09 3e
       -0.11796746 0.11606516 -0.12213525 0.13433044
0003f0 c2 e0 86 3d 0a 98 91 3d d9 e7 ad bd 23 1d 8c bb
       0.06585838 0.07109077 -0.08491487 -0.0042759343

lstm.weight_hh_l1 f4 [256, 64]
000000 21 0e 2b bd 9c 85 90 bd 83 32 10 bd b7 dc 47 3d
       -0.04176152 -0.07056734 -0.03520442 0.048794474
000010 67 2b 6d 3d 06 4d 9e 3d 0c 22 8a 3d 16 18 78 bc
       0.05790272 0.07729535 0.06744775 -0.015142461
000020 d1 75 5b bd 08 a5 82 bc cb d9 20 bd be 6e 84 3d
       -0.053579155 -0.015947834 -0.039270204 0.06466435
000030 5f 22 c8 bd 38 b0 e8 bd 9d e1 1e 3d 8e bb cd 3c
       -0.09772181 -0.11361736 0.03878938 0.025113847
000040 01 3a b1 3d b6 7c d4 b9 1d d5 aa bd 26 0d 41 bd
       0.086536415 -0.00040528708 -0.083414294 -0.04713168
000050 8a 73 bb 3d e8 67 3e bd f5 cd 8e bd 44 55 09 bc
       0.09152897 -0.04648581 -0.06972877 -0.008382145
000060 7c 07 f1 bc 28 af d5 bc f8 db 92 bd 94 8a 2d bd
       -0.029422514 -0.026084498 -0.07170862 -0.042368487
000070 ac 54 e8 3c d0 1e 10 bd bf 88 32 3d f9 f0 42 bd
       0.028360687 -0.035185635 0.043587442 -0.04759309
000080 24 b1 d3 bd 31 00 59 bd 91 44 50 3d 0f ca 30 bd
       -0.10336521 -0.0529787 0.05084664 -0.043161448
000090 54 e8 e0 3c 2a 50 d7 3d 09 ce f9 3b 89 5d 55 bd
       0.027454533 0.10513337 0.0076234383 -0.052091155
0000a0 e8 b6 a6 3c 31 ec 11 bd e3 de 82 bb 03 53 f3 b9
       0.020350888 -0.03562564 -0.0039938553 -0.0004641042
0000b0 6c d8 8f 3b 24 37 3b 3c 03 ec c2 3d a0 a2 7b bc
       0.004389813 0.011426721 0.09517672 -0.015358597
0000c0 e0 3e 59 3d 73 c7 72 bd 3f 81 c7 3d 89 5f c8 3d
       0.053038478 -0.05927224 0.097414486 0.09783847
0000d0 88 7f e1 3c 1e 72 49 bd 94 f9 db bd 7a 51 dc bb
       0.027526632 -0.049181096 -0.107409626 -0.00672358
0000e0 bd 25 29 3d 28 c8 29 bd 67 84 98 bd 74 cf f6 bd
       0.041295756 -0.04145065 -0.07447129 -0.12051287
0000f0 1d 03 c4 3d ce 49 c5 bc a1 eb a5 3c ea 58 7a bd
       0.09570906 -0.024083044 0.020253958 -0.06111995
000100 ff d4 c5 bd ca dc 5b 3d 3e 1d d2 3d 3f 38 3e 3c
       -0.096597664 0.053677358 0.10259484 0.01161009
000110 28 4d 82 3d 07 77 05 bd d9 7e 95 3d e1 66 e0 bc
       0.06362373 -0.032584216 0.07299585 -0.027392806
000120 67 b9 db bd 19 6d 01 3e 27 3d 96 bd 45 71 46 bd
       -0.10728722 0.12639274 -0.07335883 -0.048447866
000130 74 a3 c5 bc 1b ae 1c bd 55 81 80 bd bf 57 26 bd
       -0.024125792 -0.038251977 -0.06274668 -0.040611025
000140 5f 57 fd 3d fc 44 41 bd ae af bf bd 9b 36 67 bd
       0.1237018 -0.04718493 -0.0935968 -0.05644856
000150 1d 22 69 3d 7c 1a 42 bd 2e 8c a6 bd 7a ce 2f bc
       0.0569173 -0.04738854 -0.08132206 -0.01073038
000160 f9 2b 81 bd 52 6e a6 3d a5 9f 11 3d 18 c9 db 3b
       -0.06307215 0.08126511 0.03555264 0.006707322
000170 d7 32 c0 3c 8a b0 69 bd d4 55 f3 3b 9f 36 03 be
       0.023461742 -0.057053126 0.007426003 -0.12813805
000180 25 30 d5 bd 0e 16 4e bd 5d cd a2 3d 2f 85 f8 bc
       -0.104095735 -0.050314 0.07949326 -0.030336944
000190 af 2e 0d be 0e 2c d7 3d db 18 b3 3d 1f 0f b4 3b
       -0.1378734 0.1050645 0.08744975 0.0054949666
0001a0 40 a2 d5 bd 0a a7 43 3d 90 20 6e 3d fe 3b c1 ba
       -0.10431337 0.047766723 0.058136523 -0.001474261
0001b0 cd 55 de 3c 8c 74 a8 bc f2 41 8d 3d 69 81 7f 3d
       0.027140522 -0.020563386 0.06897344 0.062379275
0001c0 2c 28 c2 3d 47 5e cd bd d1 63 8e bc f4 35 16 3d
       0.094803184 -0.100277476 -0.01738158 0.036672547
0001d0 51 6a 65 bd 98 9b a4 bc 1f 66 8d bd 70 5c a8 3c
       -0.056009594 -0.020093724 -0.06904244 0.02055189
0001e0 3d 32 af bd 94 82 81 3d 69 6b b6 bc 47 2a c7 bc
       -0.08554504 0.06323734 -0.022268014 -0.024312152
0001f0 b0 d3 b7 3c e0 56 40 3d bf a1 53 3c 5d 03 eb bd
       0.022439808 0.04695785 0.012916981 -0.11475251
000200 f5 56 df 3c 44 8c 54 3c 21 8f 2e bc b9 b2 40 bd
       0.027263144 0.012972895 -0.010654242 -0.047045443
000210 41 02 e1 3c 53 b4 93 bd 00 5d 17 3d f5 0e 4c bc
       0.027466895 -0.072121285 0.036953926 -0.012454738
000220 41 b7 85 3d 0c 45 69 3d 70 e9 84 bc 67 37 b8 3b
       0.065290935 0.056950614 -0.016224593 0.005621839
000230 7c 16 47 bd f8 57 6a bc 47 02 19 bd b4 c4 c7 3d
       -0.048605427 -0.0143032 -0.037355687 0.09754315
000240 73 84 4b 3d c4 a4 06 bc 42 47 ba bd d4 16 8a 3b
       0.04968686 -0.008217994 -0.090956226 0.004214147
000250 27 74 86 bd 2d 33 c6 3d c9 38 7f bb de e2 cd 3c
       -0.06565123 0.0967773 -0.0038943759 0.025132593
000260 9d d0 0f 3d 4d 12 14 bc 7e 8b 4e 3d 5b e8 23 ba
       0.03511106 -0.009037566 0.050426 -0.000625258
000270 83 7a 78 3d cf b7 9b bd a8 4f 62 3c f5 5f 5c 3d
       0.06066371 -0.07603418 0.013812937 0.05380245
000280 11 72 88 bc 9c 26 82 3d 72 49 9c 3d a9 4e 58 3d
       -0.016655954 0.063550204 0.07631196 0.05280939
000290 57 a4 72 bd 6e cd df 3b 04 36 4f bd 5e a6 09 bd
       -0.059238758 0.006829909 -0.050588623 -0.033605926
0002a0 2f 7e 5a bd 22 0d 22 3d 32 69 9a bb c2 de c6 3c
       -0.053342994 0.039563306 -0.0047122473 0.024276141
0002b0 ff 52 6c 3c c3 7b f0 ba 68 a4 f1 3c ae 0c 17 bd
       0.014424085 -0.0018347431 0.02949734 -0.036877327
0002c0 36 e9 83 3c 6b 45 f5 3c c9 64 c1 3c fa 84 7e bd
       0.016102415 0.029940328 0.023607628 -0.062138535
0002d0 5e b4 81 3c b5 03 8d 3b 1f 84 e3 bc 5b be 05 3d
       0.015833076 0.0043034204 -0.027772961 0.03265224
0002e0 d8 3b 46 bc 55 19 ed 3c 50 94 50 3d f7 c1 41 3d
       -0.012099229 0.028942743 0.05092269 0.04730412
0002f0 c3 d9 7b bd fe 0a 8e bd 4a 4b 7b 3d 72 73 3a 3c
       -0.06148697 -0.0693569 0.061351098 0.011380063
000300 6b 68 09 3d fe 9d 43 bc 28 7c 0e bc 12 9a e2 3d
       0.033546846 -0.011939524 -0.008696593 0.11064543
000310 79 dd 85 3b be 04 2b 3c 92 7a 0f bd 5d 41 df bd
       0.0040852395 0.010438142 -0.035029 -0.10901139
000320 a0 6b 10 be 8a 80 53 3d a5 53 8b 3a 30 3f ba bc
       -0.14103556 0.051636256 0.0010629786 -0.022735208
000330 ce 8e cf bd 81 66 bc bd 8c 62 73 3d f3 b9 01 bc
       -0.1013466 -0.091992386 0.059420153 -0.007917869
000340 6e f2 f2 3d ab 47 36 3d 70 e2 82 bd e5 d0 99 bc
       0.11862646 0.04450194 -0.06390846 -0.018776366
000350 c9 60 67 3c ef 01 2d bb dd f9 25 3c 43 d3 93 3d
       0.0141221965 -0.0026398858 0.010130373 0.07218029
000360 2e 4b 61 bd 8b 01 2f 3c 5f 54 aa bc df 8a 1c be
       -0.055003338 0.01068152 -0.020792184 -0.1528735
000370 98 f2 0c be 6b e6 f4 3d 10 48 b2 bd 78 33 d0 bd
       -0.13764417 0.11958011 -0.08705151 -0.10166067
000380 43 5c b9 bd a9 1c 18 be 6c d1 bb 3d 81 05 bf ba
       -0.09050801 -0.14854683 0.091708034 -0.0014573784
000390 ff 39 2f bb 53 bf ea bc 12 a0 c2 3d d9 cb d3 3b
       -0.002673745 -0.028655684 0.09503187 0.0064635095
0003a0 83 40 ed bd 63 a0 00 bd 1b 94 22 3e a8 e4 e8 3d
       -0.1158457 -0.031402957 0.1587681 0.11371738
0003b0 d5 d4 4d 3d 2d 54 5b bc 8d 47 bb 3d 32 ff 09 3e
       0.0502518 -0.013386768 0.091445066 0.13476256
0003c0 b4 ff ed 3d 11 c0 27 3d 59 16 07 bd c2 29 eb 3d
       0.11621037 0.040954653 -0.032980297 0.11482574
0003d0 e7 84 8f 3c 5f 24 b9 3c 90 55 81 3b e1 60 88 bc
       0.017519427 0.02260035 0.0039469674 -0.016647758
0003e0 dd db 51 3d 6d 27 fc bc ab d0 cb bc 3e e1 13 bc
       0.05123507 -0.030780518 -0.024879774 -0.00902587
0003f0 f8 e8 ab 3d 8f 2a 37 bc e8 20 52 bd 6d 7d 83 bd
       0.08394045 -0.01117958 -0.051300913 -0.064204074

lstm.bias_ih_l1 f4 [256]
000000 4a 8d 0f 3c 1f a5 b6 3b 90 75 24 bd 8a 12 1f bb
       0.008761713 0.005573883 -0.04015118 -0.0024272525
000010 50 4d 45 3d 3a 2f 2e 3d 84 0d d1 bd d0 0c ff bd
       0.048169434 0.042525508 -0.10207656 -0.12453616
000020 ff b8 cc 3d 7d dd ba 3d fc 12 4b 3d 0c 60 14 3d
       0.09996223 0.09124277 0.04957865 0.03622441
000030 0b 58 da 3d 1e c8 18 bd 6c c1 dc 3c d7 56 c0 b9
       0.10661324 -0.03730022 0.0269477 -0.00036685794
000040 28 cd b3 3d fd 33 bc bd a8 e4 a0 bd d5 99 aa 3d
       0.08779365 -0.091896035 -0.07856113 0.083301224
000050 d2 07 3c bd fe e2 e6 3d de 1a 1a 3d 77 a3 c2 3d
       -0.045905896 0.11273764 0.03762328 0.09503835
000060 6d 6d 66 bc d5 9d 7a 3d 96 c3 d4 3d bd 04 15 3a
       -0.014064175 0.061185677 0.103888676 0.0005684605
000070 ab 63 db 3c 61 d0 a3 bd 92 3e bc 3d 66 08 e3 3d
       0.026780924 -0.079987295 0.09191622 0.11085586
000080 0c a3 30 3d 4e 70 41 3d c4 32 a9 3c a0 4b 15 3d
       0.043124244 0.047226243 0.02065409 0.036449075
000090 93 d9 96 3c cc c7 2b 3d be 87 69 bd 3a 92 85 3d
       0.018414294 0.041938588 -0.05701422 0.06522031
0000a0 5b 9c df bd 2f 89 c5 bd 68 74 c2 3c bd 73 83 bd
       -0.10918494 -0.09645306 0.023737147 -0.0641856
0000b0 65 b3 f4 3d 6f 14 97 bd 33 ed ec 3d 3c 39 35 3d
       0.11948279 -0.07376944 0.1156868 0.044244036
0000c0 0f 52 e0 bd 19 63 51 ba 24 b8 87 3c 68 51 07 3d
       -0.109531514 -0.0007987484 0.016567297 0.03303662
0000d0 d3 b8 30 3d 43 37 07 3e c0 65 df 3d cc e8 a2 3d
       0.043145012 0.13204674 0.10908079 0.07954559
0000e0 d3 07 09 ba 21 a8 d4 3d 93 cc b1 3d d7 05 b0 bd
       -0.0005227301 0.103836305 0.086815976 -0.08594864
0000f0 c0 e2 b1 bd 94 b3 89 bd 4c 74 b9 bd f9 20 c2 bd
       -0.08685827 -0.06723705 -0.09055385 -0.09478945
000100 f8 dc bb 3d 7d 42 22 3c 05 32 65 3d 2b 89 d2 bd
       0.09173006 0.009903547 0.055955905 -0.10280069
000110 0c 5d 57 3d f7 c7 ed 3d 9d 8e 00 bd 86 dd b9 bd
       0.05257897 0.11610406 -0.031386007 -0.09075455
000120 3b 73 16 bd 33 38 57 bd 0b e6 8a 3d 5a aa b9 3d
       -0.036730986 -0.05254383 0.067821585 0.09065695
000130 93 cb 57 bd 4e a4 af 3c 0f 4d 87 bd c8 4e dc 3d
       -0.052684378 0.021440651 -0.06606495 0.10757214
000140 93 a8 4e bd ed 26 ff 3c 5c c7 9d bd 09 97 d0 3d
       -0.050453734 0.031146491 -0.077040404 0.10185058
000150 33 c4 fb bc 1c ba e6 3d 51 be 14 bd 11 5a 9e bd
       -0.030733204 0.11265966 -0.036314312 -0.077320226
000160 b4 08 dc 3d b4 65 bf 3d 46 4d 69 3c dd e7 c0 3d
       0.107438475 0.0934557 0.014239615 0.094192244
000170 63 76 86 ba 7e 1a f3 3c a6 76 8b 3d 2d 8f 22 3d
       -0.0010258671 0.029675718 0.0680974 0.039687324
000180 11 3b 6c 3d 68 c6 08 bd 27 8e 87 3c 30 6c d3 bd
       0.057673518 -0.03339234 0.016547276 -0.103233695
000190 cb 13 db bd d9 d0 d8 3d 12 8a 02 3e a0 54 fc 3d
       -0.106971346 0.105867095 0.12747982 0.123208284
0001a0 41 66 8e 3d 3c 74 81 bd af c0 fd bd c4 69 2c bc
       0.06953097 -0.06320998 -0.12390267 -0.010523263
0001b0 f8 7e 78 3d da 2e 53 3d e7 22 b3 3c 64 74 cf 3d
       0.06066796 0.051558353 0.021867229 0.101296216
0001c0 03 c5 df 3d 35 1a bb 3d b0 48 8f 3c 15 ed 67 bd
       0.10926249 0.09135858 0.017490715 -0.056622583
0001d0 09 9d 26 3d 28 f7 4d bd 60 b5 86 bd c9 a0 a2 bd
       0.040677104 -0.050284535 -0.06577563 -0.079408236
0001e0 53 88 86 3d 6b 3f 84 3c 0d a8 9f 3d d2 df 43 bc
       0.065689705 0.016143521 0.07795725 -0.011955218
0001f0 10 d5 27 bd cb eb ae 3d 46 6c e6 3d f6 c4 86 bd
       -0.040974677 0.08541068 0.1125112 -0.06580536
000200 43 31 9a 3d 75 de af bd ca f9 56 3d c4 fd 9e bc
       0.07528927 -0.08587352 0.05248431 -0.019408114
000210 5d c2 b3 bc 14 4c 83 3d b1 78 49 3d 67 9c 81 3a
       -0.021943266 0.06410995 0.049187366 0.000988853
000220 90 4b 5d 3d 21 47 83 3d 6e 07 c8 bd 90 81 2d 3d
       0.05402714 0.06410051 -0.09767042 0.04235989
000230 82 45 d3 3d fa 4d 4b 3c 1d a6 20 bd 3f 21 fd 3d
       0.10315992 0.012408728 -0.039220918 0.12359857
000240 d1 4f 63 bb 6a 15 b2 bc 29 9b d5 bd 79 2c 50 3d
       -0.0034685025 -0.021738727 -0.10429985 0.050823662
000250 64 f7 05 3c b0 bd 5f 3c 1a 39 74 bd b4 96 b2 3d
       0.008176658 0.013656065 -0.05962477 0.087201506
000260 bd a7 ed 3c ea 27 7b 3d be 9d a9 3b d2 d8 25 3d
       0.029010648 0.061317362 0.005176275 0.04048998
000270 86 ac c0 3b 2f de da 3d 99 4e b3 bd c5 5e e3 bd
       0.0058799414 0.106869094 -0.08755226 -0.1110206
000280 17 6e c8 bd 5c 2a ac bd 9f 6b 1a 3e 01 47 c1 bd
       -0.09786623 -0.08406517 0.15080117 -0.09437371
000290 1a 02 b7 3d 95 cc bf 3d 0d 78 67 3d 8b ea 96 3d
       0.08935948 0.09365193 0.056510974 0.07368954
0002a0 80 af a5 3d 4b e1 35 bb aa b0 b5 3d f7 1b 14 3c
       0.080901146 -0.0027752693 0.088715866 0.00903987
0002b0 b5 6c ed bd 41 a6 bc bd 01 d0 8d 3b 96 8f 2f bb
       -0.11593 -0.09211398 0.0043277745 -0.0026788465
0002c0 67 75 de 3c b5 37 85 bc cb 18 d4 bc 2d 1b 8c 3d
       0.027155591 -0.016261915 -0.025890728 0.06841121
0002d0 a9 05 b8 bd 34 9f 93 3d 89 f4 03 3d e0 80 a0 bd
       -0.089854546 0.072081 0.03221563 -0.07837081
0002e0 cb 9e 8f bd 9e f8 ae 3b 82 64 fe bb b8 81 e6 bd
       -0.07012709 0.005339696 -0.0077634463 -0.11255211
0002f0 ac e2 a9 3d 7d 60 84 bd 04 65 f4 bd 9e 94 d9 bd
       0.08295187 -0.06463716 -0.1193333 -0.106240496
000300 e8 2c 58 bd fa b3 18 bd 05 27 83 bd 6e 2d 17 bd
       -0.0527772 -0.037281014 -0.06403927 -0.03690856
000310 1d b9 3e 3b 1c 73 3b 3b 28 0c 86 bc 62 46 c1 bd
       0.0029102035 0.0028602546 -0.016363218 -0.094372526
000320 a7 cb 3c 3d 96 0a b7 bd 1f ef 84 bb 7e ac 89 bd
       0.046092656 -0.08937566 -0.004056826 -0.067223534
000330 22 3c fb 3d 9e 5f a1 bd cf e1 99 3c 74 e9 4f bd
       0.12267329 -0.07879566 0.018784432 -0.050759748
000340 44 e2 10 3e ee ec af bd 22 08 1b bd 20 50 41 bd
       0.14148813 -0.085901126 -0.037849553 -0.047195554
000350 b2 25 f2 3d b4 71 22 3d 0b 8b 3e bd 87 ee 6b 3d
       0.11823596 0.039659217 -0.04651932 0.057600524
000360 e4 b7 f5 3d c7 bc 0b 3e bd be 63 bc 4a ed 0b bc
       0.11997965 0.13646232 -0.013900456 -0.008540461
000370 41 92 c6 3d c7 c8 0d 3d 34 f6 21 3d 58 27 82 3c
       0.096958645 0.034615304 0.03954144 0.015887901
000380 94 f7 1b 3d 5d a8 a3 bd 59 ba f5 3c a8 17 b7 3c
       0.038077906 -0.07991097 0.029996084 0.022350147
000390 dd 8a 98 3d 43 24 c9 3b c7 60 c8 bd 12 4b 9e bd
       0.07448361 0.006138356 -0.09784084 -0.07729162
0003a0 fd 86 e7 3d a6 5d b2 bd 09 25 69 bd c6 af be bd
       0.11305044 -0.08709268 -0.056920085 -0.0931087
0003b0 25 b8 a5 3d d0 7f a6 3a 36 dd b9 3d 39 41 d5 bd
       0.080917634 0.0012702886 0.09075396 -0.10412831
0003c0 15 49 03 be e6 53 68 bd 9c 2c a9 bd 65 df 2e bd
       -0.12820847 -0.056720637 -0.08260462 -0.042693514
0003d0 39 36 9d bd a6 c9 32 bd 80 18 9e 3c 76 71 88 3c
       -0.07676358 -0.04364934 0.019298792 0.016655665
0003e0 58 e7 2e bd 0f 72 9a bd 8f 06 db bb 6f 19 52 bd
       -0.042701095 -0.07541286 -0.0066841315 -0.051293787
0003f0 d8 b8 ee 3d ad 3a d7 3d a6 40 95 bd 5c f8 22 bb
       0.1165635 0.105092384 -0.07287721 -0.0024867272
